model/lstm_model_bkng_sr.pth (torch, 209874 bytes, 9 tensors)

lstm.weight_ih_l0 f4 [256, 5]
00000000: e617 babd 6a4a 953d 829b 98bd 77ed 47bd
00000010: adec 05bd 1982 183e dc98 c33d 8ec6 123e
00000020: ccac 243d bd8b ae3d 3c66 e73d 6aa7 1a3e
00000030: db0c 86bd b69e ba3c 59a4 e03d 5689 4c3d
00000040: c9cf 40bd b040 d93d 00ef 4bbd ce05 1a3d
00000050: 48ae b83c 0c80 91bd 4a66 85bd 5105 9cbd
00000060: 9d75 c53d 0167 0b3c 6722 69bd 1422 c7bd
00000070: c6aa 99bc 391e 033b b097 a83d b00b b03d
00000080: 5bfa fa3d 0b00 2d3d ae0f a43d 09e5 953d
00000090: f860 c2bc 95e7 9f3d ab1b c9bd bc61 6aba
000000a0: 9789 c9bd addd 653d a205 bb3c e79d ebbd
000000b0: 3167 e9bd 731f a03d 8a92 a2bd 6973 023e
000000c0: be88 313d 3eae 003d 5976 cc3d f9d8 b1bd
000000d0: 5602 c1bd 457a 033d 947f bd3d 4896 cfbd
000000e0: c40b bcbd 094c b0bc ebdd 82b9 ce07 503d
000000f0: f92d ba3d f021 713d 5932 833d 1706 fabd
00000100: a5e8 fcbd 41d9 cbbc 4013 a9bd c4a3 bcbd
00000110: 5661 093c 267d 9bbd f3bf 0dbd d4fe fd3c
00000120: 58f8 c23d ff2d 62bd fc5d a73c bb06 b8bd
00000130: 2b58 0cbd 08dd 2abc a194 b13d 4edf a43d
00000140: 2362 17bd b50a e23d 4524 63bd 38e9 643d
00000150: c3b3 d1bd 0233 193e 4816 c13d 069a c0bd
00000160: ba0d cbbd 2ba1 473a b725 fc3d 6cda 04bc
00000170: f0cc 83bd d1b1 cd3d 7e06 5fba 8097 ce3c
00000180: 8d78 cdbd 8dfe 47bd cdbb 3e3d 7bf7 e53d
00000190: 54f2 0d3c dd10 0dbd 207f 65bd 6d88 14bd
000001a0: 3416 07bd e99e 41bd a677 043d c90b cfbb
000001b0: 94bf 983d ec7b 163e bdc6 b2bd ce89 ce3d
000001c0: b0a4 203d f652 b2bc 7119 e3bc a904 38bd
000001d0: cd1f c7bd 41a9 a43d 5a27 e63d 7d39 9fbd
000001e0: 57b2 3b3c dd53 1a3d a711 6abd 9612 143e
000001f0: 0fc7 1e3e 6614 92bc 70f2 0fbc 8f4d a2bc
00000200: 78c2 08bd 0ce1 003e 527b 3cbd 8525 b5bd
00000210: 1b0a b9bc ae83 423d e308 8c3d 88fb d2bc
00000220: 71b5 ff3d 9fe3 ba3d a149 033e 3a79 603c
00000230: 0475 9cbd 2f57 903d 9d17 443b fbb3 cfbd
00000240: bdb0 d3bd c785 87bd 3d70 e83d 603e 01bd
00000250: b77c 36bb fc62 87bc 0e87 6d3d 70b7 2e3d
00000260: b225 f83c d899 7bbd 8d61 b53d f209 773d
00000270: c0b4 02bd 9715 c33d 5224 8ebd 1c0b 173d
00000280: 9247 1cbd 610f 1a3d c1d5 d23d 9770 e13d
00000290: 0a23 4f3d dbf9 383d 4d7a 573d 9f8d a73d
000002a0: c7ef cf3c dde3 8abd a4f9 013d c4d4 913d
000002b0: 9a33 e3bc 236e dd3d 3f2b 03bd e2fc a6bd
000002c0: fdf7 b4bb 9da2 0abe 51e0 bd3d d596 2a3d
000002d0: 6b66 e33d a5c4 963d 79a2 eb3d 5667 80bd
000002e0: 7c1d d13b 6cf7 5abd 909e 0f3e c9e6 b73d
000002f0: cd24 533a 07da d7bc 078b 523d 3ce5 b2bd
00000300: af6b 50bd 75a4 cebd d928 53bd acd8 593d
00000310: 8271 e83d d14c c03b 9f8e 1a3d 1543 89bd
00000320: 3f42 b7bd 7b62 193d 3990 c93d e8dd 5dbd
00000330: 8ebc debd a972 a4bc ee97 623d 9031 ce3d
00000340: a5f1 5a3d 744c 5bbd f596 ccbd d9de 25bd
00000350: f804 9bbd a2c3 523d 9db5 d3bc 444e 693d
00000360: e89a 1a3e 69d9 01bd 8a59 0e3d 67ee 053e
00000370: 4770 45bc a1c3 03bd ce92 84bd 73bb a63d
00000380: 9e11 9abc 8ef9 1cbd 0562 673d 204f 783c
00000390: 3f8b b8bd bd5e 673d 9ee0 293d ffc6 b53d
000003a0: 7805 db3d 7fab 103d 5d4a c1bd 0a19 cc3b
000003b0: e8b6 94bd 1c27 a7bd a508 ff3c 6116 e13d
000003c0: 7e30 283d 878a 843d 98e6 073e 77b6 34bd
000003d0: 5550 79bd e299 52bd d35a 9b3d 3fc9 c3bd
000003e0: cb3b 98bd abfe 5c3b c2d4 163e 939c d93c
000003f0: da5f 6fbd 2ae2 7ebd 343e e83d b292 bebc
-0.090865895 0.07289584 -0.07451536 -0.04881045 -0.032696415 0.14893378 0.0955064 0.14333555
0.040203854 0.08522747 0.112987965 0.15102926 -0.06545421 0.022780757 0.10968847 0.04993566
-0.04707316 0.10608041 -0.049788475 0.037603192 0.022544041 -0.07104501 -0.06513651 -0.076182015
0.096415736 0.008508445 -0.056917574 -0.09723297 -0.018758189 0.0020007028 0.08232057 0.08595979
0.12254783 0.04223637 0.08010803 0.073190756 -0.023727879 0.07807843 -0.0981973 -0.0008940955
-0.09840696 0.05611961 0.022829834 -0.11504727 -0.11396635 0.078184985 -0.07938106 0.12739338
0.043343298 0.03141617 0.099835105 -0.086839624 -0.09424274 0.032099027 0.09252849 -0.10136086
-0.091819316 -0.021520631 -0.00024960874 0.050788693 0.090908 0.058870256 0.064060874 -0.12208193
-0.12349061 -0.024883868 -0.08255625 -0.09210923 0.008385023 -0.075922295 -0.034606885 0.0310053
0.09520024 -0.055219647 0.020430557 -0.08985659 -0.03426377 -0.0104286745 0.08670927 0.080504045
-0.036958825 0.110371985 -0.05545451 0.055886477 -0.10239365 0.14960864 0.09428078 -0.09404378
-0.099147275 0.00076152635 0.12311881 -0.008108716 -0.06435573 0.100436814 -0.00085077423 0.025218725
-0.10032759 -0.048826743 0.04656582 0.11228844 0.008663733 -0.03443991 -0.05602944 -0.03626292
-0.03298016 -0.04727069 0.03234067 -0.0063185436 0.07458416 0.1469571 -0.087293126 0.10084878
0.03921956 -0.021768074 -0.027722092 -0.04492632 -0.097228624 0.08040095 0.112379745 -0.07774637
0.011456094 0.037677635 -0.05714574 0.14460215 0.15505622 -0.017831992 -0.008785829 -0.019812373
-0.033388585 0.12585849 -0.046016045 -0.08845047 -0.022587826 0.04748886 0.068376325 -0.025754705
0.12485779 0.091254465 0.12821056 0.013700778 -0.076395065 0.07047879 0.0029921301 -0.101417504
-0.103364445 -0.06617313 0.11349533 -0.031553626 -0.0027845332 -0.016526692 0.057990126 0.04265541
0.030291412 -0.061426014 0.08856497 0.06031222 -0.031910658 0.09525602 -0.06940521 0.03687583
-0.038154192 0.037612323 0.102946766 0.11007803 0.050570525 0.045160156 0.05260687 0.08181309
0.02538289 -0.06781743 0.031732216 0.0712066 -0.027734566 0.108120225 -0.032023665 -0.08153702
-0.0055227266 -0.13538595 0.092713006 0.04164775 0.11103519 0.07361726 0.115055986 -0.0626971
0.0063816886 -0.053458616 0.1402533 0.08979566 0.0008054495 -0.02634908 0.051402118 -0.08735129
-0.050883945 -0.100899614 -0.051552627 0.05318515 0.11349775 0.005868532 0.03773367 -0.06702248
-0.08948182 0.037447434 0.098419614 -0.054166704 -0.10875808 -0.020074205 0.055320673 0.10068047
0.053453106 -0.05353971 -0.0998973 -0.040495727 -0.07569307 0.0514561 -0.025843436 0.056959406
0.15098155 -0.03170148 0.03475336 0.13079225 -0.012050695 -0.03216899 -0.06473313 0.08141222
-0.018807229 -0.03832393 0.056489963 0.015155584 -0.09010934 0.056486834 0.041473977 0.08875846
0.106944025 0.0353198 -0.09438012 0.006228571 -0.07261449 -0.081617564 0.031132052 0.109905966
0.04106187 0.064717345 0.13271558 -0.044119325 -0.060867626 -0.051416285 0.07585683 -0.09559869
-0.074332796 0.003372113 0.14729598 0.026563918 -0.05844102 -0.062227406 0.11339989 -0.02326331

lstm.weight_hh_l0 f4 [256, 64]
00000000: b049 043e 0c71 01be 22dd 1f3d 1a3b d03d
00000010: f18a 793d 7678 573d 10e2 6cbb bb64 f43d
00000020: 2fd5 aabd 7aed 563d 202c d63d 42a1 09be
00000030: fe59 8f3d f398 39bd d9ba 113d 8e4a 153d
00000040: 87fb e93d 8065 373c 3e1d a73d ca4b 66bd
00000050: 2991 c3bd 7991 fb3d 917d 003e ba2e b1bc
00000060: 482b c1bd 03dd efbd 4bf0 063e c8b7 c53d
00000070: 7539 f8bd a4c4 42bd b244 cf3b 1499 33bd
00000080: acd6 37bd f81b f93d 1451 d33d f8b9 de3c
00000090: af1c b63d 9a41 b4bd fe7f d9bd b57a 7f3d
000000a0: 272b c13c 58aa a03d 8fe6 7dbd ae8a 253c
000000b0: 28d9 4bbd 7187 d3bd 5f83 5a3d 65fe 0b3d
000000c0: 3e60 fdbd 7c2b e03d 2f50 483b e459 963b
000000d0: 4149 50bd 50fe e43c 54dc 013d f385 a63d
000000e0: 5075 9a3d e82e f2bc 7ac2 6abb 6207 19be
000000f0: 4230 a1bd acf4 123d 77d4 673d a280 923d
00000100: 7a36 023d 9f24 88bd 1b45 8b3d aa4e 813d
00000110: b026 103d 86aa 703d d6ac 863d db1b 85bd
00000120: e700 e93d 469d 7d3d 3a69 29bb c769 e4bd
00000130: 85ac 733c 5079 b43d 876d bf3c 089f 33bd
00000140: 1e41 9dbc a0eb 043e 61c9 e03c 31a5 4a3d
00000150: cb93 ddbd b862 583d ff4d d6bd 5290 6d3c
00000160: 3936 abbd 748b babd 36bb 81bb df62 7cbd
00000170: a512 483d 234a 043e fa34 d7bd c047 093e
00000180: 8488 b13c 46b9 9abd 16b2 a83d 3db0 023e
00000190: 0075 31bd 2075 623c be32 a9bd 0e10 e7bb
000001a0: 13d9 e8bc a51b 903d 029f dcba ebab 85bd
000001b0: 66df f8bd b5c7 b6bd cd04 dd3c fa0b bd3d
000001c0: 2edc 9cbd 38d9 623d ae2f d43d 24ab 033a
000001d0: 46aa 8dbd bca0 31bd d867 e2bd 69d9 9fbb
000001e0: 2572 34bc 5f99 09bc e5ce 95bb 13f1 933d
000001f0: 30eb c7bd 4da7 16bd 35fe e5bd 09a6 063d
00000200: db0c c7bd 9ee6 ecbd 8634 d33d 8ecb 3abd
00000210: c8f0 ca3d c190 2cbd 0b2a fbbd 74ed 043e
00000220: 565c 5cbd df58 b2bc 5ebb bdbd 58f4 0dbe
00000230: 3a8c 54bd c9e3 45bd 4706 52bd 809a 913d
00000240: a83b 6dbd e399 e93b 2471 56bc 098c eebc
00000250: 4371 dcbd f5ce e53d 1609 babd 2d02 8bbd
00000260: bb40 1b3e d8fe 5ebd 1822 8fbd d5b7 c5bd
00000270: e5d8 a43d 1378 11bd 7ab8 bd3d 7524 323d
00000280: 27f9 e93c 2fdd 59bd 90d6 813d e1ec bfbc
00000290: ac3d c6bd 2fdd 8a3d 3c02 943d 5b24 683d
000002a0: 204a 783c 9310 f23d 17b1 6d3d c6ff d33d
000002b0: 48bc 553d 9e1d 193d c21a ac3d 65c0 66bc
000002c0: e766 0e3d 5512 b6bd 1b39 7e3c a086 c0bd
000002d0: 118b c8bb 21c8 a8bd 184c e2bd 5181 813d
000002e0: 2fb6 5dbc 3d01 953d 9cbe e03d 2eb2 06be
000002f0: 657a aa3d 27bd 5dbd cd7f 27bd cf68 c43d
00000300: 7424 01be de12 91bd 36f7 01be 3aed e9bd
00000310: 0704 76bc d078 a53d a0a0 5ebd 6194 7abc
00000320: ca8f b9bd 94b0 d03d b411 613d c25a 083e
00000330: 1372 02be 2eae e7bd 2962 27bc 680d 8c3d
00000340: 94e5 03be 4f00 92bc d4a8 95bd 4310 54bc
00000350: 49d0 183d 31d3 c2bd 7751 f6bd b62f 9ebd
00000360: f4ae 4d3d dc17 fbbc 70c8 9c3c 6dae 9dbb
00000370: 27d3 67bd cd8c bc3c 11d2 893d a623 d1bd
00000380: 4eee a53d 7c81 963c a86a 273a 6677 9cbb
00000390: 5881 2abc 9550 acbc 01ba 0abe 926b d03b
000003a0: 5f97 d73c 1ce5 e8bd 9355 d6bd df36 ac3d
000003b0: bed2 8d3d d37d 963d af25 c8bb 7cbd 59bd
000003c0: dbf0 d03d 15e7 d5bd 7dd4 e43d 9103 b03d
000003d0: ebd2 c43d f7bb 063e c4f9 e7bc 7abb b73d
000003e0: 830c 0fbe 13f6 863b 4f50 b5bd e0e2 b1bd
000003f0: 2a78 c1bc ecf2 1fbb ea2a 2ebc b670 08bd
0.12918735 -0.1264078 0.039029248 0.10167523 0.06092352 0.052605115 -0.0036145486 0.11933275
-0.08341443 0.05247257 0.10457635 -0.13440421 0.069995865 -0.04531188 0.035578582 0.036448054
0.11424928 0.011193633 0.081598744 -0.05622462 -0.095491715 0.12283606 0.125479 -0.021628726
-0.09432083 -0.117120765 0.13177602 0.09654194 -0.12120334 -0.047550812 0.006325328 -0.04384716
-0.04488246 0.12163538 0.10318199 0.027188286 0.0889219 -0.08801575 -0.10620116 0.062372882
0.023580147 0.078449905 -0.061987456 0.010103865 -0.049767643 -0.10328568 0.05334794 0.034178156
-0.12371872 0.10945794 0.0030565371 0.0045883525 -0.05085111 0.027953297 0.031704262 0.081310175
0.07541907 -0.029563382 -0.0035821483 -0.14944223 -0.078705326 0.03587787 0.056599107 0.07153441
0.031790234 -0.0664761 0.0680029 0.06313832 0.035193145 0.058756374 0.065759346 -0.06499454
0.11377125 0.061917566 -0.0025850073 -0.11152988 0.014872675 0.08812201 0.023367656 -0.043852836
-0.01919609 0.12980509 0.027439775 0.049473945 -0.10819205 0.05282852 -0.10464095 0.014499741
-0.083599515 -0.0910863 -0.003959085 -0.06161773 0.048845906 0.12918906 -0.10508151 0.13406277
0.021671541 -0.07554869 0.08237092 0.12762542 -0.04332447 0.01382187 -0.082616314 -0.0070514744
-0.028423822 0.07036523 -0.0016832056 -0.065269314 -0.12151985 -0.0892481 0.026979828 0.092308
-0.076591834 0.055382937 0.10360657 0.00050227554 -0.06917243 -0.04336618 -0.11054963 -0.004878212
-0.011013542 -0.008398383 -0.004571783 0.07223716 -0.09761655 -0.036780644 -0.11230127 0.032873187
-0.09719249 -0.11567424 0.103127524 -0.04560428 0.09909207 -0.042130236 -0.122638784 0.12981206
-0.053798996 -0.021770893 -0.09264253 -0.13862741 -0.051891543 -0.048312936 -0.051275518 0.07109547
-0.05791822 0.0071289404 -0.013088498 -0.029119508 -0.107637905 0.112211145 -0.09083764 -0.06787524
0.15161411 -0.054442257 -0.06988925 -0.09654204 0.08049182 -0.035514902 0.09263702 0.0434918
0.028561188 -0.053189453 0.06339753 -0.023428382 -0.09679732 0.06780469 0.07226989 0.056675296
0.0151543915 0.118195675 0.058030214 0.10351519 0.052181512 0.03738176 0.08403541 -0.014083956
0.034766104 -0.08890215 0.015516545 -0.09400678 -0.0061200936 -0.082412966 -0.1104967 0.06323493
-0.0135322055 0.07275627 0.10973856 -0.13153908 0.08324126 -0.054135468 -0.040893365 0.09590303
-0.12611562 -0.07083677 -0.1269196 -0.114222005 -0.015015609 0.08079684 -0.054352403 -0.015294165
-0.09060629 0.101899296 0.054948524 0.13315871 -0.12738828 -0.11312519 -0.010216274 0.068384945
-0.12880546 -0.017822413 -0.07307592 -0.01294333 0.03730801 -0.09512938 -0.12027257 -0.07723944
0.050215676 -0.030651025 0.019138545 -0.004812053 -0.056597855 0.023016358 0.0672952 -0.102118775
0.08102094 0.01837229 0.00063864375 -0.0047749756 -0.0104068145 -0.021034518 -0.13547517 0.0063604796
0.026317297 -0.11371824 -0.10465541 0.08408903 0.069249615 0.07348218 -0.006108008 -0.053159222
0.102021895 -0.10444466 0.111733414 0.0859443 0.09610542 0.1315764 -0.02831734 0.08971305
-0.13969617 0.00411869 -0.08853208 -0.08685851 -0.023616869 -0.0024406267 -0.010630349 -0.033310615

lstm.bias_ih_l0 f4 [256]
00000000: e783 2c3c 060d c3bd e212 0b3d 4b2f 04be
00000010: 5944 e13b 82e1 0cbd 422b 48bd 1fa4 7f3d
00000020: 80df 42bd 4106 51bd 0188 b03d 82bc a93d
00000030: b3fd c5bd 35cc aebd de77 093d 28b8 a63d
00000040: 0d66 c63d f325 88bd e12c 453b 7e1e dbbd
00000050: aa84 d4bd a2fc 413d ff7f 89bd 5643 65bd
00000060: 799d bebc d59c 5fbd d5b8 8cbc eb51 95bd
00000070: bf28 f2bb 1979 b13d 9291 4a3d 8da9 98bc
00000080: 1237 513c f0a4 5dbd 63b7 7b3d 776f d03c
00000090: 1c71 d9bd 53b4 2ebd 7af5 b43c 867f aebd
000000a0: cbaa 73bd ab29 9d3d 7291 cd3d 0107 84bd
000000b0: 8373 8f3c d372 f63d 280d af3d eec4 403c
000000c0: 894a 033d 47d2 71bd a0e4 36bc a605 6ebd
000000d0: 47f8 b93d 580c 893d b0ad dd3d 7abd 84bb
000000e0: 2dea 4ebd d54d c13d 6d7d 9c3d d032 063e
000000f0: 156d 28bc f944 673c a572 cf3d f815 ab3d
00000100: a43f 073e be24 b53d 8a52 1dbd 0ac8 bf3d
00000110: 5f3a 353c 13a7 cabd 8ed0 8dbd f504 f23d
00000120: f63a f0bd d61e 733b bd0e 98bd f846 fa3d
00000130: 7c76 b2bd d9da 3dbd 12ee 9b3b 5738 bcbd
00000140: 822c 363d 476f a53c d64d e13d 3837 ae3d
00000150: 58bc 9c3d 8d8a a2ba 992b 8abd 5366 d6bd
00000160: fb7d 1c3e aaed 2bbd 1048 9c3d 2d6c 0bbd
00000170: c59e 77bd 1a10 93bc 819c 31bb c985 ab3d
00000180: f532 34bd a57c 313d 1551 cb3d 4e54 923d
00000190: e8a3 9f3d 807d aabd baf7 5cbc 9427 593d
000001a0: 5df4 0bbc 030e 963d 0624 8cbb af81 4c3d
000001b0: 0354 d6bd 43cb dbbd 8190 e9bd ce1b a1bd
000001c0: 765f ac3d 5e6d e9bd e4f7 ccbd b779 74bc
000001d0: 7766 fd3d a1b6 0d3d a91f c5bd 732d 9f3c
000001e0: cd25 5d3d 87fb 0b3c 6155 413d 45d6 bfbd
000001f0: c86d 9b3d 8eb4 9e3d 1250 b8bc a721 22bc
00000200: 2b62 9ebd 7acf 63bc d7cc 983d dbff c5bc
00000210: 1bb3 aa3d 885d 263d a040 29bd 92b9 e43d
00000220: 4747 13bd eb48 423d e0b2 33bd f7eb efbd
00000230: 558d 893d c078 aa3d 0ecd dbbc 12bc a53c
00000240: c594 ec3d ee8e ffbc 0bfd 8e3d 3cce 02bd
00000250: 8791 993d ffb8 91bb dd11 803c 8e08 99bd
00000260: efeb d1bd 59a8 88bd 453a ecbb 3e26 303d
00000270: 7247 eabc 4af6 79bc 5195 35bd 1c0b dfbd
00000280: 43e4 8dbd 8116 bb3b 3e39 973c 57b5 31bd
00000290: 5de3 fd3d 9631 c33d 48fc 7f3d 4a01 46bd
000002a0: c91e 193d 31bc bc3d 0072 ed3c e470 273c
000002b0: 18bd 7a3a 48b9 84bc b741 6dbd d19d 6dbd
000002c0: fe52 c13c 3548 da3b d2c7 75bd c67d 27bd
000002d0: 8be0 d6bc b116 d7bc 1fa7 cdbd fe4b 993c
000002e0: dee0 ca3c 538b c53d 78bf 863c bf8e 1bbc
000002f0: 2e4e 74bd c9d7 b53d ea82 6e3d 62ee 1d3d
00000300: 08a2 fd3d 8b90 e1bd 5899 cebc f527 92bd
00000310: c1fa 0bbd a260 e0bd 9568 b63d 3935 923c
00000320: c2f8 98bd dd76 083e d67f 6fbc bbb3 103d
00000330: 4540 fdbd e097 5b3d 2301 023e 0883 99bd
00000340: 2c27 923b ceeb a13d 9e7f cf3d e820 04bd
00000350: 8298 dd3d 2c56 cd3d 8768 833d 96fb 22bd
00000360: 36df 583d 68b3 b0bc 4643 2dbd 96db 2abd
00000370: 5477 cdbc 8946 91bd 62a0 18bb aefd 073c
00000380: de73 b73d 3f61 c33c ed32 f03d acbc adbd
00000390: 6528 c23d 649e 1d3d 7e1a bcbb 7b7b 0f3e
000003a0: d7d7 993d 783c b83d 4a43 963d aca6 d33c
000003b0: 0741 dabc 5c82 c83b 6655 95bd cd25 d4bc
000003c0: 2e65 4e3c 34ff 04be feaa c5bd bad9 543b
000003d0: dd50 843d d655 debc 0d17 d53c 6939 ec3d
000003e0: d045 093d 3eac 413c 1f3e 97bc 72db 99bd
000003f0: cd10 2abd 8ef1 993d ece2 fd3c f73c aa3d
0.010529495 -0.095239684 0.033953555 -0.12908666 0.0068746028 -0.03439475 -0.04886938 0.062412377
-0.047576427 -0.051031355 0.08619691 0.08287908 -0.0966753 -0.08535043 0.03356158 0.08140594
0.096874334 -0.06647863 0.0030086564 -0.10699175 -0.10376866 0.04736007 -0.067138664 -0.05597242
-0.023268448 -0.054592926 -0.017177979 -0.07291015 -0.007390111 0.08665676 0.049455233 -0.018635536
0.012769477 -0.054112375 0.061454188 0.025443776 -0.10617277 -0.04265244 0.022089709 -0.08520417
-0.059489053 0.07673963 0.10037507 -0.064466484 0.017511135 0.1203362 0.08547431 0.011765702
0.032053504 -0.059038427 -0.011162907 -0.058110856 0.09080558 0.066918075 0.10824144 -0.0040509077
-0.050516296 0.094386734 0.076411106 0.13105321 -0.010279913 0.014115565 0.101292886 0.083537996
0.1320787 0.08844899 -0.038408794 0.09364326 0.01106128 -0.09895148 -0.06924544 0.11817352
-0.11729996 0.0037097237 -0.07424686 0.122205675 -0.08714005 -0.046351288 0.004758605 -0.091904335
0.04447604 0.020194663 0.11001174 0.08506626 0.07653111 -0.001240091 -0.06746597 -0.104687355
0.15282433 -0.0419747 0.07630932 -0.03403871 -0.06045415 -0.017952014 -0.002710134 0.08375127
-0.04399391 0.04333176 0.099275745 0.07144986 0.077949345 -0.083247185 -0.013486797 0.05301626
-0.008542147 0.07326891 -0.0042767553 0.049928363 -0.10465243 -0.107321285 -0.11404515 -0.078666314
0.08416645 -0.11397813 -0.10008219 -0.014921597 0.12373059 0.034597997 -0.09625179 0.019430852
0.053991128 0.0085438555 0.047200564 -0.093670405 0.075892985 0.07749282 -0.022499118 -0.009895719
-0.07733568 -0.013904447 0.07460945 -0.024169853 0.08334943 0.040616542 -0.041321397 0.11168207
-0.035956647 0.04743282 -0.04387176 -0.117149286 0.0671641 0.083238125 -0.026831176 0.02023128
0.11551813 -0.031196084 0.06981858 -0.03193496 0.0749846 -0.004447102 0.015633518 -0.07472335
-0.10250079 -0.06672735 -0.0072090947 0.04300522 -0.02859852 -0.015256474 -0.044331852 -0.10890791
-0.06928303 0.00570947 0.018459912 -0.04338583 0.12396882 0.09530942 0.062496454 -0.048341073
0.037382875 0.09215582 0.028985023 0.010219786 0.00095649203 -0.01620163 -0.057924 -0.058011834
0.023599144 0.00666144 -0.060005017 -0.04089143 -0.026230117 -0.026255937 -0.100416414 0.018712994
0.024765428 0.096457146 0.016448721 -0.009494483 -0.05964487 0.088790484 0.058230318 0.038557418
0.12384421 -0.110138975 -0.025219604 -0.071365274 -0.034174684 -0.10955931 0.08906666 0.017847644
-0.07469322 0.13326593 -0.014617881 0.035327654 -0.12365774 0.053611636 0.12695746 -0.07495695
0.004460236 0.07906304 0.10131763 -0.032257944 0.10820104 0.100262016 0.064164214 -0.039790712
0.052947246 -0.021569923 -0.042300485 -0.04171332 -0.025081314 -0.07093532 -0.0023288955 0.008300228
0.08957647 0.023850081 0.11728463 -0.08483252 0.09480361 0.03848113 -0.005740463 0.14011948
0.07511871 0.089959085 0.07337053 0.025836311 -0.026642336 0.0061190557 -0.07291679 -0.025896931
0.012597365 -0.12987977 -0.09651755 0.0032478408 0.06460736 -0.02714054 0.026011968 0.115343876
0.033513844 0.011820851 -0.018462239 -0.07512559 -0.04151993 0.07516776 0.030991994 0.08312409

lstm.bias_hh_l0 f4 [256]
00000000: 554c cebd ba80 8abd ecf4 a33d 80fb a03d
00000010: f1f9 753c 1092 5c3c 4c65 d53c d668 de3d
00000020: 9fa8 e0bd 7962 aebd 9f2d c03c ec6d 1d3d
00000030: b893 323d c715 7e3d 7790 b4bd 3e9f c5bd
00000040: d91a 79ba daab 0a3e 67f1 5dbc d1fa f8bb
00000050: c99e 1bbd 482f babd 8953 a63d 23f9 59bd
00000060: bc15 93bd 9223 0c3e 7288 173d deb2 afbb
00000070: 7ce6 653d b455 013b 8a3c 443d f5c5 a83d
00000080: f6cb 68bd 979e eebd 8ef1 a13d e73e f6bc
00000090: 18af 313c 2117 433d ed32 7dbc f24d afbd
000000a0: 48ab 9dbc 8711 553d 0722 d9bc 31ea ef3c
000000b0: 5c20 d23d 9909 bcbb 868a 2fbd 6e48 96bd
000000c0: e5e9 3a3b 33a7 b3bd 7a74 cfbd 8ad3 11bd
000000d0: a96a a23d 9f95 703d c4eb 7dbd 85c0 6abd
000000e0: 171b 2a3c 6c9a 59bd 1235 253d c26f d13d
000000f0: 1022 073e ba37 013d 9c2a 793d 7cb2 983d
00000100: c09e a53d 1ea6 5abd 8d65 063e a785 643c
00000110: 74a9 3b3d 571c b83d 0242 bd3d 7da4 093c
00000120: 87f9 aa3c 7433 7b3c 4592 e93d 43b0 cd3d
00000130: c1b3 383d bd4f ca3c 54dd f63d 75b3 e0bd
00000140: cd59 8e3d 8cca 85bd 0ac8 e0bd bf8c 023e
00000150: 8b52 cb3c 598f 823d f56f 9a3d 6bf4 f53d
00000160: a359 8a3d a82e 813d 92af a6bb 82c1 633d
00000170: 124f c93d aed4 3d3d fb7b b63c 476e 1abd
00000180: f84b 943b 361a d13c eff2 993d a8e7 62bd
00000190: cff1 4b3c a81f c1bd 216c a63c 80ee 693d
000001a0: 7ea3 0cbe 70ee 003e 4444 aa3d 5e55 9fbc
000001b0: 70f4 54bc 59aa 73bd f9f6 3f3d f3b5 2ebd
000001c0: 7392 c03c 490f 663c 2eda f13d 1e1e 27bd
000001d0: 43fe 283d 1f2b 583d 0164 d8bd 66e2 e1bd
000001e0: 82df 88bd 817c 893d b2a4 bfba aa20 013e
000001f0: 768c f03c 4a7a 92bd 4da1 0c3e 5cd8 4dbd
00000200: 4f18 9a3d 00f2 e8bd 47e9 d9bd 5e63 c33d
00000210: 15e3 bbbc 970f e2bc 6152 5bbc 2129 b8ba
00000220: 2b1a 98bd a81d 5e3c 9dea 43bc e07a 9cbd
00000230: 0b33 c53d ea2b 9bbd 8ccf 973d 0df4 483d
00000240: dcb8 643b 5edf c63d f59f 85bd c855 093d
00000250: efa0 ab3d 4c43 6ebd aebf f33b c231 693d
00000260: ea8f e6bc 7d54 8bbd fd96 51bd 2a70 463c
00000270: 9c96 09bd 604c ce3c c406 8f3d 124c d33d
00000280: 5038 70bd 0297 05bd 690b 043d 6995 3a3d
00000290: bc14 663d c8f1 c93d 6729 6cbc 0228 1e3d
000002a0: 431c dcbb 13b7 2fbd b928 6fbd da2f 59bd
000002b0: 8d1e abbd f8f3 dc3d 88fa 373d 85a3 d5bb
000002c0: 354e 18bd 1611 b4bd 40cd d0bd d388 b93d
000002d0: a32b 1b3d 29c5 c1bd 56d2 80bd e99d ccbd
000002e0: 468d 67bb 32ec daba 5834 bdbd eb14 443d
000002f0: 626c 9abd d370 ad3d 9e74 d1bc 6e69 623d
00000300: bf03 2e3d 8005 33bb 1720 a3bd 0c77 8f3d
00000310: 491e ef3d da2d a6bd 7c23 0a3e 4ff3 773c
00000320: d761 26bd 1464 03bd dc3b b6bd 20fd fa3d
00000330: 5fb7 c2bc 3845 1abd fc10 7a3c c234 93bd
00000340: 0447 9cbd 29b1 27bd 5996 80bd 532a e0bd
00000350: d251 a4bd 63a5 c63c bf83 6f3c 1f73 093e
00000360: b495 53bd db0f 813d 8452 70bd aa46 e33d
00000370: 2320 8e3d e1ae c0bd bf37 c4bd 5b58 7abd
00000380: b8a2 a23c a50e 0dbe a5a8 a23c 3e17 683d
00000390: 1cd3 30bc 442e 68bd 3d8c 893b f3a9 ef3d
000003a0: 0301 81bd 3c09 bb3a 6642 893d a7c9 e03d
000003b0: cd08 bebd 944c 87bd 30d3 863d 4e2a c93d
000003c0: 92a4 803d 2871 6ebc ad17 6abd 3cdd 3e3d
000003d0: cdce 363d b71b 4f3d 12d7 d93d ca03 80bc
000003e0: 013a d33d b451 38bd 6dcb 11bd 74b1 87bd
000003f0: 431f e0bc 4c03 41b9 afb7 c73d 7c2c fbbc
-0.10073153 -0.06762834 0.080056995 0.0786047 0.015013204 0.013462558 0.026049279 0.108598396
-0.10969662 -0.08514876 0.023459254 0.038434908 0.043597907 0.062032487 -0.08816617 -0.09649514
-0.0009502597 0.13542119 -0.013546324 -0.007598259 -0.037993226 -0.090910494 0.08121402 -0.05321611
-0.0718188 0.13685444 0.03699536 -0.005361899 0.05612801 0.001973492 0.047909297 0.08240882
-0.056835137 -0.11651342 0.07907401 -0.030059291 0.010844968 0.04762948 -0.015454036 -0.08559789
-0.019246712 0.05201867 -0.026505483 0.029286476 0.10260078 -0.005738449 -0.042856716 -0.073380336
0.002852076 -0.08772125 -0.10129638 -0.03560213 0.079305 0.05873644 -0.06199242 -0.057312507
0.010382435 -0.053125784 0.040333815 0.10226394 0.13196588 0.031547286 0.06083165 0.07455918
0.0808692 -0.053381078 0.13124676 0.013947881 0.0458159 0.089897804 0.092411056 0.0084010335
0.020870937 0.015332092 0.11404852 0.10043385 0.0450933 0.024696225 0.12053934 -0.10971729
0.06950722 -0.065327734 -0.109756544 0.12749003 0.024819633 0.06374998 0.07540885 0.1200951
0.06755378 0.06307727 -0.0050868476 0.055604465 0.098295346 0.046345405 0.022275915 -0.037702825
0.0045256577 0.025525194 0.07517039 -0.055396706 0.012447788 -0.09429866 0.020315232 0.057112217
-0.13734242 0.12590957 0.08313802 -0.019449886 -0.012997732 -0.059488628 0.04686639 -0.04265399
0.023507332 0.01404173 0.118091926 -0.040800206 0.041258108 0.0527755 -0.10565949 -0.1102951
-0.06683256 0.067132 -0.0014621227 0.12610117 0.029363852 -0.07152231 0.13733406 -0.050255165
0.07524168 -0.11374283 -0.10640197 0.09540437 -0.02293543 -0.027595324 -0.01338634 -0.0014050343
-0.07426866 0.013556875 -0.011957792 -0.07640624 0.09628876 -0.07576735 0.07412633 0.04906087
0.0034900224 0.09710573 -0.0652465 0.033529073 0.08380305 -0.058169648 0.0074386215 0.05693222
-0.028144795 -0.06803224 -0.051169384 0.012111703 -0.033590898 0.025182903 0.06983712 0.10317244
-0.058647454 -0.032614715 0.032237444 0.045552645 0.056172118 0.09860569 -0.014414168 0.038612373
-0.0067172362 -0.042899203 -0.058388446 -0.05302415 -0.083554365 0.10788721 0.04491666 -0.006519737
-0.03718396 -0.087923214 -0.10195398 0.090593 0.037883412 -0.094614334 -0.062901184 -0.099910565
-0.0035332008 -0.0016702472 -0.092384994 0.04787151 -0.07540204 0.08468785 -0.025568303 0.055276327
0.04248404 -0.002731651 -0.07965105 0.07005128 0.11675698 -0.08114214 0.13490099 0.015133693
-0.04062065 -0.032077864 -0.08898136 0.12255311 -0.023769079 -0.03766367 0.015262838 -0.07187797
-0.07630733 -0.040940437 -0.062786765 -0.10945573 -0.080234185 0.024248784 0.014618813 0.13422821
-0.05165644 0.06301852 -0.058672443 0.110974625 0.06939723 -0.094083555 -0.09580945 -0.06111942
0.019852981 -0.13775118 0.019855807 0.05666279 -0.01079252 -0.056684747 0.004197626 0.11702337
-0.06299021 0.001426972 0.067021176 0.10975962 -0.09279022 -0.06606403 0.065832496 0.09822522
0.06281389 -0.014553346 -0.057151485 0.046597704 0.044630814 0.05056354 0.106367245 -0.015626807
0.10313798 -0.044999793 -0.035594393 -0.066256434 -0.027358657 -0.00018407142 0.09751832 -0.03066086

lstm.weight_ih_l1 f4 [256, 64]
00000000: 323c c6bd e76a 0fbe 4d2f 75bd 7af7 0d3e
00000010: e329 953b 0462 723d 9805 e23b 9af9 62bd
00000020: 4d31 0c3d e88d b5bd 1898 f23d aade ddbd
00000030: be39 8a3d 106a c93d 72c7 47bc 5520 4cbd
00000040: d53c 803d d734 92bd 7cf2 a3bd bacf b8bd
00000050: b2ef c3bd 8f1b 04bd d85e 86bb 614d 04bd
00000060: 78bc 023e 9311 03be 68bc 043e 48ac f03c
00000070: 7619 e4bd 783a 3abd 3fb0 6e3d 172a 103d
00000080: 42ec ed3d 58fc af3d 275d 61bc 473e b9bc
00000090: 7ee8 023e 874f 92bd 96f5 14b9 9ffa e53c
000000a0: 4761 143e 9a7c e33d 2cd1 02be 9e62 b6bd
000000b0: b638 cbbd b23b acbc 7d46 9c3d eda5 98bd
000000c0: 6bde 8f3c 66cb 433d ae27 fbbb fd01 95bc
000000d0: 87b3 9cbd df77 a1bc 8e08 a23d 4647 833d
000000e0: 84bc 173e 6e38 843d f892 303d 5f7d b23d
000000f0: 1f9b 1b3c a8cd 0ebc f6f4 01be cc6d bb3d
00000100: 59e6 b33d 265f 08be 49b8 fa3d fd1c 043e
00000110: 220b 013d 1b69 0e3e 664f a4bd 0e1b f13d
00000120: ef25 9b3d 78bc 8c3d 5192 093e 1daa e1ba
00000130: a704 0a3e e5ec 15bd 144b e03d 733f 05bd
00000140: 8164 5c3d 2570 babd 7ccd 8a3d 1a02 b9bd
00000150: 14a6 9fbb b999 ef3c 5c0b 27bd 7b96 e43d
00000160: d970 f93d f6fc 013d 44a7 18bd 5f1a dd3d
00000170: 1c9a c2bc cb5b 683d a891 b1bd 942c 19bd
00000180: a689 053b 6da4 27bd 9d50 63bc 6977 02bb
00000190: ecaf 9cbd 254d 1dbc 90e0 2ebd 878c 58bc
000001a0: 91f6 adbd 7698 08bd 8c5a 753d 9ce7 18bd
000001b0: e691 f33c 603d 9dbc c642 f43b 8c12 4c3d
000001c0: 83f4 d5bd 2795 9a3d 430a bbbd 3017 87bd
000001d0: f1ad c13d e769 56bc a424 6a3d 9003 ecbd
000001e0: 3650 123d 2ec5 77bd 7233 683c dae3 89bd
000001f0: 8e4c 2a3d 11c3 7f3d effd 11bd 2d29 95bd
00000200: ec6a a73d 05e2 bcbd 9718 b53d 463c a33d
00000210: 8460 13be 2227 28bc 8c9a 85bd c9f7 903d
00000220: 3225 90bd 0e0e 3d3d 82f9 9c3d fb39 90bd
00000230: fcb9 683d 5af4 473d ed8b e4bd 941b a4bd
00000240: 7d55 2c3d 1c89 e93c 2c33 ebbd 36ac c43d
00000250: 6cea 04bc 9878 893d 6a00 9e3d b0c4 bc3d
00000260: b3e1 e63d 0766 88bd 221f b73d 6ace 2ebc
00000270: a10c 4c3c 0989 1a3d d200 34bd 8f1a 3c3c
00000280: 2a44 c3bc 2c4b b1bd 8db4 aa3d d880 713d
00000290: df16 e3bd d812 bf3d 9dc3 acbd 6601 a43d
000002a0: 8c65 3dbd 999b f23d b4ff b1bd d8f8 bf3d
000002b0: 67c5 27bd 097d 963c a52b eabd cf09 05be
000002c0: 43ff 9a3d 5984 83bd 9f5c 08be f516 e0bd
000002d0: 8e20 1b3d 20d6 85bd 4d1b b13d 5c0b 00be
000002e0: 9d1c af3d 6b4e 133d 13b7 89bd 5669 b03d
000002f0: 59c2 c53c 06ff ef3d 5430 623c af99 a4bd
00000300: 1f38 b3bd 1c0d 57bd 9afa 03bd d68a 3c3d
00000310: 34c9 d93d 39b5 a03d 9820 c33d bc29 c13d
00000320: 6171 05bd 5d43 23bd 4335 88bd 6ab9 7ebd
00000330: 6e66 e33c e5d8 d73d 98b3 643d 5cbe a93d
00000340: 346d 253c 0bb8 2dbd abc8 63bd 1ad7 a93c
00000350: d632 ac3d 1602 a0bc 9a45 90bd 5602 533d
00000360: 09ae 7b3d 8304 0f3e 6164 2f3d f83f 413d
00000370: ed98 a3bd fdc8 83bd 7855 b33d c34c 553c
00000380: 7a24 073e 76ce 14bd ab30 a2bd 6d8b c33d
00000390: 852a e5bd 90bd 3b3d 8959 9c3d c84c a13d
000003a0: 62c8 583d 029b ddbd 0b53 c13c c1dd 8ebd
000003b0: c135 343d aaa0 803d afec a8bd aa5c e33d
000003c0: ee21 333c 00ae c3bd 033d d73d a9c3 91ba
000003d0: b832 293d a79d abbd 6431 cdbc e737 7dbd
000003e0: 1df6 cd3d 35fc 03be f362 cabb 1023 ad3b
000003f0: 1d31 813d d331 8fbd 7219 e53c 5527 b53d
-0.0967945 -0.14005624 -0.059859563 0.13863936 0.0045521124 0.059175506 0.0068976395 -0.05541382
0.034226704 -0.08864957 0.11845416 -0.108334854 0.06749295 0.09834683 -0.012193548 -0.04983552
0.06261603 -0.07138985 -0.080052346 -0.09023996 -0.09567203 -0.032252844 -0.0041006617 -0.032300357
0.12767208 -0.12799673 0.12962496 0.029379025 -0.11137669 -0.045465916 0.05827355 0.03519639
0.11617328 0.085930526 -0.013755119 -0.022612704 0.12784001 -0.07144075 -0.00014205868 0.028073607
0.14490233 0.1110775 -0.12775105 -0.089055285 -0.09922926 -0.021024559 0.07630632 -0.07453523
0.017562112 0.047801398 -0.0076646423 -0.018189425 -0.076514296 -0.01971048 0.07911788 0.06410079
0.14818007 0.064560756 0.04310891 0.08715319 0.009497433 -0.008716024 -0.12691101 0.091518015
0.0878417 -0.13317546 0.12242181 0.12901683 0.031504758 0.13907282 -0.080229566 0.117727384
0.07575595 0.06871885 0.13434722 -0.0017216835 0.13478337 -0.036602873 0.1095182 -0.032531213
0.053806785 -0.09103421 0.06777474 -0.09033604 -0.004872093 0.029248105 -0.040782318 0.11161514
0.12179727 0.031735383 -0.037268892 0.107960455 -0.023755126 0.056728166 -0.0867036 -0.03739603
0.0020376234 -0.040928293 -0.0138742 -0.00199076 -0.07650742 -0.009600912 -0.04269463 -0.013217098
-0.084942944 -0.033348523 0.059900805 -0.037330255 0.029732656 -0.019194305 0.007454249 0.049822375
-0.104470275 0.0754798 -0.09132817 -0.065962195 0.09457005 -0.0130867725 0.05716385 -0.11524117
0.035721026 -0.06049078 0.014172422 -0.06732912 0.041576914 0.06244189 -0.03564256 -0.07283244
0.081746906 -0.09222797 0.08842581 0.079704806 -0.14392287 -0.010263236 -0.06523618 0.07078511
-0.070383444 0.04615598 0.07664777 -0.07042309 0.056817994 0.048817016 -0.11159501 -0.080130726
0.042073715 0.028507762 -0.1148437 0.09603159 -0.008112531 0.067124546 0.07714923 0.09217203
0.112735175 -0.06660085 0.08941485 -0.01066933 0.012454183 0.037728343 -0.043946095 0.011480941
-0.023836214 -0.08656916 0.083352186 0.058960766 -0.11088347 0.09329766 -0.08435748 0.08008079
-0.04623942 0.11846084 -0.086913496 0.09373635 -0.040959742 0.018370168 -0.11434106 -0.12992023
0.075682186 -0.06421728 -0.13316582 -0.10941879 0.037872843 -0.06534982 0.08647785 -0.12504333
0.085503794 0.035963457 -0.06724372 0.08613841 0.024140524 0.11718564 0.013805468 -0.08037125
-0.087509386 -0.052502736 -0.032221414 0.04603084 0.106340796 0.078470655 0.09527701 0.09431788
-0.03257883 -0.039859165 -0.06650784 -0.062188543 0.027758803 0.10539416 0.055835336 0.08288261
0.010096837 -0.042411845 -0.055611294 0.020732451 0.08408134 -0.019532245 -0.070445254 0.0515159
0.06144527 0.13966565 0.04282034 0.047180146 -0.07988153 -0.0643482 0.08756536 0.01301879
0.13197508 -0.03632971 -0.07919439 0.09548078 -0.111897506 0.045835078 0.07634265 0.07875973
0.052925475 -0.10820581 0.023599168 -0.0697589 0.043996576 0.06280644 -0.08248269 0.11101659
0.010933382 -0.09554672 0.10509684 -0.0011120933 0.041308135 -0.08379679 -0.025047965 -0.06182089
0.10056708 -0.12889178 -0.0061763464 0.005283721 0.06308196 -0.06991925 0.027966235 0.088453926

lstm.weight_hh_l1 f4 [256, 64]
00000000: eb8c 3ebd db2d e8bd 8824 813d c678 aabc
00000010: 7d48 b63c 7631 803c e1f1 86bd d990 3cbd
00000020: 923a 5b3d d1a8 193d 4523 0a3c 0a58 213d
00000030: b6dd ce3d f0cd ea3d 52cb b33d b4fd c7bd
00000040: fd0a 5fbd af58 723d a013 b33d de3a ef3d
00000050: 4358 1a3d ed64 86bd cea2 96bb d84d 66bd
00000060: 73ec 9abd 662b e73c f8d8 2f3d 5501 1c3c
00000070: 3471 1dbb c074 e53c b9d8 01be 4c59 05be
00000080: 2665 f7bd 8718 6d3c 105d 9fbc 73b7 3e3a
00000090: 2105 c6bd a827 8ebd 9642 5bbd 2fb5 ad3c
000000a0: 8213 ebbd 4eea dfbd a34e 3ebd 63ba 273d
000000b0: e80f c0bd ff24 88bd 8058 713d 4252 1ab9
000000c0: f8ad a8bd 6756 91bc b115 f03d ad06 703d
000000d0: ff17 d8bd 581e bfbd 6a74 08be 6ebb 06bd
000000e0: fdd6 293c e94f 45bd 4d75 eabc ac50 76bd
000000f0: a1a8 2f3d c5cf 503d 1e47 ad3d e96e 9abd
00000100: dbae 7bbd 02ce 8b3c 0d0f ccbd 0abe 61bd
00000110: 5f35 c03d 2cfd f0bd d88f 59bc a977 753d
00000120: 57ce 9dbc 5a5d bc3d 6b60 f13c 3069 d4bc
00000130: 3ce7 043e 54e6 a43d 80d6 9cbd f097 62bd
00000140: b1fe 53bc cbdc f1bd 0dfb 27bd 9a87 8438
00000150: f383 953d a01e cb3c 4ecb e3bd ae32 bd3d
00000160: a5df 813d 2d2a d63d 25d0 523d 1e6a 46bd
00000170: 8413 783d 8cba 5cbd 6f2d e83d eae4 4ebd
00000180: a6c0 48bd 887b 0cbd 2f04 ba3d 50ec 24bd
00000190: 7176 a1bd 8f15 293d 77c5 31bd ab65 203d
000001a0: 16ea d4bd 489a 97bc 9a2e 96bd fc12 cf3d
000001b0: 273f a03c e27d c0bd 0e9d ac3d 3916 a1bc
000001c0: 8083 79bc 5c25 a6bb 9638 89bd d73d ecba
000001d0: 80dc e63d 90b5 d33c 7f68 6d3d 277a 27bd
000001e0: 89e8 66bd 9ef7 683d 5f0d c9bd bc8b e7bc
000001f0: cd03 303d d99f ff3c 66c9 60bd 4935 633d
00000200: 82e6 da3d 2da5 efbc 6422 063d 36be 9dbd
00000210: 87b3 ab3d 8fa4 d83d 5d2c 883b a40f 9fbd
00000220: f145 063d 4946 cf3d efa7 aabc 4bb2 e93c
00000230: 30aa 783d b6a9 d63b 1bd5 27bd 1f9f febc
00000240: b2da c8bc 7d02 953b 0683 cf3d 3d14 d13d
00000250: 1c7a 333d 3eea b53c 0a13 f93a 5e27 c23d
00000260: 45bf d6bd 83ee 593b 2dc2 bdbd 1714 31bd
00000270: ae9a e73d 7300 c13d f20e abbd 935e 773c
00000280: 72d5 a73d 44eb e2bd 4797 aabd 13cf 8abd
00000290: 2b40 543c 908d b43d 7aec d8bd 76ff 01bd
000002a0: 8e96 69bd d0e6 c13d 3563 febc edd3 c1bd
000002b0: c8fc 84bc 39d0 98bd bef2 06be 279f 63bd
000002c0: 3a9b 5c3d bb96 c4bc 2c86 143d 3d55 2a3d
000002d0: 23ab 893d 00f1 dc3d 2cd5 e0bc 7f26 e13d
000002e0: 5384 85bd 4f83 d13d 3235 95bc 0a4b 3a3d
000002f0: f409 c9bd e50b cabc 0b33 853b 2a75 013e
00000300: 633c 2ebd ef90 973c ee39 f3bd 7c5d 473d
00000310: 80c0 8c3c 1331 cc3c 7960 733b 2463 343d
00000320: 0d7b d43d 7633 973d 865b 8fb8 ebad e8bc
00000330: 175c b53a 72e6 bd3c ea44 80bd 0bc4 c2bd
00000340: e9c1 6cbd 091f 7f3d d7f9 30bd 808d 993d
00000350: fc29 d43d 746e a13d afac e83d 751f c63c
00000360: d175 8b3d 4d00 eabd 4d87 31bc ca1f 08be
00000370: 206b 77bd ec94 893d e6e7 0f3d 404e 72bd
00000380: 10d5 38bc 5531 04be 77b1 6fbd 5630 9d3d
00000390: b3c0 39bd 17db 0e3d 9249 c73d 838b 2abd
000003a0: 1fe7 403d 7988 0e3d 0897 053d a175 ef3d
000003b0: 01da 96bd 197d 063d 56b2 993c fc11 853d
000003c0: 6518 86bd fe76 b5bd 4a5c e33c 449d cbbd
000003d0: f6bd fbbd 2404 0abd 4bf3 8fbc 9e3c 48bd
000003e0: 665b 9dbd 2608 d23d 1fd3 c6bd 39d1 acbd
000003f0: e5e2 cd3d d559 f83d 2840 d5bd 72f0 bdbd
-0.04652111 -0.11336871 0.06305796 -0.020809542 0.022251362 0.015648585 -0.065891035 -0.046036575
0.053522654 0.03751451 0.0084312605 0.0393906 0.10100882 0.11465061 0.08779015 -0.09765187
-0.05445384 0.059166607 0.087439775 0.1168115 0.03768183 -0.06562219 -0.0045970445 -0.05622658
-0.0756463 0.028218936 0.042931527 0.009521802 -0.0024023773 0.028009772 -0.1268033 -0.13022345
-0.120798394 0.01447118 -0.019453555 0.0007275261 -0.09668947 -0.069411576 -0.0535303 0.02120456
-0.1147833 -0.10933362 -0.046461713 0.040949237 -0.09378034 -0.066476814 0.05892229 -0.00014717228
-0.08236307 -0.017741395 0.11722887 0.058600117 -0.10551452 -0.093319595 -0.13325658 -0.03289359
0.010366199 -0.04817191 -0.028620386 -0.06013553 0.042885426 0.050979394 0.0846083 -0.07540686
-0.061446052 0.017066006 -0.09963808 -0.055112876 0.0938518 -0.11767039 -0.013278924 0.05992857
-0.01926343 0.09197493 0.029464921 -0.025929064 0.12978834 0.08051744 -0.076581 -0.05532068
-0.012939141 -0.11809691 -0.041010905 6.319508e-05 0.07300558 0.024794877 -0.11122762 0.09238182
0.06341485 0.10457263 0.051468033 -0.048441045 0.060565487 -0.053888842 0.11336791 -0.05051128
-0.04901185 -0.034297496 0.09082829 -0.040264428 -0.07883919 0.041280326 -0.043401208 0.039159458
-0.10396211 -0.018506184 -0.07333107 0.10111043 0.019561363 -0.0939901 0.08428393 -0.019663917
-0.015229106 -0.0050703716 -0.06700246 -0.0018023801 0.11272526 0.025843412 0.057960983 -0.040887978
-0.056374107 0.05687677 -0.098170035 -0.028264873 0.042972375 0.031204151 -0.05487957 0.05547074
0.10688497 -0.029253567 0.03274764 -0.077022955 0.083838515 0.10578262 0.004155679 -0.07766655
0.032781545 0.10120828 -0.02083203 0.0285274 0.06070918 0.006550993 -0.040974718 -0.031081734
-0.024518345 0.0045474158 0.101324126 0.10208938 0.043817624 0.022206422 0.0019002866 0.09480165
-0.104857005 0.0033253736 -0.09265552 -0.04323205 0.113088 0.09423914 -0.0835246 0.015098232
0.08195008 -0.110800296 -0.08329635 -0.067777775 0.012954752 0.088160634 -0.10591979 -0.031737767
-0.057028346 0.09467852 -0.031053165 -0.0946425 -0.016233817 -0.0746159 -0.13178536 -0.0555717
0.053858973 -0.023997655 0.03626077 0.041585196 0.06722095 0.107881546 -0.027445398 0.10993671
-0.065193795 0.10230123 -0.018213842 0.04548172 -0.098163515 -0.024663875 0.0040649227 0.12642351
-0.042538058 0.018501727 -0.118762836 0.048673138 0.017181635 0.024925744 0.003713636 0.04403986
0.103750326 0.07382862 -6.835819e-05 -0.028403243 0.0013836649 0.023181174 -0.06263144 -0.095100485
-0.057802115 0.062285457 -0.043207016 0.07497692 0.103595704 0.078823954 0.11361062 0.024184922
0.06809581 -0.114258386 -0.010835481 -0.13293377 -0.060404897 0.06717858 0.035133265 -0.059156656
-0.011281267 -0.12909444 -0.058518853 0.07675235 -0.045349788 0.03487691 0.09730829 -0.041636955
0.047095414 0.03479812 0.032614738 0.11692358 -0.073658 0.032834146 0.018761795 0.06497571
-0.06547622 -0.088605866 0.027753968 -0.099421054 -0.122920915 -0.033695355 -0.017572066 -0.048885934
-0.076834485 0.102554604 -0.09708237 -0.084383436 0.10053042 0.12126509 -0.104126275 -0.09274377

lstm.bias_ih_l1 f4 [256]
00000000: 7028 003e c0c4 a1bd 5d9e a23d e06b e4bd
00000010: b88e b4bd 245d 003d 95ca 7d3a 82a8 19bd
00000020: df61 b1bc 77da 8fbd ea42 b4bd 11ca 95bd
00000030: a77b bcbd 3cb2 073d 42c2 63bd ded8 5e3d
00000040: 145c aebd 385d c13d e6a1 933c a99b c4bd
00000050: e0b5 d13d 88a5 aebd 7eaf e1bd 85a6 d33d
00000060: 206c 723c fead 86bd bdbb a639 a16c a3bd
00000070: 6e37 8a3d b46b a9bd 719d 223d 24f9 5c3d
00000080: 4086 71bd c0b1 763d 97d5 cb3d 8136 77bd
00000090: 0895 bf3d 10db cfbd 1a4a 33bd f7e3 98bd
000000a0: 4d19 273d 1cec a1bc 1751 d8bd 4eb1 c9bc
000000b0: 0cd1 68bd 334b bcbc 14eb ddbd d7eb b43d
000000c0: 52c9 18bd 221b b8bd e518 dabd 977f 003e
000000d0: 4bf6 1e3d 986d 26bd d849 e83d 779c 593d
000000e0: db9f cbbd 1f8a c03d e4c1 9abd 9b22 c43d
000000f0: 4cd2 253d a61f e2bd 8214 71bd ffa5 623d
00000100: 231a 3b3d a89b d0bc deee 7e3d 2b11 013d
00000110: 27ec 8c3b 6f3e 283d fe99 9cbc 272e 0fbd
00000120: f427 4f3d af80 063d f172 b63d 5e35 0bbd
00000130: a84e 543c 147e b13c 7cf3 c33c 3e59 853d
00000140: 2843 01bd 1ebb ad3d c5c7 b3bd 9b6e 73bd
00000150: 5474 8fba 80ba b1bd be3b 8abb ab77 38bc
00000160: 5899 55bd 602a f8bc 39df aebd afcc 023e
00000170: a793 f5bc a2fc c3bd b9c5 8bbb 3b67 e5bd
00000180: 0682 70bd 7d67 053e f27f ddbc e88d c2bd
00000190: fe4e 99bd ff83 94bb c8bf feb8 c286 56bd
000001a0: c11a a6bc 138d d43d ba66 04be 542a 8dbd
000001b0: e395 de3b b741 e6bd ef27 17bd bbbb 3d3d
000001c0: 6dd7 c1bb 55ad f0bd 25ef ffbd 1c7a 91bc
000001d0: 11b2 f73d ecd7 00be 6384 edbd 9425 4a3d
000001e0: 05ee 28bc 0a02 d4bd 2ff1 eb3d d536 d43b
000001f0: 00cb 913d 9928 0cbd 322b 973c 10e8 bb3d
00000200: 05e5 323d 2477 0cbd 7810 1a3d 1f97 ec3c
00000210: 7c29 a13d 5c3b 85bd e8ac b93d e58b d2bc
00000220: ac94 c4bd 181e ab3c e10f a43c 5d87 d73d
00000230: 3d01 a03d e586 343d 3e9f 033e 9e9c d6bd
00000240: 54a7 30bd c70f e33c 4262 a73d 09ac bbbd
00000250: 9b46 99bd f5a1 87bc 60c3 903a e372 893d
00000260: b78f a7bd 1f3e 8fbd 414b 9dbd d230 c5bd
00000270: 19ad a43d 02be d53d 52b6 9e3d f25e 863c
00000280: 8cd4 3e3d a16c f03d da26 4e3d 8451 a33c
00000290: 4c3b f0bd 1ffd cf3d 57d3 1cbd 2dce 353d
000002a0: 6daf d8bd 66d7 b63d c4c9 c53d 4da9 c73c
000002b0: 9eda 543d 4767 27bd 7df2 913c f398 c2bd
000002c0: 6c30 6d3d 7a97 b9bd c98f 673d bd0b 463d
000002d0: 0f39 073e 5466 933d fcb3 80bc d805 d4bd
000002e0: 6825 bb3c 5999 623c 123f 623d 7d2f f9bd
000002f0: dee9 853d 3c6a d7bd 1f19 dabd 933b c23c
00000300: 2561 f6bb da8a 6c3d 4b78 bcbc 2be1 073d
00000310: 69f4 e93d c6f1 963c 37bf 653d a0f3 f23d
00000320: d638 ce3d 2eb3 033d 6106 9abd c814 bd3b
00000330: 0d8c f9bd 9466 293d 9e5e ed3d 8991 093e
00000340: 8de4 403d 344b d93d 981d d33c 18f9 d23c
00000350: 567d 28bc 0b9f 6c3d 75e5 5e3d 33c3 c63d
00000360: 8bab a5bd cee3 223c 9042 4f3d f64a e9b9
00000370: 1cad 6b3d dba9 953d 1a32 77bd 42db edbd
00000380: 1370 2c3c aed9 033e 6672 f7bd 8e43 4fbc
00000390: e6da a73c 1fc8 c63d 5cab 683d 54d7 a43d
000003a0: a4d0 8dbd 1151 0e3d 4164 00be caa6 483d
000003b0: 0988 d33d e7f6 59bd 1074 033d 2d3c 8dbc
000003c0: d40f dabd 2fd9 cabd d4e7 7cbd ba6e 4c3d
000003d0: 9577 b73c 81ed 91bc 44ee 76bd 8897 f4bc
000003e0: 0398 833d d212 813d 8065 c2bd 6f59 993d
000003f0: 228b 94bc b82b e6bd 0ba8 b6bd 972c 34bd
0.12515426 -0.07898855 0.07940362 -0.11153388 -0.08816284 0.031338826 0.0009681371 -0.037514217
-0.021653114 -0.07024091 -0.08801825 -0.07313932 -0.09203272 0.033128962 -0.05560518 0.05440604
-0.08513656 0.09441608 0.018021535 -0.09600002 0.10239768 -0.08527666 -0.110198006 0.103344955
0.014796287 -0.06576155 0.00031801863 -0.07979704 0.067488536 -0.08272496 0.03970093 0.053948537
-0.05896592 0.06022811 0.099528484 -0.060354713 0.09354597 -0.10149205 -0.04377184 -0.07465356
0.040795613 -0.019765906 -0.10562342 -0.024620678 -0.056839988 -0.022985077 -0.10835853 0.088340454
-0.03730137 -0.0898955 -0.106492795 0.12548672 0.038809102 -0.04063186 0.113422096 0.053127732
-0.099425994 0.094013445 -0.07556513 0.09576913 0.040483758 -0.11041193 -0.05885745 0.055334087
0.045679223 -0.025464848 0.06223952 0.031510513 0.0043006125 0.041075166 -0.019116398 -0.034956124
0.05057521 0.032837566 0.08908642 -0.03398644 0.012958206 0.021666564 0.023919813 0.06511162
-0.031558186 0.084829554 -0.087783374 -0.059431653 -0.0010944703 -0.0867815 -0.0042185476 -0.011259
-0.052148193 -0.030293643 -0.0853867 0.12773393 -0.029977633 -0.0956967 -0.0042655137 -0.1120133
-0.05871775 0.13027759 -0.027038548 -0.09499723 -0.0748577 -0.0045323367 -0.00012147386 -0.05237461
-0.02027643 0.1037847 -0.12929812 -0.06892839 0.0067927702 -0.11243003 -0.036903318 0.04632161
-0.0059155733 -0.117518105 -0.12496785 -0.017758422 0.1209451 -0.12582368 -0.115975164 0.049352244
-0.0103106545 -0.103519514 0.115206115 0.006476263 0.07118797 -0.034218404 0.018453214 0.09175122
0.04367544 -0.03429331 0.037613362 0.028880654 0.07869241 -0.065054625 0.090661824 -0.025701473
-0.095986694 0.020888373 0.020027103 0.10523865 0.07812736 0.044073958 0.12853715 -0.10479091
-0.043128327 0.027717484 0.08173038 -0.091636725 -0.0748417 -0.01655672 0.0011044554 0.06711366
-0.08181708 -0.069942705 -0.07680369 -0.09628452 0.08040828 0.10436632 0.077496186 0.016402695
0.04658942 0.11739469 0.05033002 0.01993633 -0.1173006 0.10155701 -0.038287487 0.044386078
-0.10580335 0.08927803 0.09657624 0.024372721 0.051966302 -0.040869977 0.017815823 -0.09501829
0.057907507 -0.09062095 0.05653361 0.04835104 0.1320536 0.07197252 -0.015710823 -0.10352677
0.022844985 0.013830506 0.05523593 -0.12167261 0.06538747 -0.105183095 -0.10649323 0.023710048
-0.0075189047 0.057749607 -0.023006579 0.03317372 0.11423571 0.018425833 0.05609056 0.11862874
0.10069434 0.0321533 -0.07520748 0.0057702996 -0.12184916 0.04135759 0.115903124 0.13434424
0.047092963 0.10610047 0.025770947 0.025753543 -0.010283789 0.057768863 0.054418046 0.097052
-0.0808936 0.009942008 0.05060059 -0.00044497073 0.057538137 0.07307788 -0.060350515 -0.11614086
0.010524767 0.12876007 -0.12082367 -0.012650384 0.020490121 0.09706139 0.056804046 0.08048883
-0.06924561 0.03474528 -0.12538244 0.048987187 0.10328681 -0.05321398 0.032093108 -0.017240608
-0.1064755 -0.09904706 -0.061744526 0.049910285 0.022395888 -0.017813446 -0.06028582 -0.029857412
0.06425478 0.06302418 -0.09492016 0.07487761 -0.01813275 -0.112388074 -0.089187704 -0.043987837
