model/lstm_model_expe_sr.pth (torch, 209874 bytes, 9 tensors)

lstm.weight_ih_l0 f4 [256, 5]
0	0x3de6a4d5	0.11261908
1	0x3dbf0a75	0.093281664
2	0xbce7885b	-0.028263262
3	0xbc37ce70	-0.011218652
4	0xbd768e9d	-0.0601946
5	0xbd9b12da	-0.07571955
6	0x3c46f6f8	0.012143843
7	0xbd35ea1a	-0.04441271
8	0x3d07530b	0.03303818
9	0xbdf3bfed	-0.11901841
10	0x3da90b7b	0.08254143
11	0x3da036e3	0.07822969
12	0xbd91aac7	-0.07112651
13	0xbd011ef9	-0.03152368
14	0xbd45f6fa	-0.04833124
15	0x3d12b1e4	0.03581418
16	0x3cf9b4f7	0.030481799
17	0xbb7eab78	-0.0038859528
18	0xbdc1f9bf	-0.094714634
19	0xbdec3e12	-0.115352765
20	0xbd160f96	-0.036635958
21	0x3d648f1e	0.05580055
22	0xbdb3d69b	-0.08781167
23	0xbd229280	-0.039690495
24	0xbced286b	-0.028949937
25	0x3dc5c490	0.09656632
26	0x3d386497	0.045017805
27	0xba228ddd	-0.0006200949
28	0xbd96f657	-0.07371204
29	0x3dc39b4d	0.09551106
30	0x3dd3d65c	0.1034362
31	0x3e0a7387	0.13520633
32	0x3dff9b97	0.12480848
33	0x3dea358c	0.114359945
34	0xbdef3e9f	-0.11681866
35	0x3cdf9d70	0.027296752
36	0xbd5967e6	-0.0530776
37	0xbba718bf	-0.0050993855
38	0x3db345f5	0.087535776
39	0xbd08167f	-0.03322458
40	0x3b90e118	0.0044213645
41	0xbda8a2c9	-0.08234174
42	0xbd83e5e5	-0.06440333
43	0xbd69592b	-0.056969803
44	0xbcbc566f	-0.022990433
45	0x3e17e661	0.14833976
46	0x3de666e6	0.11250095
47	0x3c740cee	0.014895661
48	0xbdbd4614	-0.09241882
49	0x3dbb9999	0.09160156
50	0x3e07e5dc	0.13271278
51	0x3d9f639e	0.07782672
52	0x3d05ae4b	0.03263692
53	0x3d021185	0.03175499
54	0xbded1680	-0.11576557
55	0x3dc1a8b3	0.09456005
56	0xbd53c832	-0.051704593
57	0x3db61323	0.08890369
58	0xbd88bb6a	-0.066763714
59	0xbcdedb4e	-0.027204182
60	0xbc828e76	-0.015937071
61	0xbd53281c	-0.051551923
62	0x3d896da2	0.06710364
63	0xbdca1154	-0.09866586
64	0x3d4e66cd	0.050391007
65	0xbc875c4e	-0.016523506
66	0x3e1e02a4	0.15430695
67	0xbdb219f6	-0.08696358
68	0x3d99bdbc	0.07506892
69	0xbdd570fe	-0.10421942
70	0xbd997826	-0.074936196
71	0x3c0e1dfd	0.008674142
72	0x3dd3c60d	0.103405096
73	0x3ceb844b	0.028749606
74	0x3cac259f	0.021014033
75	0xbd65ecdb	-0.056134086
76	0x3bca9c9a	0.006183219
77	0xbe0ced92	-0.13762501
78	0xbde13165	-0.109957494
79	0x3dd39143	0.10330441
80	0x3decd108	0.11563307
81	0xbdbdc7ea	-0.09266646
82	0xbd60b401	-0.054859165
83	0x3e09294e	0.13394663
84	0xbd0005d6	-0.031255566
85	0xbd94f1ff	-0.072727196
86	0x3d99febf	0.07519292
87	0x3e19885d	0.14993425
88	0x3d68d288	0.056841403
89	0xbd26de65	-0.040739436
90	0xbc64a06b	-0.013954262
91	0xbdf76806	-0.12080388
92	0x3ce26876	0.027637701
93	0xbc4169bb	-0.011804993
94	0xbce9a735	-0.028522113
95	0x3dc2b3f7	0.09506982
96	0x3dbdf27a	0.09274764
97	0x3dada2ae	0.08478294
98	0xbd4deaf9	-0.050272916
99	0x3d7adb39	0.061244223
100	0x3e0ea8ab	0.13931529
101	0x3ce54faa	0.027992088
102	0x3deb57aa	0.1149133
103	0x3d410531	0.04712409
104	0xbcb3167c	-0.021861307
105	0xbcf19b2b	-0.029492935
106	0xbd963835	-0.073349394
107	0x3d93719d	0.071994044
108	0x3dd941c1	0.10608245
109	0xbc31e0ec	-0.010856848
110	0xbbffa7c6	-0.0078019826
111	0xbdee31b0	-0.11630571
112	0xbde895ea	-0.11356719
113	0xbdda3131	-0.10653914
114	0xbd07c984	-0.033151165
115	0xbcf4d8e6	-0.029888581
116	0xbc7b1f79	-0.015327328
117	0x3d053e6a	0.032530226
118	0xbd9967be	-0.074904904
119	0xbca1c895	-0.019748965
120	0x3e1b60ca	0.15173641
121	0x3d08e00f	0.033416804
122	0x3dfc310b	0.12314042
123	0xbd0d8c48	-0.03455761
124	0xbc5b151a	-0.01337173
125	0x3c64861c	0.01394799
126	0xbd05a5c4	-0.03262879
127	0x3cc3ed8d	0.023916984
128	0x3d2a150e	0.041523986
129	0x3d6195d8	0.055074543
130	0xbdc066d9	-0.09394617
131	0x3df13045	0.11776785
132	0xbd719bd2	-0.058986492
133	0x3c3f6b21	0.011683256
134	0xbdf71003	-0.12063601
135	0xbd1cdaf3	-0.038294744
136	0x3d51a939	0.051186774
137	0xbdbf275e	-0.093336806
138	0x3e1a57b7	0.15072523
139	0x3da2c098	0.079468906
140	0xbdab03d9	-0.08350343
141	0xbdd8f406	-0.10593419
142	0x3dadb774	0.084822565
143	0x3dae7479	0.08518309
144	0x3d7cba90	0.061701357
145	0xbd99cd2d	-0.07509837
146	0xbd899f37	-0.06719821
147	0x3dc2948a	0.09500988
148	0x3da385ea	0.079845265
149	0xbcb40b1b	-0.021977952
150	0xbcf2321e	-0.029564913
151	0xbd330a81	-0.04371119
152	0xbd656b39	-0.05601046
153	0xbe0a8f46	-0.13531217
154	0xbddebf3e	-0.1087632
155	0x3d1d043a	0.03833411
156	0x3c7bd4bc	0.015370544
157	0xbb666d55	-0.0035160382
158	0x3dadc29a	0.08484383
159	0x3dcb0d1f	0.09914612
160	0x3d870e7c	0.065945596
161	0x3cd1102b	0.025520405
162	0xbd02ec5f	-0.031963702
163	0x3dbe9892	0.09306444
164	0x3c8280b4	0.015930511
165	0x3d9ea539	0.077463575
166	0xbe0eb552	-0.13936356
167	0x3db71784	0.08940032
168	0xbcd4e422	-0.025987688
169	0xbd8e1938	-0.06938404
170	0xbd02682f	-0.03183764
171	0xbd191cae	-0.037380867
172	0xbdc6cadc	-0.09706661
173	0x3dfe7a10	0.12425625
174	0x3de69aed	0.112600185
175	0xbd2d6846	-0.04233577
176	0xbd5c85dd	-0.0538386
177	0x3c60fdf4	0.013732422
178	0xbd8c73dc	-0.06858036
179	0xbc071778	-0.0082453415
180	0x3c980d4a	0.018561024
181	0x3d92136c	0.07132611
182	0x3da989b0	0.08278215
183	0xbd9b5455	-0.075844444
184	0x3d9549af	0.07289445
185	0xbd2e53d6	-0.04256042
186	0xbd231f6d	-0.03982489
187	0xbd2be35b	-0.04196487
188	0x3dc6b826	0.09703092
189	0x3da3a2d5	0.07990042
190	0xbd89f03d	-0.06735275
191	0x3c8c7a49	0.017148154
192	0x3ba43922	0.0050116936
193	0x3d0ca22d	0.03433435
194	0x3d023987	0.031793144
195	0x3dbb2ef2	0.091398135
196	0x3b531392	0.003220771
197	0xbe01f75c	-0.12692016
198	0x3cee8d9e	0.029120263
199	0x3d589ba4	0.052882805
200	0x3d26a015	0.04068001
201	0x3e160dc6	0.14653692
202	0x3b8e447d	0.0043416605
203	0x3d77cb89	0.06049684
204	0x3ceca6da	0.028888155
205	0x3b00f5ac	0.0019677682
206	0x3ddd71e9	0.10812742
207	0x3d47c7a5	0.04877438
208	0xbda6c9b0	-0.081439376
209	0x3da02da6	0.07821207
210	0x3dce1978	0.100634515
211	0x3d9e5f12	0.07732977
212	0xbd4bd78a	-0.0497661
213	0xbdfd6924	-0.123735696
214	0xbdcd8429	-0.10034973
215	0xbd8d05e9	-0.06885893
216	0xbdd1f45a	-0.102516845
217	0xbdff1b20	-0.124563456
218	0x3c961548	0.018320695
219	0x3dbf94ed	0.09354577
220	0x3d29b2cc	0.04143028
221	0xbcabacfe	-0.020956513
222	0x3cf6a557	0.030108137
223	0x3c0e1ec9	0.008674332
224	0x3e08020d	0.13282032
225	0x3c0624ec	0.008187514
226	0xbdd59f19	-0.10430736
227	0x3d3cf683	0.04613353
228	0xbd13eff5	-0.036117513
229	0x3c4a0c64	0.012332056
230	0x3deabf44	0.11462262
231	0xbd91c282	-0.071171775
232	0x3cba45e8	0.022738412
233	0xbc9af9c4	-0.018917926
234	0x3df6017b	0.12012001
235	0x3d629e93	0.05532701
236	0xbc9890a1	-0.018623652
237	0x3e106d48	0.14104187
238	0x3d4e5e08	0.050382644
239	0xbd98b8eb	-0.07457145
240	0xbc952b58	-0.018209144
241	0x3be105e6	0.006867158
242	0xbdc41a71	-0.09575356
243	0x3db61a5d	0.08891747
244	0xbd2ce61f	-0.042211648
245	0x3e042e7b	0.12908356
246	0xbd304e1c	-0.04304324
247	0x3d33c830	0.043892086
248	0x3d3da85c	0.046303138
249	0x3c00550a	0.007832775
250	0xbd4ad773	-0.049521875
251	0x3e13a844	0.14419657
252	0x3a15b183	0.000571035
253	0x3d9116dc	0.07084438
254	0x3d43e494	0.04782541
255	0x3e0ce7e6	0.13760337

lstm.weight_hh_l0 f4 [256, 64]
0	0x3d68a7da	0.0568007
1	0xbdc3bf1b	-0.09557935
2	0x3db75334	0.089514166
3	0x3d8904e5	0.06690387
4	0xbcccb62e	-0.024989214
5	0xbe0f7ac4	-0.14011675
6	0x3dab8f13	0.083768986
7	0x3d122089	0.03567556
8	0xbd711086	-0.05885365
9	0xbd8e563c	-0.06950042
10	0x3db759db	0.089526854
11	0x3ceadf1c	0.02867084
12	0xbc6ced44	-0.014460865
13	0x3cc09c6a	0.023512084
14	0xbdca4572	-0.09876527
15	0x3de0a2c8	0.10968548
16	0x3dafbdaa	0.085810974
17	0x3c290b16	0.0103175845
18	0xbd4bb558	-0.04973349
19	0xbd9b5185	-0.07583908
20	0xbd546ef9	-0.051863644
21	0xbd6d18a4	-0.057884827
22	0xbd2bb43d	-0.041919935
23	0x3d215f86	0.03939774
24	0xbe005915	-0.12533982
25	0x3d906d9e	0.07052158
26	0xbd80a49b	-0.06281396
27	0xbdfca8df	-0.12336897
28	0xbc725075	-0.01478969
29	0xbdc29c35	-0.095024504
30	0xbd985b59	-0.07439298
31	0x3d143724	0.0361854
32	0x3dfa66f7	0.1222667
33	0xbdc8eb26	-0.09810476
34	0xbcfecaa7	-0.031102492
35	0x3dbd83e9	0.092536755
36	0x3daa040a	0.08301552
37	0xbc77ddd4	-0.015128572
38	0xbdde3b11	-0.1085111
39	0x3d732601	0.059362415
40	0x3c960029	0.018310623
41	0x3da81081	0.08206273
42	0x3d72f339	0.059313986
43	0xbd773215	-0.060350496
44	0x3dc1b011	0.0945741
45	0xbdfc8d11	-0.12331594
46	0xbdbc7b16	-0.09203164
47	0x3d327434	0.04356785
48	0xbd140955	-0.036141712
49	0xbc9cd4ed	-0.0191445
50	0x3e0aa583	0.135397
51	0x3e04e37d	0.12977405
52	0x3dce46ba	0.10072084
53	0xbd87b00d	-0.06625376
54	0xbc9f1927	-0.019421173
55	0x3cbee509	0.023302572
56	0xbdbf1515	-0.09330193
57	0xbdcc2100	-0.09967232
58	0x3d7b65e4	0.061376467
59	0x3baffa57	0.005370419
60	0xbce15341	-0.027505519
61	0x3c7f47f1	0.015581117
62	0x3df8ab91	0.12142099
63	0xbd869fe8	-0.065734684
64	0xbd619066	-0.05506935
65	0xbde10877	-0.10987943
66	0xbdad5839	-0.08464093
67	0x3d95e8ea	0.073198155
68	0xbd9adad9	-0.07561273
69	0x3e12d940	0.14340687
70	0x3dc8faa5	0.09813432
71	0x3d6205c0	0.055181265
72	0x3d82deb3	0.06390133
73	0x3d11000f	0.035400447
74	0xbb1858fb	-0.0023246396
75	0xbdafa79c	-0.08576891
76	0x3ccd2936	0.025044065
77	0xbdad2bc2	-0.08455612
78	0xbd8a7ea4	-0.06762436
79	0xbd684fdc	-0.056716785
80	0xbde6e994	-0.1127502
81	0xbd8922f9	-0.06696124
82	0xbd6519bb	-0.05593274
83	0x3d981fe3	0.07427957
84	0x3c2cd79e	0.010549454
85	0xbd9a792f	-0.07542645
86	0x3d062e21	0.032758836
87	0x3dc48126	0.095949456
88	0x3e0a96fa	0.13534155
89	0x3e054c36	0.13017353
90	0xbc87f448	-0.016595975
91	0xbd45d408	-0.048297912
92	0x3d68e757	0.056861248
93	0xbc5013e9	-0.012700059
94	0xbd499379	-0.049212907
95	0x3db9b361	0.09067417
96	0x3d0201e4	0.031740084
97	0xbde829bb	-0.113360845
98	0x3dca06e3	0.09864595
99	0x3d14b066	0.03630104
100	0x3cc12e7e	0.02358174
101	0x3cf652f0	0.030068845
102	0x3dda9d43	0.106745265
103	0xbd7524b7	-0.059849467
104	0x3d275cc6	0.04085996
105	0x3df5ac52	0.11995758
106	0x3dcbe227	0.099552445
107	0xbe0a808e	-0.13525602
108	0xbd5235b2	-0.05132074
109	0xbbe7746e	-0.00706344
110	0xbd7c5b34	-0.061610416
111	0xbd47dc92	-0.048794337
112	0x3c64ca7f	0.013964294
113	0xbd19651b	-0.037449937
114	0xbd877a95	-0.066151775
115	0xbe052381	-0.13001825
116	0xbdde0570	-0.10840881
117	0x3de1098d	0.1098815
118	0xbd0858c6	-0.033287786
119	0x3d5315f9	0.051534627
120	0xbd1ebbdb	-0.03875337
121	0xbd90905a	-0.07058783
122	0xbda832be	-0.08212803
123	0x3ddbad34	0.10726395
124	0x3b80df06	0.0039328365
125	0x3ddf79e1	0.109119184
126	0xbdfdcf87	-0.12393098
127	0x3df60b24	0.12013844
128	0x3dcb6a5c	0.09932396
129	0xbc45d820	-0.012075454
130	0x3c0e8694	0.008699078
131	0xbdc5cdb5	-0.09658376
132	0x3d23f17c	0.04002522
133	0x3d8b3b81	0.06798459
134	0xbbdab6d2	-0.006674626
135	0x3bde568b	0.006785219
136	0x3d8daa81	0.06917287
137	0xbd7bbd79	-0.061459992
138	0xbe0c1fbf	-0.13683985
139	0xbd2cb695	-0.04216631
140	0xbb8e525c	-0.004343314
141	0xbdeef49e	-0.11667751
142	0xbd71caf4	-0.05903144
143	0x3db8c408	0.09021765
144	0xbe153354	-0.14570361
145	0x3d24e7b9	0.04026005
146	0x3daa06c7	0.08302074
147	0x3d509e72	0.050932355
148	0x3bacc859	0.0052729067
149	0xbcf3f486	-0.029779684
150	0x3c06830c	0.008209955
151	0x3d8588e9	0.06520254
152	0xbcfb26f6	-0.030658226
153	0x3de2c1c3	0.11072113
154	0x3d000ffd	0.031265248
155	0x3d6d6faa	0.05796782
156	0x3d89a003	0.06719973
157	0x3d67d307	0.056597736
158	0xbc971ce1	-0.018446388
159	0x3c3f89f8	0.011690609
160	0xbde654f4	-0.11246672
161	0xbc708f13	-0.014682549
162	0xbdcd00dc	-0.100099295
163	0x3db356e0	0.087568045
164	0xbcffe83f	-0.031238673
165	0x3db62110	0.08893025
166	0x3d6a8a7f	0.057260986
167	0x3d0d3b8e	0.034480624
168	0xbdc5582e	-0.096359596
169	0xbd528145	-0.051392812
170	0xbde9b167	-0.1141079
171	0xbddb5bcf	-0.107108705
172	0xbd0eff84	-0.034911647
173	0xbc96f807	-0.018428816
174	0x3d2f2b3e	0.04276585
175	0xbc7cdd0c	-0.015433561
176	0x3cfed415	0.031106988
177	0x3d251abc	0.0403087
178	0xbddbefba	-0.107390836
179	0x3db0adf9	0.08626933
180	0xbd1aeca4	-0.037823334
181	0x3e0d07f8	0.13772571
182	0x3db3ca01	0.087787636
183	0x3b96ead5	0.004605631
184	0xbe093946	-0.13400754
185	0x3d78e527	0.06076541
186	0x3d760ee5	0.0600728
187	0xbc99f727	-0.01879461
188	0x3d20623b	0.03915618
189	0x3e11bab8	0.14231384
190	0x3d641968	0.05568829
191	0x3d4848c8	0.048897535
192	0xbdd2b1c4	-0.10287812
193	0xbc8fe7ac	-0.017566524
194	0xbd9e3d21	-0.07726503
195	0xbdf5bd74	-0.11999026
196	0x3be41e80	0.0069616437
197	0x3ce5c639	0.028048621
198	0x3cdf3740	0.027248025
199	0xbdabb7d6	-0.08384673
200	0xbd37f014	-0.04490669
201	0x3da67541	0.08127833
202	0x3dab56c6	0.0836616
203	0xbdc6a2e9	-0.096990414
204	0x3d1ea248	0.038728982
205	0xbb5c1ef0	-0.0033587776
206	0x3d878917	0.06617945
207	0xbde334e6	-0.11094074
208	0x3daf095a	0.085467055
209	0x3c36cb2d	0.011156839
210	0xbd9feaa3	-0.07808425
211	0x3dad76d1	0.08469928
212	0xbd9b21f3	-0.07574835
213	0xbde20bc1	-0.11037398
214	0x3dd850f8	0.105623186
215	0xbb14a4d5	-0.0022681255
216	0xbd84cdc1	-0.06484557
217	0xbd0f9e83	-0.035063278
218	0x3d762246	0.06009128
219	0xbc4f87ac	-0.012666624
220	0x3db0d427	0.08634215
221	0xbe0bbb0d	-0.13645573
222	0xbd952535	-0.07282487
223	0x3d8dbf02	0.069211975
224	0xbd4cdf77	-0.0500178
225	0x3cd066b2	0.025439594
226	0xbcdb302c	-0.026756369
227	0xbd7b00fe	-0.061280243
228	0x3db859aa	0.09001477
229	0x3cef44cd	0.029207611
230	0xbd0a3c80	-0.033749104
231	0xbdadbf38	-0.08483738
232	0xbd7d90a1	-0.061905507
233	0x3dad8320	0.08472276
234	0x3d61f473	0.055164766
235	0xbdde48a7	-0.10853701
236	0xbd319cc4	-0.043362394
237	0xbdc2971b	-0.09501477
238	0x3d9595b7	0.073039465
239	0x3cc4ea12	0.024037395
240	0x3dae15bc	0.08500239
241	0xbcdaa4eb	-0.026689967
242	0xbe102aaa	-0.14078775
243	0x3ca1116d	0.01966163
244	0x3d7fd3c3	0.06245781
245	0x3cb1f57e	0.021723505
246	0xbd4dd2ae	-0.050249748
247	0xbd354805	-0.044258136
248	0xbd7d086f	-0.06177562
249	0x3e166ac4	0.14689165
250	0xbca87361	-0.02056283
251	0xbd7dc53a	-0.061955668
252	0xbd12c223	-0.035829674
253	0x3cba4d41	0.022741916
254	0x3d81f15c	0.06344864
255	0x3d84942d	0.06473575

lstm.bias_ih_l0 f4 [256]
0	0xbd9e57fd	-0.07731626
1	0x3da8cca1	0.08242155
2	0xbdeeb36f	-0.11655318
3	0xbce518d1	-0.027965935
4	0xbba48963	-0.0050212606
5	0x3dc8235f	0.097723715
6	0x3e0b469a	0.13601151
7	0xbdd8d94c	-0.10588321
8	0xbd4dd150	-0.050248444
9	0x3dc38c73	0.09548273
10	0xbd93229b	-0.07184335
11	0x3d81712f	0.06320416
12	0x3d209c6c	0.039211676
13	0x3c51dc8c	0.01280893
14	0xbd86b2d2	-0.06577076
15	0x3dd39237	0.10330623
16	0x3d111c89	0.035427604
17	0x3d67b59d	0.056569684
18	0xbdc24e55	-0.09487597
19	0xbdef3de5	-0.11681727
20	0x3e13f346	0.1444827
21	0x3dc3f266	0.09567718
22	0xbd6ddc4e	-0.058071427
23	0xbdce12c8	-0.10062176
24	0x3d7157fe	0.058921807
25	0x3c825872	0.015911315
26	0x3d19f0c0	0.037583113
27	0x3df7d87b	0.12101837
28	0xbc1fad5d	-0.009745923
29	0xbd22ce40	-0.039747477
30	0x3c3d69ba	0.011560852
31	0x3dcb126e	0.099156246
32	0x3d469025	0.04847731
33	0x3d87c95e	0.066302046
34	0x3e035def	0.12828802
35	0x3d55d83e	0.052208178
36	0xbdcf176e	-0.10111891
37	0x3df7e6a7	0.1210454
38	0xbc3d7462	-0.011563392
39	0xbdef303c	-0.11679122
40	0x3dcdb3c2	0.10044052
41	0x3dcf60e1	0.101259
42	0xbcc924f8	-0.02455376
43	0xbe064d6d	-0.13115473
44	0xbb41a2ff	-0.0029546616
45	0xbdb221ee	-0.08697878
46	0x3cd2d90e	0.025738265
47	0x3d631f8a	0.05545
48	0xbda367eb	-0.07978805
49	0xbcb0e086	-0.021591436
50	0xbda20495	-0.0791103
51	0xbd89f8be	-0.06736897
52	0x3ce37842	0.027767304
53	0xbd75ebf7	-0.060039487
54	0x3cfe586d	0.031048024
55	0x3cd224c4	0.025652297
56	0x3ddb5ec7	0.10711437
57	0xbdd94258	-0.10608357
58	0xbdbd30cc	-0.09237823
59	0xbdc73dd6	-0.09728591
60	0x3d39640e	0.045261435
61	0x3cea6e31	0.028616996
62	0x3dae260e	0.08503352
63	0xbd011249	-0.03151158
64	0x3d63c9c8	0.055612355
65	0xbe04eb86	-0.1298047
66	0x3dac7273	0.08420267
67	0x3ddc034b	0.107428156
68	0x3d54b040	0.051925898
69	0xbd8b57dc	-0.06803867
70	0xbdac8b06	-0.08424954
71	0xbba113cb	-0.0049156896
72	0xbc8ea2ce	-0.017411616
73	0x3deef664	0.11668089
74	0x3bbeddbc	0.0058247726
75	0x3dce22b3	0.10065212
76	0x3d4c5f31	0.04989547
77	0x3dff396f	0.124621265
78	0x3bbcc117	0.005760323
79	0xbdb7acdc	-0.08968517
80	0x3c190471	0.009339438
81	0x3e02b24c	0.12763327
82	0xbdc94691	-0.098279126
83	0xbdcb1f86	-0.09918122
84	0x3caec0e6	0.021332216
85	0x3df18643	0.117931865
86	0xbdbfbbfc	-0.09362027
87	0x3dcc56e0	0.099775076
88	0xbc4b9c5a	-0.012427414
89	0xbda74923	-0.081682466
90	0x3dc4ee11	0.0961572
91	0xbdb17dc1	-0.08666564
92	0x3d1e0e28	0.03858772
93	0x3d086ba1	0.033305768
94	0xbdb23c7f	-0.08702945
95	0xbd89280e	-0.06697093
96	0xbd288a98	-0.0411478
97	0x3c390654	0.011293013
98	0xbd9de74c	-0.07710132
99	0x3dbafe6f	0.091305606
100	0x3db96583	0.09052565
101	0xbdd52cd7	-0.10408943
102	0xbdd8b422	-0.105812326
103	0xbd937069	-0.07199175
104	0xbc982860	-0.01857394
105	0xbda828b6	-0.0821089
106	0x3da6da29	0.081470795
107	0xbda75a73	-0.08171549
108	0x3dc22971	0.094805606
109	0x3d831739	0.06400914
110	0x3de83170	0.113375545
111	0x3c0929fb	0.008371825
112	0xbc88a2ef	-0.016679255
113	0xbcdab5e4	-0.02669806
114	0x3e0f0b78	0.13969219
115	0x3bb07345	0.005384835
116	0x3d31d510	0.043416083
117	0x3d3bfeb3	0.045897197
118	0x3deaa0e6	0.1145647
119	0x3dda9ca7	0.1067441
120	0xbd6f5bbd	-0.058437098
121	0x3dcc6556	0.09980266
122	0x3dd33f1e	0.10314773
123	0x3d9e7761	0.077376135
124	0xbdba2864	-0.09089735
125	0xbda25dc5	-0.07928041
126	0xbd72ec00	-0.0593071
127	0xbd988eeb	-0.074491344
128	0xbda73421	-0.0816424
129	0xbda12250	-0.07867873
130	0x3d119fe6	0.03555288
131	0xbdacfd00	-0.084466934
132	0xbd08771f	-0.033316728
133	0x3d76671b	0.060156923
134	0x3b2eef99	0.0026693104
135	0xbc8c3dcd	-0.017119313
136	0xbca8e158	-0.020615265
137	0xbbef3f17	-0.007301222
138	0x3dc7f93e	0.09764336
139	0xbe0589da	-0.13040867
140	0xbda04000	-0.07824707
141	0x3d0a3c13	0.033748697
142	0x3deb68bb	0.11494585
143	0x3d94c580	0.07264233
144	0xbdb0dc4d	-0.08635769
145	0xbd158344	-0.036502138
146	0xbbe792d7	-0.007067065
147	0xbdebf4d0	-0.11521304
148	0x3cadb4ab	0.021204313
149	0x3dbb781b	0.09153768
150	0xbdfc8e9e	-0.123318896
151	0xbc14a90f	-0.00907351
152	0x3bd5cb6f	0.0065244953
153	0x3dd4c60d	0.10389338
154	0x3dfef7b1	0.12449587
155	0xbc700644	-0.014649931
156	0xbbf2a50a	-0.007404928
157	0xbcd77c24	-0.026304312
158	0x3d2b53ba	0.041827895
159	0xbd2bf206	-0.04197886
160	0x3dbc8f78	0.09207052
161	0x3c035472	0.008015739
162	0x3d5c618d	0.05380397
163	0xbd571cc7	-0.05251768
164	0x3cf4caef	0.029881923
165	0xbde7a8df	-0.113115065
166	0x3cc91fd1	0.024551304
167	0x3d0c25c5	0.034215707
168	0x3d7719bb	0.060327273
169	0xbdbc907e	-0.09207247
170	0xbd2e463a	-0.042547442
171	0x3ab77bc2	0.0013998675
172	0x3d701c66	0.058620833
173	0xbdc7993b	-0.09746023
174	0xbd25f3f3	-0.04051585
175	0x3d708b00	0.05872631
176	0xbce09d07	-0.027418626
177	0x3debc61e	0.11512397
178	0xbda4d4e2	-0.08048417
179	0x3d908841	0.07057238
180	0xbdc38a95	-0.09547917
181	0xbdd98ce8	-0.10622579
182	0xbd942ad8	-0.07234734
183	0x3dcdbf2a	0.10046227
184	0x3d950951	0.072771676
185	0x3ddfb399	0.109229274
186	0xbdf6b2a5	-0.120457925
187	0xbda72288	-0.08160883
188	0xbdf54d57	-0.11977642
189	0x3d8f49de	0.06996511
190	0x3d2e0022	0.042480595
191	0xbcb7d57e	-0.022440668
192	0x3dbc1e89	0.091855116
193	0xbcae1404	-0.021249779
194	0x3d8e8af4	0.06960097
195	0x3d80a29c	0.06281015
196	0x3b93a98b	0.004506295
197	0x3e168f5b	0.14703123
198	0x3d7a89af	0.06116646
199	0x3da01652	0.07816757
200	0x3c1d73a2	0.009610089
201	0x3c8632c7	0.016381634
202	0xbd7c8af1	-0.061655942
203	0xbdb29f36	-0.08721773
204	0xbdc2473e	-0.094862446
205	0xbb7a49fe	-0.0038191075
206	0xbd7be6ef	-0.061499532
207	0xbdb3f38e	-0.08786689
208	0x3e152d3d	0.14568038
209	0x3d84c87d	0.064835526
210	0xbdb59231	-0.088657744
211	0x3de7768a	0.113019064
212	0xbb8c2172	-0.004276448
213	0x3ddcfb1f	0.10790085
214	0x3d8ad445	0.067787685
215	0x3dd7edfc	0.10543439
216	0xbda57f50	-0.080809236
217	0xbdbe1fbd	-0.09283397
218	0x3cf8517e	0.030312296
219	0x3e04d0c9	0.1297027
220	0x3d993b74	0.07482043
221	0xbce6ddec	-0.028181992
222	0x3da36adf	0.079793684
223	0x3c05564c	0.008138251
224	0x3c5ee798	0.013605021
225	0xbd000f52	-0.03126461
226	0xbca5b644	-0.020228513
227	0x3c87234b	0.016496321
228	0x3c932c6a	0.017965514
229	0xbd7d3c4c	-0.06182508
230	0x3d95edeb	0.0732077
231	0xbd718533	-0.05896492
232	0x3e010d8b	0.12602822
233	0x3dc33be4	0.095329076
234	0xbdc93cfc	-0.09826085
235	0xbd44b134	-0.048020557
236	0x3d58c53c	0.052922472
237	0xbb2b367d	-0.0026125007
238	0x3dd785b5	0.105235495
239	0x3b501495	0.003175055
240	0x3d76098e	0.060067706
241	0xbdaeb9b3	-0.08531513
242	0x3d54c2ca	0.051943578
243	0x3e009990	0.1255858
244	0x3e1e5889	0.15463461
245	0xbe005963	-0.12534098
246	0xbc4551f8	-0.012043469
247	0x3dc745f9	0.09730143
248	0xbd732a77	-0.05936667
249	0x3c7adc7a	0.015311355
250	0xbbfe36b7	-0.0077579874
251	0xbdaf42a6	-0.08557634
252	0xbc2c7387	-0.010525591
253	0x3da62b09	0.08113677
254	0xbdc3833a	-0.09546514
255	0xbcfa80f4	-0.030579068

lstm.bias_hh_l0 f4 [256]
0	0x3d7a7141	0.061143164
1	0x3d8aee33	0.06783714
2	0xbd7081fe	-0.05871772
3	0x3daca22c	0.08429369
4	0xbd802a5c	-0.062580794
5	0x3c9cf95a	0.019161869
6	0x3d007844	0.031364694
7	0x3d270582	0.040776737
8	0xbd32ce9b	-0.043654066
9	0x3c9c420f	0.019074468
10	0xbdc86ba2	-0.09786154
11	0x3d4ff2eb	0.050768774
12	0xbdeee306	-0.11664395
13	0x3e021bfc	0.12705988
14	0x3df77792	0.12083353
15	0x3da42bc9	0.08016164
16	0x3dec7184	0.11545089
17	0x3dd19c18	0.10234851
18	0x3db9e707	0.09077268
19	0xbdccfad9	-0.10008783
20	0xbbe2859b	-0.0069128997
21	0xbdacf518	-0.084451854
22	0xbd048762	-0.032355674
23	0x3d0e5d15	0.03475674
24	0xbdb3ba6a	-0.0877579
25	0xbd999a78	-0.07500166
26	0xbdcdcb26	-0.10048513
27	0x3e069785	0.13143738
28	0xbd678412	-0.056522436
29	0xbd489bcc	-0.048976704
30	0x3d9db320	0.07700181
31	0x3c8091b5	0.015694479
32	0xbd9fe254	-0.078068405
33	0xbbbe6714	-0.0058106277
34	0x3d3c9668	0.046041876
35	0x3d0b9bc6	0.034084104
36	0xbd9a16ca	-0.07523878
37	0x3db5b21d	0.08871863
38	0xbb51d3cb	-0.0032017108
39	0xbdc95630	-0.09830892
40	0x3cb06188	0.021530882
41	0xbdecd331	-0.11563719
42	0xbca2bf9a	-0.019866753
43	0xbd1405a5	-0.036138196
44	0x3d858eca	0.065213755
45	0x3d4111a4	0.047135964
46	0xbbf0276f	-0.0073289196
47	0xbda176c9	-0.078839846
48	0xbd9611a7	-0.07327586
49	0x3dfe6e1c	0.124233454
50	0x3da1a3c9	0.07892568
51	0x3d818cbf	0.06325673
52	0xbd1db041	-0.038498167
53	0x3dadb85d	0.0848243
54	0xbd3857a5	-0.04500546
55	0xbdbe1739	-0.09281773
56	0xbbfbfff2	-0.007690423
57	0x3dd3088c	0.103043646
58	0xbb830de5	-0.003999459
59	0x3c98e9aa	0.018666107
60	0xbdb5f8b9	-0.08885331
61	0x3c5145cf	0.012772991
62	0x3d631cde	0.05544745
63	0xbdc12169	-0.094302006
64	0xbd818011	-0.06323255
65	0xbd1d40d1	-0.038391892
66	0x3d5f5a0e	0.054529242
67	0x3cf33886	0.029690038
68	0xbd2bfa94	-0.041987017
69	0xbd973b68	-0.07384378
70	0xbd4bc529	-0.049748573
71	0x3ca910f3	0.020637965
72	0x3d86b6d8	0.065778434
73	0x3cb4a09f	0.022049246
74	0xbd3f4e6b	-0.046705645
75	0xbca40501	-0.020021917
76	0x3d520aad	0.051279712
77	0xbd8a8a69	-0.06764681
78	0xbd0a1df3	-0.033719968
79	0xbce75b0f	-0.028241662
80	0xbd9f8a5b	-0.07790061
81	0xbd87ae86	-0.066250846
82	0xbdf4549d	-0.11930201
83	0xbd99e9d4	-0.07515302
84	0x3d737f7f	0.05944776
85	0x3dee8d6b	0.11648067
86	0xbe092b86	-0.13395509
87	0xbd908335	-0.07056276
88	0xbdbf5307	-0.09342008
89	0xbd20bb32	-0.039241023
90	0x3d5cf21d	0.053941835
91	0x3ddb7c8f	0.10717117
92	0x3dd46d97	0.10372465
93	0x3dd93946	0.10606627
94	0x3dd1f127	0.10251074
95	0xbd8b6ad7	-0.068074875
96	0x3dda4f3e	0.106596455
97	0xbdc48f02	-0.09597589
98	0xbd36c734	-0.04462357
99	0xbc0e88fb	-0.008699651
100	0x3deeb803	0.11656191
101	0xbce3386f	-0.02773687
102	0x3dd57570	0.1042279
103	0x3c09bcb9	0.008406811
104	0x3d0c1af3	0.03420539
105	0x3dfa41e5	0.122196
106	0x3d85d783	0.06535246
107	0xbdddd6f3	-0.10832014
108	0x3df2003f	0.11816453
109	0xbcda7872	-0.02666876
110	0xbdc405a8	-0.09571391
111	0x3e01cd4f	0.12675975
112	0xbd84986b	-0.06474384
113	0xbd571851	-0.052513424
114	0xbcff775f	-0.03118485
115	0x3df0bc9c	0.117547244
116	0x3cc15d6f	0.023604123
117	0xbda9ac3b	-0.082848035
118	0x3db80f2f	0.08987271
119	0xbc663fef	-0.014053329
120	0xbbd57e3b	-0.006515292
121	0xbd224d98	-0.03962478
122	0x3e0fa1e6	0.14026603
123	0xbc84829c	-0.01617556
124	0x3d8496e8	0.064740956
125	0x3ddf2e49	0.108975
126	0xbdb56e13	-0.088588856
127	0x3d0f13db	0.034931045
128	0x3b446513	0.0029967471
129	0xbd140421	-0.03613675
130	0xbd24a41c	-0.04019557
131	0x3dc27d3e	0.09496544
132	0x3c5c3823	0.013441118
133	0x3cbf7423	0.023370808
134	0xbcca44cb	-0.024691006
135	0x3dfa65f5	0.12226478
136	0x3c780ea3	0.015140208
137	0x3ca0ebd8	0.019643709
138	0x3da2d12a	0.07950051
139	0xbd88d930	-0.0668205
140	0xbc210021	-0.009826691
141	0xbc1616e2	-0.009160729
142	0xbdc87709	-0.09788329
143	0x3d79e6c7	0.061011102
144	0x3d96b469	0.07358629
145	0x3dd7aa23	0.10530498
146	0x3c7b0c4c	0.015322756
147	0xbc58ce42	-0.013232769
148	0x3d3cc055	0.04608186
149	0x3dc74b4b	0.09731158
150	0x3dadd058	0.08487004
151	0xbd6a435b	-0.05719314
152	0xbdfb1904	-0.12260631
153	0xbd8bb2ab	-0.068211876
154	0x3dc6344d	0.09677944
155	0x3d215405	0.039386768
156	0x3d0b3b6f	0.033992227
157	0x3cda0c9b	0.026617339
158	0xbd813287	-0.063084655
159	0xbd8a8763	-0.06764104
160	0x3daf0654	0.08546129
161	0x3c7d0263	0.015442464
162	0x3d8f0cdc	0.069848746
163	0x3c552a8a	0.01301063
164	0xbe02dab3	-0.1277874
165	0x3d9fe4b1	0.07807291
166	0x3da46406	0.080268905
167	0xbda96b7c	-0.08272454
168	0x3c61fab9	0.013792687
169	0xbdcedada	-0.101003364
170	0xbb0ee79b	-0.0021805528
171	0x3c0c307a	0.00855648
172	0xbdda3c9b	-0.10656091
173	0xbc4db060	-0.012554258
174	0xbdccec98	-0.10006064
175	0xbdb17623	-0.08665111
176	0x3d256753	0.04038174
177	0xbdd52667	-0.10407715
178	0xbcb8fd65	-0.022581765
179	0x3d197085	0.037460823
180	0xbce6665f	-0.028124986
181	0xbd05694f	-0.032571133
182	0xbdd60d29	-0.10451729
183	0x3d9f7072	0.07785119
184	0x3dc6f46f	0.09714591
185	0xbdd679d9	-0.10472459
186	0x3de016b2	0.10941829
187	0xbd80f5de	-0.062968954
188	0xbd972ba5	-0.073813714
189	0xbda9d1cd	-0.082919694
190	0xbcc982db	-0.02459853
191	0xbdf719a3	-0.12065437
192	0x3d098200	0.033571243
193	0xbc8b3be3	-0.01699633
194	0x3d18c717	0.037299242
195	0x3d9edc64	0.0775688
196	0xbdafe499	-0.085885234
197	0x3d9fcaf7	0.07802384
198	0x3d847543	0.064676784
199	0xbdcfbdae	-0.101436004
200	0xbc86d53f	-0.016459106
201	0x3dbf3445	0.093361415
202	0xbb4d8b40	-0.0031363517
203	0xbba94bce	-0.0051665073
204	0x3c838aa5	0.016057322
205	0xbdcb5f2b	-0.09930261
206	0x3dee7473	0.11643305
207	0xbd914663	-0.07093503
208	0x3def063f	0.11671113
209	0x3de281b2	0.11059894
210	0x3d696391	0.05697972
211	0x3dccc6e4	0.09998873
212	0x3bd960c4	0.00663385
213	0x3ce37a32	0.027768228
214	0x3d5e08e6	0.054207705
215	0xbc7cad88	-0.015422232
216	0xbda8a6f2	-0.08234967
217	0x3dcd8a79	0.10036177
218	0xbdac0b6e	-0.084006175
219	0x3c4ab84d	0.012373042
220	0xbde3e384	-0.111273795
221	0x3d9b6a6b	0.07588657
222	0x3d7c8019	0.0616456
223	0xbc8580b9	-0.016296731
224	0x3d7f08c3	0.062264215
225	0xbcaac412	-0.020845447
226	0xbdd70449	-0.10498864
227	0xbca90c0d	-0.02063563
228	0x3d39638e	0.04526096
229	0xbd64b1c4	-0.055833593
230	0xbdb3da70	-0.08781898
231	0xbe062cf1	-0.13103081
232	0xbd7cc9bd	-0.06171583
233	0x3b836f39	0.0040110615
234	0x3d992f20	0.074796915
235	0x3db11ac8	0.08647686
236	0x3d927086	0.071503684
237	0x3c9b5e3a	0.01896583
238	0x3e13aef3	0.14422207
239	0x3df41040	0.11917162
240	0xbccf5e71	-0.025313588
241	0xbcc67fc4	-0.024230845
242	0x3d977e6e	0.073971614
243	0x3d50e47e	0.050999157
244	0x3e016227	0.12635098
245	0xbcf66d5a	-0.03008144
246	0x3e07f40a	0.13276687
247	0x3c6226cb	0.013803194
248	0xbcd9e78f	-0.026599674
249	0x3dd30a1a	0.10304661
250	0x3cba452c	0.022738062
251	0xbdb9cb2c	-0.09071955
252	0x3dc75a01	0.09733964
253	0x3c276dd0	0.010219052
254	0x3dfad400	0.12247467
255	0x3df1f494	0.11814228

lstm.weight_ih_l1 f4 [256, 64]
0	0xbd733ae9	-0.059382353
1	0x3c39c848	0.011339255
2	0x3baa0a5b	0.0051892227
3	0xbd2c71e1	-0.04210079
4	0x3d67d8b1	0.056603137
5	0x3de3dee8	0.111265
6	0xbc117fe3	-0.008880588
7	0x3dda851e	0.10669921
8	0x3d1a857e	0.037724964
9	0x3d8e2c4a	0.06942041
10	0x3d68cfc8	0.05683878
11	0x3d67a672	0.05655522
12	0x3dbe5d43	0.09295132
13	0x3d073e1f	0.033018228
14	0x3c532fdd	0.012889829
15	0xbe06dc22	-0.13169912
16	0xbde52735	-0.11189119
17	0xbcd1d4cb	-0.025614163
18	0x3d77064b	0.060308736
19	0xbd76a4b1	-0.060215656
20	0x3db0f412	0.08640303
21	0xbd3c9dff	-0.046049114
22	0xbd30785e	-0.04308354
23	0xbda3d67e	-0.079998955
24	0xbd337fb5	-0.043822963
25	0x3cca3989	0.024685638
26	0xbd760356	-0.060061775
27	0x3db4fb00	0.08836937
28	0x3d6ac5b8	0.057317466
29	0xbddc4790	-0.10755837
30	0x3c26bf57	0.010177455
31	0x3dc19ed8	0.09454125
32	0xbb0915ae	-0.0020917463
33	0x3dd2e8a0	0.10298276
34	0xbda8c34f	-0.08240377
35	0x3cdeb930	0.027187914
36	0x3db22c07	0.08699804
37	0xbdcca59f	-0.09992527
38	0xbd3489ef	-0.044076856
39	0x3dd2cf3e	0.102934346
40	0xbd9758cb	-0.07389983
41	0x3de0585a	0.10954352
42	0xbd9e4fcc	-0.07730064
43	0x3db7a7c2	0.08967544
44	0xbd8b50ca	-0.06802519
45	0xbdd88855	-0.10572878
46	0x3dde0dca	0.10842474
47	0xbd326fe0	-0.043563724
48	0x3ded8bac	0.11598906
49	0xbcebe4e4	-0.028795667
50	0xbd33e5bb	-0.04392026
51	0xbd10ee6f	-0.035383638
52	0x3d681479	0.05666015
53	0x3dcb1ca3	0.099175714
54	0xbdc8fa86	-0.098134086
55	0xbd85de5b	-0.065365516
56	0xbd191e37	-0.03738233
57	0x3e09fb42	0.13474753
58	0x3dbdb348	0.09262711
59	0x3cbf6f17	0.023368401
60	0x3d83e1c0	0.06439543
61	0x3d699ff6	0.057037316
62	0x3cbaea73	0.022816872
63	0xbbaa6cb5	-0.005200947
64	0x3dc0a6aa	0.09406789
65	0xbdb03bd0	-0.08605158
66	0x3dbf18ae	0.09330879
67	0xbb564cdf	-0.0032699627
68	0xbd01fea8	-0.031737
69	0xbe1ca2c7	-0.1529647
70	0xbdaa7895	-0.083237804
71	0x3dea0518	0.11426753
72	0xbb8847d2	-0.0041589523
73	0x3b975290	0.0046179965
74	0x3c6521c8	0.013985105
75	0x3d7df944	0.062005296
76	0xbbdfad61	-0.0068260883
77	0xbd508191	-0.050904814
78	0x3d948aac	0.07253012
79	0x3df8c0d5	0.12146155
80	0x3e05ec65	0.13078459
81	0x3ccd41b3	0.025055742
82	0x3d1eaa82	0.038736828
83	0xbe0059db	-0.12534277
84	0x3b2916c6	0.0025800928
85	0xbcb485e9	-0.02203651
86	0xbdad0a7f	-0.084492676
87	0x3d9f348e	0.07773696
88	0xbdcc6b1a	-0.099813655
89	0x3d25d087	0.04048207
90	0x3d004013	0.031311106
91	0xbde8c853	-0.11366334
92	0x3ce5a747	0.028033866
93	0xbd8a321a	-0.06747837
94	0x3dc00502	0.09375955
95	0xbd91c1a9	-0.07117016
96	0x3b075b73	0.0020653873
97	0xbdea0cd2	-0.114282265
98	0xbd9024c2	-0.07038261
99	0x3d4765d7	0.048681106
100	0x3db161f0	0.08661258
101	0x3bba1b15	0.005679498
102	0x3dcb54bf	0.099282734
103	0x3ce41d37	0.027845962
104	0xbd8fc725	-0.07020406
105	0xbd845823	-0.06462123
106	0x3d2418a3	0.040062558
107	0x3ca2af37	0.01985894
108	0x3e0a43c8	0.13502419
109	0xbdef191a	-0.116747096
110	0xbbd36e70	-0.006452374
111	0x3da1cd6b	0.079005085
112	0xbdbd3593	-0.09238734
113	0x3d111508	0.035420448
114	0x3daae3e8	0.08344251
115	0xbd820db7	-0.06350272
116	0xbd9e6ec7	-0.07735973
117	0xbd0d41f1	-0.034486715
118	0x3b3f8b5e	0.0029227356
119	0x3d2ce460	0.042209983
120	0xbdd849fa	-0.10560985
121	0xbd72bd39	-0.059262488
122	0x3be74f77	0.0070590335
123	0xbd0fd323	-0.035113465
124	0x3dab6448	0.083687365
125	0xbdfc0b23	-0.12306812
126	0xbd718a73	-0.058969926
127	0x3da4aa41	0.08040286
128	0xbd29165d	-0.041281093
129	0xbd243fb5	-0.04009982
130	0xbe084830	-0.13308787
131	0xbd777d5d	-0.06042229
132	0x3cb90200	0.022583961
133	0xbdd60104	-0.104494125
134	0xbdf12e38	-0.11776394
135	0xbd11d743	-0.03560568
136	0xbdb9edd8	-0.09078568
137	0x3ca75206	0.020424854
138	0xbdb695b9	-0.08915276
139	0xbde005d8	-0.109386146
140	0x3daaf8ed	0.0834826
141	0x3d7a2a73	0.06107564
142	0xbbad6820	-0.0052919537
143	0xbcc17468	-0.023615077
144	0x3d4023fb	0.046909314
145	0x3d832d89	0.064051695
146	0xbd8e999a	-0.06962891
147	0x3b120aa4	0.0022284174
148	0x3d3d8e24	0.046278134
149	0x3d6fadbf	0.058515307
150	0x3dcb7c70	0.09935844
151	0xbdbf7e02	-0.09350206
152	0xbe0b6a41	-0.13614751
153	0xbe0d53cf	-0.13801502
154	0xbdc9d8d8	-0.09855813
155	0xbdc9cbf2	-0.098533526
156	0xbcc1b6b6	-0.023646694
157	0x3dd1c8ab	0.102433525
158	0x3c0c09e7	0.008547283
159	0x3d955ff3	0.072936915
160	0xbd926358	-0.071478546
161	0xbddfc36c	-0.10925946
162	0xbc536a0b	-0.012903701
163	0x3ca83d5d	0.020537073
164	0xbb314bb4	-0.002705318
165	0xbc810fd0	-0.01575461
166	0x3dbba16a	0.09161647
167	0xbdb5c2c2	-0.08875038
168	0x3da51c6a	0.0806206
169	0x3d33c9ed	0.043893743
170	0x3ce7646e	0.02824613
171	0x3e087b9a	0.133284
172	0x3ceff510	0.02929166
173	0x3e02c68f	0.12771057
174	0x3de8ef4e	0.11373769
175	0xbd900f54	-0.070341736
176	0xbd2e0b81	-0.04249144
177	0x3e0da801	0.1383362
178	0x3d99c3c0	0.075080395
179	0xbcde12ac	-0.027108513
180	0x3dfd4933	0.12367477
181	0xbd8bf8a9	-0.068345375
182	0x3cda45bb	0.026644578
183	0x3d1c830e	0.03821092
184	0x3c936904	0.017994411
185	0x3db6bd9e	0.08922885
186	0xbd30ea65	-0.043192286
187	0x3d49da7e	0.049280636
188	0x3daf031a	0.085455135
189	0xbd7107e7	-0.058845427
190	0x3ce31586	0.027720224
191	0x3d06812d	0.032838035
192	0x3cbc04c6	0.022951495
193	0xbdefc14b	-0.117067896
194	0xbb742d08	-0.0037258286
195	0x3d534d67	0.05158749
196	0xbdef2250	-0.116764665
197	0xbd84648a	-0.06464489
198	0x3dab0069	0.083496876
199	0x3dc083e3	0.094001554
200	0xbc8b9127	-0.017036987
201	0x3d665137	0.056229796
202	0x3d4ad2a6	0.049517296
203	0xbdcbf4f3	-0.0995883
204	0x3d8c7270	0.06857765
205	0x3d2f9409	0.042865787
206	0x3d2d0c0a	0.04224781
207	0xbd69772c	-0.056998417
208	0x3d430bdf	0.047618743
209	0xbd16d229	-0.036821518
210	0xbd3b24b9	-0.04568932
211	0x3d5070d1	0.05088884
212	0x3e1b6ae5	0.15177496
213	0x3d9c8e55	0.07644335
214	0xbdecb9f4	-0.11558905
215	0xbd91d087	-0.071198516
216	0xbdbf2099	-0.093323894
217	0xbd82277a	-0.06355186
218	0xbd02511c	-0.031815633
219	0xbd9e25c3	-0.07722046
220	0xbd9a5a8b	-0.07536801
221	0xbdcfa0be	-0.10138081
222	0xbdbec0b6	-0.093141004
223	0x3dc35838	0.09538311
224	0x3d77b4d3	0.06047518
225	0x3c82c117	0.015961213
226	0xbc000266	-0.007813072
227	0x3db12289	0.08649165
228	0x3a7ad92e	0.00095691055
229	0xbda6bc9e	-0.081414446
230	0x3dca8d27	0.09890204
231	0x3de56551	0.11200965
232	0x3da11337	0.07864993
233	0x3cd9f69d	0.026606852
234	0xbdc4dc5e	-0.09612344
235	0xbd9e2c04	-0.07723239
236	0x3d158161	0.03650034
237	0x3d4aff95	0.04956015
238	0xbda31566	-0.07963066
239	0x3cceeb9f	0.025258837
240	0x3dfeff0c	0.1245099
241	0xbe067c5a	-0.13133374
242	0xbe03ef4e	-0.12884256
243	0xbdfa8eb7	-0.12234252
244	0xbb8e9673	-0.004351431
245	0x3da7ad30	0.0818733
246	0xbd7c945a	-0.061664917
247	0x3d9283ee	0.0715407
248	0x3d55b65d	0.05217587
249	0x3b921f5c	0.0044593047
250	0xbbdb20f8	-0.00668728
251	0x3cd8a5ed	0.026446307
252	0x3dd5404d	0.10412655
253	0x3dccb360	0.099951506
254	0xbd3f7cf2	-0.046750017
255	0x3cdbae90	0.026816636

lstm.weight_hh_l1 f4 [256, 64]
0	0xbdc473f7	-0.09592431
1	0xbdb01d2a	-0.085993126
2	0x3c6fb50e	0.014630569
3	0xbd630432	-0.055423923
4	0xbdfdd120	-0.12393403
5	0xbd9b94ad	-0.07596717
6	0xbdfd54ce	-0.12369691
7	0xbc0cbf24	-0.008590493
8	0x3e05d62e	0.13069984
9	0x3cc9b724	0.024623461
10	0xbd744dfe	-0.05964469
11	0x3d019c40	0.031643152
12	0xbd9726a4	-0.07380417
13	0xbb92d4d2	-0.0044809366
14	0xbdefd2b7	-0.117101125
15	0x3d68df0a	0.05685333
16	0x3d74a4e3	0.05972756
17	0xbcc88016	-0.024475139
18	0xbd51a9b0	-0.051187217
19	0xbdadc7ce	-0.08485375
20	0x3d541665	0.05177917
21	0x3e028742	0.1274691
22	0x3ceabb87	0.028653873
23	0xbdd7f601	-0.105449684
24	0xbdf4f70a	-0.119611815
25	0xbb75ff95	-0.0037536372
26	0x3dc6d78d	0.09709082
27	0xbcb7672d	-0.022388065
28	0xbd689f84	-0.05679275
29	0x3d9e12c8	0.07718426
30	0x3d51ea93	0.051249098
31	0xbdf51634	-0.119671255
32	0x3a9fd2ee	0.0012193599
33	0x3c1bdd5c	0.009513225
34	0x3de9090e	0.1137868
35	0xbc538f19	-0.012912535
36	0x3d35c7ab	0.04437987
37	0xbd2fbbb0	-0.042903602
38	0x3d411bef	0.04714578
39	0xbdbfd0b0	-0.09365976
40	0x3dd17952	0.10228218
41	0x3d740693	0.059576582
42	0xbda7ee43	-0.08199742
43	0x3d6c948f	0.057758864
44	0xbd43ca38	-0.047800273
45	0x3d133e48	0.035948068
46	0xbe0faaf9	-0.14030065
47	0x3da59a69	0.08086092
48	0x3e07bece	0.1325638
49	0x3e0ffa81	0.14060403
50	0x3df311ae	0.118686065
51	0x3d74aa9c	0.05973302
52	0xbd5eb719	-0.054373834
53	0x3d93ce9c	0.07217142
54	0x3d9a85c1	0.07545043
55	0x3d82417e	0.06360148
56	0xbe13b055	-0.14422734
57	0x3d251df8	0.040311784
58	0xbda72c51	-0.081627496
59	0x3c558405	0.013031964
60	0x3dc21c04	0.09478
61	0x3c974fbe	0.018470641
62	0xbc49c76a	-0.01231561
63	0x3bae1b40	0.005313307
64	0x3d5d0f95	0.05396994
65	0x3dc4b482	0.09604742
66	0xbd223834	-0.03960438
67	0xbd8d1e58	-0.06890553
68	0xbb9f58c0	-0.0048628747
69	0xbd4bde81	-0.049772743
70	0xbcdbf9ee	-0.026852574
71	0x3d6c70eb	0.057724874
72	0xbdea7ed2	-0.1144997
73	0xbcc8ae2f	-0.02449712
74	0x3d01638a	0.03158907
75	0xbd8ce470	-0.068795085
76	0x3ddb0be5	0.10695628
77	0x3dcb4f16	0.09927194
78	0xbd992a01	-0.07478715
79	0x3c4f505f	0.012653439
80	0xbd3e4eec	-0.046461985
81	0x3ce2208f	0.027603416
82	0xbc445059	-0.011982047
83	0xbc523f0d	-0.012832415
84	0x3dfb609a	0.12274285
85	0xbc2b860f	-0.010468974
86	0xbd8d8cef	-0.069116466
87	0x3b4061ee	0.0029355246
88	0xbdc901da	-0.09814806
89	0xbd91d7d9	-0.07121248
90	0xbdd75ffb	-0.10516354
91	0xbc187bb6	-0.009306839
92	0x3d988e8e	0.07449065
93	0xbd6d5b8f	-0.057948645
94	0xbdcf3702	-0.10117914
95	0xbd9aaed5	-0.07552878
96	0xbce3b0df	-0.0277943
97	0xbdc87932	-0.09788741
98	0x3c163111	0.009166972
99	0xbd952166	-0.07281761
100	0x3d6b1664	0.0573944
101	0xbd6a69a9	-0.05722967
102	0xbda0dcb4	-0.07854596
103	0x3ddc9a7e	0.107716545
104	0xba8977cd	-0.0010487974
105	0x3de6917f	0.1125822
106	0xbd9346cc	-0.07191238
107	0xbdafc208	-0.085819304
108	0xbd981e8b	-0.074277006
109	0x3b398482	0.002830774
110	0x3dfdff8d	0.12402258
111	0xbc6a0f2e	-0.014285846
112	0xbdff93e6	-0.12479381
113	0xbc89341a	-0.016748477
114	0x3d58b489	0.052906547
115	0x3d51a3b0	0.051181495
116	0xbd640ef5	-0.055678327
117	0xbdd3349e	-0.1031277
118	0x3d779354	0.060443237
119	0xbd85bfe8	-0.06530744
120	0x3dd6f90b	0.1049672
121	0x3c814525	0.015780041
122	0xbd9215e1	-0.07133079
123	0xbd998421	-0.07495905
124	0xbc54e083	-0.012992981
125	0x3d7a6500	0.061131477
126	0x3c6c0005	0.0144043015
127	0xbd3e81cd	-0.046510506
128	0x3ce51857	0.027965708
129	0x3daf9c5e	0.085747465
130	0x3c7f45d7	0.015580616
131	0xbd11ca19	-0.035593126
132	0x3d2db145	0.042405386
133	0x3cf3414c	0.029694222
134	0x3dcda21a	0.10040684
135	0xbdb0f5a6	-0.08640604
136	0x3ba29990	0.0049621537
137	0xbd13d187	-0.036088493
138	0xbde715ef	-0.112834804
139	0xbe0183c3	-0.1264792
140	0xbdafee97	-0.08590429
141	0x3dc38b4b	0.095480524
142	0x3d303993	0.043023657
143	0x3da1ed44	0.07906583
144	0xbd902b92	-0.070395604
145	0xbc6105e1	-0.013734312
146	0xbc833e3e	-0.01602089
147	0x3cb6114a	0.022225041
148	0x3dcdd4e3	0.100503705
149	0x3debf576	0.11521427
150	0xbd88482b	-0.0665439
151	0xbdd906b8	-0.105969846
152	0xbd1883f4	-0.037235215
153	0x3cc4fb18	0.024045512
154	0x3d85b509	0.0652867
155	0x3dd617ad	0.104537345
156	0xbddc52c6	-0.10757975
157	0xbcf6665e	-0.03007811
158	0x3d8d9a71	0.06914223
159	0x3da8bef9	0.0823955
160	0x3db35a6e	0.087574825
161	0xbde224a8	-0.11042148
162	0xbd910093	-0.07080188
163	0xbdc1d41a	-0.09464283
164	0xbd17600e	-0.03695684
165	0x3cbf6442	0.023363236
166	0x3ccef445	0.025262961
167	0xbda48235	-0.080326475
168	0x3d82d1c9	0.063876696
169	0x3c245890	0.010030881
170	0x3d833b51	0.06407798
171	0xbd79aa2c	-0.060953304
172	0xbd0280b4	-0.031861022
173	0x3d8271e7	0.063693814
174	0x3c96a06a	0.018387038
175	0x3de9e091	0.11419786
176	0x3d7894bd	0.060688723
177	0xbcb3695a	-0.021900821
178	0xbd5a1b61	-0.053248767
179	0x3dc598d7	0.096482925
180	0xbdc39b38	-0.0955109
181	0xbd079666	-0.033102416
182	0xbdbf4468	-0.09339219
183	0xbdb62e52	-0.08895554
184	0x3e03a8aa	0.12857309
185	0xbdd85ae7	-0.10564213
186	0xbd981788	-0.07426363
187	0x3dc34796	0.09535138
188	0x3c86d855	0.016460577
189	0x3d3232e6	0.04350557
190	0x3b958a23	0.0045635863
191	0xbcd0a2be	-0.025468227
192	0xbd9e8f75	-0.07742206
193	0x3d8f6b2c	0.07002863
194	0xbd821d89	-0.0635329
195	0x3c8b7eb3	0.017028188
196	0xbd2f8b7d	-0.042857636
197	0xbde980d4	-0.11401525
198	0xbccb4f6e	-0.024818148
199	0x3cc27b5c	0.023740463
200	0x3d433237	0.04765531
201	0x3de6b300	0.1126461
202	0x3d4d3370	0.050097883
203	0x3c864d43	0.016394263
204	0x3dc73d29	0.09728462
205	0x3d5ae2ab	0.053438824
206	0x3dc1a2cb	0.094548784
207	0xbd15fb83	-0.036616813
208	0xbdcb73aa	-0.099341705
209	0x3d9f5f38	0.077818334
210	0x3c26dce9	0.010184505
211	0xbd611ebb	-0.054960947
212	0xbdb30055	-0.08740298
213	0x3d8c394a	0.068468645
214	0xbd3f508b	-0.04670767
215	0xbe01412f	-0.12622522
216	0x3d6b1fbd	0.057403315
217	0xbccedaac	-0.025250755
218	0xbdbb8109	-0.09155471
219	0xbd9724ee	-0.07380091
220	0x3d5ba63d	0.053625334
221	0xbdb4adef	-0.08822238
222	0x3d9e5add	0.077321745
223	0x3dc9319c	0.09823915
224	0xbd4f68f4	-0.0506372
225	0xbde015ab	-0.10941633
226	0x3dbcad1c	0.092127055
227	0xbca237b8	-0.01980196
228	0x3dc4ac5f	0.0960319
229	0xbb4e78e9	-0.0031505174
230	0xba97b8b1	-0.0011575428
231	0xbdada423	-0.08478572
232	0x3dc8af89	0.09799106
233	0x3de6ead5	0.112752594
234	0x3e010784	0.12600523
235	0x3b9602f1	0.0045779874
236	0xbdd98c22	-0.10622431
237	0x3d982309	0.074285574
238	0xbda74265	-0.081669606
239	0x3d7a3bb3	0.06109209
240	0xbc8632b0	-0.016381592
241	0x3dee8436	0.11646311
242	0x3dc8f30c	0.098119825
243	0xbdcf733b	-0.101294
244	0x3c308cad	0.010775727
245	0x3bb2c97c	0.0054561477
246	0x3d29ada3	0.04142536
247	0x3cc27a75	0.023740033
248	0xbd4c062f	-0.049810585
249	0x3db07323	0.086157106
250	0x3dafc372	0.085822
251	0x3cea8471	0.028627606
252	0xbd84add4	-0.064784676
253	0xbde5e813	-0.11225905
254	0xbd79271a	-0.060828306
255	0xbdb4289a	-0.08796807

lstm.bias_ih_l1 f4 [256]
0	0xbddee0b0	-0.108826995
1	0x3bd9103d	0.00662425
2	0xbcc601b9	-0.024170743
3	0xbdec660b	-0.11542901
4	0x3d761e07	0.06008723
5	0xbcb6e9d9	-0.022328304
6	0xbcdf0d88	-0.027228132
7	0x3db5d761	0.08878971
8	0xbd741fa1	-0.059600476
9	0xbd8af913	-0.067857884
10	0xbd302675	-0.043005425
11	0xbdefe190	-0.117129445
12	0xbc9f2f07	-0.019431604
13	0x3dfa01d2	0.122073784
14	0x3cc1a011	0.023635896
15	0x3d7ed0f2	0.062210985
16	0x3c892dc1	0.01674545
17	0x3dea4972	0.1143979
18	0x3d50a681	0.05094004
19	0x3bf7bd0e	0.007560379
20	0xbdf84fb7	-0.121245794
21	0xbc11afd9	-0.008892023
22	0x3dd08735	0.10182039
23	0xba0a7fcd	-0.0005283326
24	0xbc940c0a	-0.018072147
25	0xbc053618	-0.008130573
26	0xbd01ad6b	-0.031659525
27	0xba790d5b	-0.00095005863
28	0x3d77710c	0.060410544
29	0x3dde246f	0.10846793
30	0xbd8350a7	-0.064118676
31	0xbdc10473	-0.09424677
32	0xbc0760ae	-0.008262796
33	0xbdaf1413	-0.08548751
34	0x3d783c73	0.060604524
35	0x3dcd870c	0.10035524
36	0xbd02bab1	-0.031916324
37	0xbcb41789	-0.021983879
38	0x3d0ed1e7	0.034868147
39	0x3da0bf78	0.0784902
40	0x3d612c72	0.054974027
41	0x3c837728	0.016048029
42	0x3d1bb05f	0.038009997
43	0x3bfac3c7	0.007652733
44	0xbdd7e00a	-0.10540779
45	0xbdcfd3ab	-0.10147794
46	0x3d1e257b	0.038609963
47	0x3c3aab31	0.011393354
48	0xbda79bdd	-0.081840254
49	0x3d4c7753	0.049918484
50	0xbd808960	-0.06276202
51	0xbb9a869d	-0.004715754
52	0xbdcc9a6d	-0.09990392
53	0xbddc22f2	-0.10748853
54	0x3c0cd7e6	0.008596396
55	0x3d8e6959	0.06953687
56	0xbbc28f89	-0.005937521
57	0x3d0615e5	0.032735724
58	0x3d9f90a8	0.07791263
59	0xbbd19d40	-0.0063969195
60	0x3c86154f	0.016367583
61	0xbd0930e7	-0.033493903
62	0x3d75afaf	0.059981998
63	0xbdaf0ece	-0.08547746
64	0xbd0f9c47	-0.035061147
65	0xbdbf4501	-0.09339333
66	0x3d1a08c0	0.037606
67	0xbc767aed	-0.015043956
68	0x3d610798	0.054938883
69	0x3ddfdb4f	0.10930502
70	0xbdea0e86	-0.114285514
71	0xbdec39af	-0.1153444
72	0x3ccb1b2e	0.024793234
73	0xbda6dd5a	-0.08147688
74	0x3db69366	0.08914833
75	0x3d970013	0.07373061
76	0x3dd632e9	0.10458929
77	0x3dc7aa92	0.097493306
78	0x3da8e371	0.08246506
79	0xbd892c29	-0.06697876
80	0x3d80efa4	0.06295708
81	0x3e06b80c	0.13156146
82	0x3db5b83c	0.088730305
83	0x3d9afa7b	0.075673066
84	0x3d99a9bf	0.075030796
85	0x3c3ea70c	0.011636507
86	0xbd917f71	-0.07104386
87	0x3d7a9049	0.061172757
88	0x3bd06650	0.006359853
89	0xbdccaec9	-0.09994275
90	0xbc5cd70f	-0.013479008
91	0xbb05d90d	-0.0020423562
92	0xbca5f71a	-0.020259429
93	0x3ccbc0e7	0.024872256
94	0x3da26eaa	0.07931264
95	0xbd505e84	-0.050871387
96	0xbd68bf1a	-0.056822874
97	0xbddaa968	-0.10676843
98	0x3bdf24e6	0.0068098186
99	0xbd5cdb40	-0.05392003
100	0x3dc81397	0.097693615
101	0xbdc1a60e	-0.094555005
102	0x3b8a753f	0.0042254026
103	0x3a82a172	0.0009966327
104	0xbc819cb6	-0.015821796
105	0x3d897b85	0.067130126
106	0x3dd28d92	0.10280909
107	0x3dcfa7c1	0.101394184
108	0xbd766bef	-0.060161527
109	0x3de8db1f	0.11369919
110	0xbdef83f2	-0.116950884
111	0x3c801f7b	0.015640011
112	0x3c830a76	0.0159962
113	0x3d66cab8	0.05634567
114	0x3a199712	0.0005858998
115	0x3c6b5658	0.014363848
116	0x3d940099	0.072266765
117	0x3d1367e7	0.03598776
118	0xbbfe058d	-0.0077521265
119	0xbdde68e2	-0.108598486
120	0x3c4b5c37	0.012412122
121	0x3d40220d	0.046907473
122	0xbd92d1f6	-0.07168953
123	0x3df15b5c	0.117850035
124	0xbdf49364	-0.11942175
125	0xbda5093b	-0.08058401
126	0x3ce20a28	0.027592734
127	0xbd80759f	-0.062724344
128	0x3d66e970	0.056374967
129	0xbde37789	-0.11106784
130	0x3d912cf6	0.07088654
131	0x3d818b74	0.06325427
132	0x3bdad43f	0.0066781337
133	0xbd985ba2	-0.074393526
134	0xbca7898b	-0.020451328
135	0x3d8111e7	0.06302243
136	0x3ced1f43	0.02894557
137	0x3d8bff10	0.06835759
138	0x3cbacce0	0.02280277
139	0xbd416d94	-0.047223642
140	0xbe087f89	-0.13329901
141	0xbdd01532	-0.10160293
142	0x3c9b1109	0.018929021
143	0xbcf05a01	-0.029339792
144	0xbd98842d	-0.074470855
145	0x3daf8c2e	0.08571659
146	0xbd0b87cf	-0.034065064
147	0x3d73128c	0.05934386
148	0x3dbf7556	0.09348552
149	0xbaded58d	-0.0017000899
150	0xbd327367	-0.043567088
151	0x3de82c37	0.11336558
152	0x3db7365b	0.08945914
153	0x3d2e6a16	0.04258164
154	0xbda10c56	-0.07863681
155	0xbd1c6fa7	-0.038192417
156	0x3d9ae14b	0.075625025
157	0xbdac7835	-0.08421365
158	0xbd938ab4	-0.0720419
159	0x3d526691	0.051367346
160	0x3d4618c4	0.048363462
161	0x3cd2f8ab	0.02575334
162	0xbc8a53b9	-0.016885625
163	0xbe02b79f	-0.12765358
164	0xbbd20e54	-0.0064103995
165	0xbd1602d6	-0.0366238
166	0xbdc3962c	-0.095501274
167	0xbddf8cf8	-0.109155595
168	0xbdd38b24	-0.10329273
169	0xbdd5d107	-0.104402594
170	0xbd86e45d	-0.065865256
171	0x3cc72108	0.024307743
172	0x3d46800a	0.04846195
173	0xbe0280f3	-0.12744503
174	0x3d88e593	0.06684413
175	0xbdf9134e	-0.12161885
176	0xbceabbb1	-0.028653951
177	0xbbbfb1f4	-0.005850071
178	0xbbe0b141	-0.006857068
179	0xbdd1f8e1	-0.10252548
180	0xbdf2cd5b	-0.11855575
181	0xbd4f0f68	-0.050551802
182	0x3c62cdbd	0.013842997
183	0xbdf6a983	-0.120440505
184	0x3e0281aa	0.12744775
185	0xbdcff6f4	-0.101545244
186	0x3e03865c	0.12844223
187	0xbde71974	-0.11284152
188	0x3d145bda	0.03622041
189	0x3d8dab20	0.06917405
190	0x3db824e0	0.08991408
191	0xbd984209	-0.0743447
192	0x391b3497	0.00014801543
193	0xbd8869f6	-0.066608354
194	0x3dfe55b2	0.12418689
195	0xbd46a606	-0.048498176
196	0xbc8c4de6	-0.017126989
197	0x3d2e7849	0.04259518
198	0x3dfd5cc9	0.12371213
199	0x3d7f9eaa	0.062407173
200	0xbe0e7615	-0.13912232
201	0xbca298b5	-0.019848207
202	0xbdc6d64c	-0.09708843
203	0x3b91951e	0.004442825
204	0xbd41c51a	-0.04730711
205	0xbdadfd76	-0.084956095
206	0x3ca00746	0.019534718
207	0x3db13308	0.086523116
208	0xbcd1cdc5	-0.025610814
209	0xbceaea18	-0.028676078
210	0x3cbe3126	0.023216795
211	0x3d5bf8a9	0.053703938
212	0x3c8d0894	0.017216004
213	0x3d8d2ab9	0.06892914
214	0x3a9e668b	0.0012085004
215	0xbda1aa55	-0.078938164
216	0x3dad4f05	0.084623374
217	0xbb3a2687	-0.0028404312
218	0xbdfc4aed	-0.123189785
219	0x3c9f9ccf	0.019483952
220	0xbc86bbf6	-0.016447049
221	0xbde4f396	-0.11179273
222	0x3c5e65c5	0.013574068
223	0x3ba8ff19	0.005157363
224	0x3dcf8027	0.10131865
225	0xbdbdb2b9	-0.09262604
226	0xbdb2160e	-0.08695613
227	0x3d947624	0.07249096
228	0xbd2fd987	-0.04293206
229	0xbdc66bdc	-0.09688541
230	0x3de1a6a0	0.11018109
231	0xbddaa913	-0.106767796
232	0xbd824afe	-0.0636196
233	0x3c2f361e	0.010694055
234	0x3d46619b	0.048432928
235	0x3c8e7865	0.017391393
236	0x3df7bc5a	0.12096472
237	0xbd3ce9a9	-0.046121273
238	0x3de33dd5	0.11095778
239	0xbb4bdd13	-0.0031107112
240	0xbdd47d20	-0.10375428
241	0x3d225bc8	0.03963831
242	0x3cfa0f8f	0.030524997
243	0x3d7d53cb	0.06184749
244	0xbd81c4e4	-0.06336382
245	0xbd0af8ce	-0.033928685
246	0xbd1416b8	-0.03615448
247	0x3b145c4e	0.0022638026
248	0x3cb151a6	0.021645378
249	0x3d44e131	0.04806632
250	0x3b8ae2e7	0.0042384746
251	0x3dcc6185	0.09979538
252	0x3dfd19cb	0.12358435
253	0x3ddf7a19	0.1091196
254	0xbdd86371	-0.10565842
255	0xbcac8a1f	-0.021061955
