model/lstm_model_abnb_sr.pth (torch, 209874 bytes, 9 tensors)

lstm.weight_ih_l0 f4 [256, 5]
-0.100181825 0.13738753 0.14200409 -0.10365851 -0.038755447 0.14863978 -0.053945966 0.13429055
-0.0860666 0.005608426 0.006794065 0.043116678 -0.064091705 0.009445708 0.07384771 0.15291733
0.1529229 0.11455976 0.042552378 0.024354411 0.026511155 0.088177994 0.06626489 -0.018384865
0.10837885 0.12771796 0.011875834 0.15093312 0.10107101 0.11991936 -0.0862521 0.052464478
0.12823953 0.11177105 -0.062642254 0.030812522 0.032086495 -0.009509501 0.098933555 0.12472535
-0.035603773 0.027674343 -0.09146989 -0.08291405 0.022061627 -0.058134247 -0.037880946 0.11062602
-0.14043875 -0.083584175 -0.042941745 -0.086178266 -0.01852086 -0.11769662 -0.052629255 -0.040668
0.05176843 0.07430426 0.026157795 -0.061491404 0.105410725 -0.033215035 0.031816024 -0.093656704
-0.09807285 -0.07434149 -0.09170846 -0.082840204 -0.07696913 0.032771155 0.09299049 0.01577718
0.025244955 0.12663572 0.08342674 0.06477937 0.07175545 0.07067724 0.07739165 -0.05678845
-0.05970161 0.13049029 0.08481756 0.072257325 -0.02019627 -0.03538075 0.009455318 0.06858164
0.045397382 0.06349652 0.002729547 0.1228707 -0.0332429 0.01773476 -0.02868099 0.061065882
-0.024344752 -0.07700243 0.12313598 0.022533424 0.012348981 -0.0047463905 0.0047779884 0.02470294
0.062443268 0.03701778 -0.04301021 -0.08917401 0.064021505 -0.04449775 0.089232 0.025024753
-0.09768207 -0.12928857 0.04524062 -0.0056025265 -0.10147671 0.13121904 0.011816164 -0.0714467
-0.04901397 -0.0013300638 -0.06128056 0.08301306 0.06978364 -0.069987655 0.08108351 -0.04717383
-0.0731433 -0.10623729 0.013191011 0.02234898 0.0015262933 -0.0803455 -0.0018756271 -0.052652527
-0.093160875 0.09875816 -0.07075094 -0.017336862 -0.065342374 0.07811459 -0.045374773 -0.038176276
0.056801107 0.037336446 -0.065956295 0.06412318 0.076650605 0.0351504 -0.039595496 0.025005694
0.0594157 -0.087144844 0.06617757 0.040972456 0.134671 0.0904232 0.03974375 0.08626175
-0.09070073 0.13395098 0.09587578 0.07774577 0.10449726 -0.112413146 0.10236186 -0.13131617
0.05794774 -0.063708745 0.019854022 -0.020725895 -0.06504302 -0.025080634 0.0770137 -0.07373144
-0.022497263 -0.058087822 -0.059344847 0.004365782 -0.08708642 0.072888635 0.02567393 -0.085075624
-0.014784025 0.018747274 -0.02146292 0.07867556 0.007757472 0.07341127 0.09032434 0.09873698
-0.09801657 -0.07077986 0.090248 0.0897707 -0.06776286 -0.06993621 -0.116278 -0.06636383
0.05695122 -0.043928895 0.06245621 0.0010547818 0.008641121 0.137472 0.025862683 0.10774417
-0.043625902 0.028131302 -0.021144794 0.017713856 -0.092638716 0.01917253 0.0800937 0.12652716
-0.017076533 -0.095603354 -0.033908334 -0.066824 0.07910116 0.08483308 -0.013969427 0.13818288
-0.0233617 0.018545898 0.0014125269 -0.070397526 0.042947885 -0.14154059 0.05035474 -0.029086502
0.117726766 0.0017759943 0.0058593345 0.09544277 -0.031918827 -0.09991578 -0.10197472 0.045427587
0.04823019 -0.0708687 0.10948056 -0.021748811 0.012706213 0.10275839 -0.002496569 -0.08532405
-0.12739712 0.014397642 0.0850295 0.105947964 -0.029099414 0.0939183 0.016625468 -0.081551276
00000000: 212c cdbd 51af 0c3e 8569 113e ea4a d4bd
00000010: 08be 1ebd 0735 183e 72f6 5cbd 7683 093e
00000020: b043 b0bd e3c6 b73b bfa0 de3b 1d9b 303d
00000030: 8342 83bd 2cc2 1a3c 783d 973d 5c96 1c3e
00000040: d297 1c3e 4f9e ea3d 674b 2e3d e782 c73c
00000050: ec2d d93c aa96 b43d e3b5 873d db9b 96bc
00000060: bbf5 dd3d 7fc8 023e dc92 423c 368e 1a3e
00000070: 51fe ce3d 4898 f53d f1a4 b0bd fee4 563d
00000080: 3951 033e 38e8 e43d 954a 80bd 8b6a fc3c
00000090: 216d 033d bdcd 1bbc ad9d ca3d 0170 ff3d
000000a0: 43d5 11bd 4eb5 e23c 9154 bbbd d7ce a9bd
000000b0: 96ba b43c 2d1e 6ebd 0d29 1bbd e58f e23d
000000c0: 2dcf 0fbe 2e2e abbd afe3 2fbd 3b7e b0bd
000000d0: 0fb9 97bc ed0a f1bd c691 57bd 7d93 26bd
000000e0: 220b 543d d52c 983d df48 d63c 69de 7bbd
000000f0: 94e1 d73d 7d0c 08bd 8551 023d 16cf bfbd
00000100: 6bda c8bd 5a40 98bd a5d1 bbbd 20a8 a9bd
00000110: fea1 9dbd 0c3b 063d cc71 be3d 253f 813c
00000120: 82ce ce3c cbac 013e a3db aa3d 0cab 843d
00000130: 85f4 923d 3bbf 903d 837f 9e3d 019b 68bd
00000140: ad89 74bd 3f9f 053e d4b4 ad3d a6fb 933d
00000150: a672 a5bc 68eb 10bd 7aea 1a3c 8874 8c3d
00000160: 9bf2 393d 770a 823d 33e2 323b a2a3 fb3d
00000170: b529 08bd 7d48 913c 65f4 eabc 3820 7a3d
00000180: a56e c7bc 73b3 9dbd b72e fc3d 0498 b83c
00000190: 6153 4a3c 9c87 9bbb ac90 9c3b d25d ca3c
000001a0: 83c4 7f3d f59f 173d 792b 30bd dda0 b6bd
000001b0: b51d 833d 4643 36bd 44bf b63d b600 cd3c
000001c0: 8a0d c8bd 3964 04be 3a4e 393d 6695 b7bb
000001d0: 05d3 cfbd 495e 063e 9598 413c a652 92bd
000001e0: dfc2 48bd 8955 aeba 5301 7bbd c002 aa3d
000001f0: baea 8e3d b055 8fbd 1c0f a63d 5939 41bd
00000200: 28cc 95bd f092 d9bd 1c1f 583c 3515 b73c
00000210: e80d c83a 2e8c a4bd 9ad7 f5ba 2daa 57bd
00000220: 21cb bebd b841 ca3d dee5 90bd 0906 8ebc
00000230: 39d2 85bd 8bfa 9f3d e6da 39bd ba5e 1cbd
00000240: 47a8 683d 1aee 183d 1814 87bd 0453 833d
00000250: fefa 9c3d def9 0f3d e32e 22bd bed8 cc3c
00000260: e15d 733d ff78 b2bd 1b88 873d bcd2 273d
00000270: 32e7 093e cc2f b93d 58ca 223d 00aa b03d
00000280: 4ec1 b9bd 722a 093e 855a c43d 2d39 9f3d
00000290: a902 d63d dd38 e6bd 18a3 d13d bf77 06be
000002a0: 9c5a 6d3d bb79 82bd e7a4 a23c 5ac9 a9bc
000002b0: 4635 85bd e775 cdbc 5cb9 9d3d 8200 97bd
000002c0: 2e4c b8bc 7fed 6dbd 9513 73bd d50e 8f3b
000002d0: 5d5a b2bd a346 953d 2252 d23c 213c aebd
000002e0: b238 72bc e293 993c 01d3 afbc a720 a13d
000002f0: 6432 fe3b a658 963d f8fb b83d 9d36 ca3d
00000300: e9bc c8bd 08f5 90bd f2d3 b83d b3d9 b73d
00000310: 41c7 8abd b73a 8fbd 2923 eebd c2e9 87bd
00000320: af45 693d c9ee 33bd 15d2 7f3d 9b40 8a3a
00000330: 7d93 0d3c 76c5 0c3e fadd d33c faa8 dc3d
00000340: 13b1 32bd 9e73 e63c d937 adbc a61c 913c
00000350: 5eb9 bdbd b60f 9d3c 2a08 a43d 5690 013e
00000360: 16e4 8bbc b1cb c3bd 77e3 0abd 05db 88bd
00000370: caff a13d f7bc ad3d 06e0 64bc d07f 0d3e
00000380: 0961 bfbc 91ed 973c 8a24 b93a 942c 90bd
00000390: 1fea 2f3d 04f0 10be c640 4e3d d146 eebc
000003a0: bb1a f13d 7bc8 e83a a9ff bf3b 8077 c33d
000003b0: 51bd 02bd a5a0 ccbd 1fd8 d0bd 4712 3a3d
000003c0: 058d 453d 9c23 91bd 5837 e03d 902a b2bc
000003d0: b82d 503c fe72 d23d 7a9d 23bb 60be aebd
000003e0: 6474 02be 16e4 6b3c f223 ae3d 3ffb d83d
000003f0: e561 eebc 3d58 c03d 2232 883c 5b04 a7bd

lstm.weight_hh_l0 f4 [256, 64]
0.002891125 -0.040856253 0.06233197 0.13756253 0.08198999 -0.04285177 0.0044486383 0.083015114
-0.06809271 0.13819228 -0.08097112 0.082662195 -0.13980246 -0.058539983 -0.017110242 0.105024554
0.019549381 0.054779526 -0.031796284 -0.007340763 0.09749622 0.06301969 0.052565426 -0.08972712
0.08762982 -0.031247716 -0.098328345 0.099888295 -0.03293265 -0.08452977 -0.04047968 -0.07325574
0.07737778 -0.07383945 0.11299595 0.0056304615 -0.06884788 0.037109956 0.0331625 0.08582758
0.046170518 0.017545635 0.09605559 0.11344409 0.015303559 0.067029856 0.10624014 0.110883825
0.09651606 0.040947307 -0.0359126 0.027256707 0.10434408 0.035762347 0.021228526 -0.015395926
0.02037125 -0.0855863 -0.03001485 -0.01494464 0.10972332 -0.037700765 -0.043955855 0.11617413
-0.13801898 0.1192846 -0.060837224 0.009671961 -0.07314228 -0.016628623 0.1052253 0.06769063
-0.04345655 0.10287496 0.049691346 -0.008885802 -0.12865412 -0.036394008 -0.027149623 -0.07382501
0.026827168 -0.0024250054 0.011123405 0.04461872 -0.06925356 -0.035917576 -0.07262854 -0.0139921475
0.04162589 0.006419165 0.08979423 -0.09057248 -0.05790949 0.08843678 -0.02496472 -0.034697402
-0.114175305 -0.005884461 0.05650809 -0.020079797 0.003144726 -0.02501559 0.09412673 0.007849987
-0.008545198 0.046979155 -0.018635428 -0.0059836013 -0.100849226 0.0688756 0.023432326 0.013291205
-0.013081912 0.038704883 0.099895336 -0.043660983 0.098655246 0.03968541 -0.06284333 -0.057997677
-0.10435199 -0.04913999 0.12592012 -0.08966749 -0.07660581 0.044506483 -0.044919133 0.08873535
0.13674074 0.1037249 -0.020068895 -0.10857096 -0.03176819 -0.040320482 0.06925529 0.017689856
-0.0802087 -0.02064565 0.038783416 -0.07518887 0.11951625 0.13399874 0.13521186 -0.05459507
0.06203023 0.1008171 -0.054770928 0.033991892 -0.120597795 0.032709714 0.10388243 -0.01458005
0.1023901 -0.013691084 0.07664524 0.0930799 0.09191585 -0.05283416 0.0347551 0.0004790245
0.0051637045 0.07025026 -0.13478857 0.033751827 0.111074045 -0.06562802 -0.045971017 0.03856537
-0.08491522 -0.031785358 -0.050251156 -0.004933283 0.10339454 0.026480088 -0.13253953 0.008931438
0.106440395 -0.11125002 0.012943391 -0.10118381 -0.07785915 -0.016281188 -0.0074333264 -0.038408536
-0.10550488 -0.061957315 -0.089053474 0.09715478 -0.10757266 0.062409393 -0.079937726 -0.11595631
0.09576036 -0.027012683 -0.07681106 0.03216238 0.115714714 -0.10047604 -0.053629372 -0.13613378
-0.13752897 -0.008073014 -0.11189637 -0.086029276 -0.10190832 0.032774802 0.08484247 -0.043816503
-0.004893341 -0.02693675 0.03999205 0.023939898 -0.08972328 -0.062416248 -0.068015315 0.0020067045
0.08902479 -0.0041241767 0.07024651 -0.03652944 -0.047649298 0.051800758 0.10723364 0.11241248
-0.0058468804 0.065987326 -0.020746285 -0.0634586 -0.024971042 0.11606654 0.046139777 0.10596238
-0.068464234 -0.015346792 -0.059950035 0.15419684 -0.019077905 0.014215912 0.017924465 0.08964228
-0.016966332 -0.049178936 0.05547428 -0.009888501 -0.09701622 -0.106692776 -0.03515907 -0.07714763
0.07574229 -0.04648803 0.0011775852 -0.020530194 0.09214698 -0.020594703 0.05531928 -0.048032355
00000000: 0779 3d3b e358 27bd cf4f 7f3d 31dd 0c3e
00000010: 5eea a73d 5685 2fbd e2c5 913b d403 aa3d
00000020: 3174 8bbd 4782 0d3e 30d4 a5bd cc4a a93d
00000030: 6028 0fbe 9fc7 6fbd c72a 8cbc 1d17 d73d
00000040: 0626 a03c 7f60 603d d23c 02bd c98a f0bb
00000050: 19ac c73d 7810 813d d84e 573d dac2 b7bd
00000060: 4377 b33d 36fb ffbc 5f60 c9bd 3c92 cc3d
00000070: 63e4 06bd f21d adbd 05ce 25bd 1b07 96bd
00000080: 3e78 9e3d 2339 97bd 6c6a e73d bc7f b83b
00000090: 1e00 8dbd 9c00 183d 67d5 073d 5fc6 af3d
000000a0: 4c1d 3d3d ddbb 8f3c cbb8 c43d 6055 e83d
000000b0: c7bb 7a3c f346 893d 6e94 d93d 0f17 e33d
000000c0: 36aa c53d 5db8 273d 1719 13bd 7549 df3c
000000d0: 59b2 d53d 8a7b 123d 72e7 ad3c 323f 7cbc
000000e0: 9ce1 a63c df47 afbd b4e1 f5bc 5dda 74bc
000000f0: 9fb6 e03d 1e6c 1abd 0e0b 34bd b4ec ed3d
00000100: d954 0dbe 7c4b f43d 7430 79bd 2577 1e3c
00000110: 9fcb 95bd c038 88bc 5d80 d73d 63a1 8a3d
00000120: 7fff 31bd 1bb0 d23d 2789 4b3d c195 11bc
00000130: e8bd 03be e211 15bd e368 debc 9131 97bd
00000140: a6c4 db3c d7ec 1ebb f13e 363c 1ec2 363d
00000150: cfd4 8dbd 4f1e 13bd 46be 94bd 523f 65bc
00000160: e97f 2a3d dc57 d23b 0ae6 b73d 107e b9bd
00000170: 8032 6dbd 581e b53d d082 ccbc dd1e 0ebd
00000180: bed4 e9bd 70d2 c0bb 0775 673d 637e a4bc
00000190: bf17 4e3b 7fed ccbc 84c5 c03d 3b9d 003c
000001a0: 2801 0cbc 376d 403d 53a9 98bc 1612 c4bb
000001b0: 0a8a cebd a70e 8d3d 26f5 bf3c 5bc3 593c
000001c0: 8455 56bc 0389 1e3d ed95 cc3d dcd5 32bd
000001d0: c30b ca3d 2b8d 223d 01b4 80bd f98e 6dbd
000001e0: 7fb6 d5bd 0447 49bd 34f1 003e 97a3 b7bd
000001f0: 82e3 9cbd 6e4c 363d 20fd 37bd e1ba b53d
00000200: c405 0c3e b86d d43d 8667 a4bc 745a debd
00000210: 5d1f 02bd 1727 25bd b8d5 8d3d 51ea 903c
00000220: 7544 a4bd 1121 a9bc 5cdb 1e3d 9ffc 99bd
00000230: f0c4 f43d f736 093e fa74 0a3e 159f 5fbd
00000240: 6913 7e3d 3279 ce3d 7b57 60bd 153b 0b3d
00000250: fafb f6bd 9ffa 053d 50c0 d43d 29e1 6ebc
00000260: e7b1 d13d 9250 60bc 2ef8 9c3d ada0 be3d
00000270: 613e bc3d a268 58bd 5d5b 0e3d 9425 fb39
00000280: 4b34 a93b 5edf 8f3d 0406 0abe 5b3f 0a3d
00000290: ca7a e33d fc67 86bd 1b4c 3cbd b9f6 1d3d
000002a0: 08e8 adbd 5d31 02bd 28d4 4dbd 61a7 a1bb
000002b0: 84c0 d33d c5ec d83c 71b8 07be 2b55 123c
000002c0: 6cfd d93d 0dd7 e3bd 8410 543c 7539 cfbd
000002d0: 9e74 9fbd 2060 85bc 4393 f3bb 4552 1dbd
000002e0: f112 d8bd f4c6 7dbd ab61 b6bd 16f9 c63d
000002f0: 0e4f dcbd fea0 7f3d 64b6 a3bd 807a edbd
00000300: 021e c43d b449 ddbc 1e4f 9dbd b3bc 033d
00000310: d6fb ec3d 62c6 cdbd 79aa 5bbd a766 0bbe
00000320: 65d4 0cbe ad44 04bc ed29 e5bd 1e30 b0bd
00000330: 4fb5 d0bd df3e 063d e4c1 ad3d ef78 33bd
00000340: 5258 a0bb 76aa dcbc b4ce 233d 9b1d c43c
00000350: d7c0 b7bd 2ea8 7fbd 9d4b 8bbd ea82 033b
00000360: a152 b63d 1a24 87bb 67dd 8f3d e59f 15bd
00000370: e92b 43bd 082d 543d 509d db3d 8438 e63d
00000380: 3097 bfbb 5d24 873d 1df4 a9bc 95f6 81bd
00000390: 1290 ccbc 4bb4 ed3d 10fd 3c3d ce02 d93d
000003a0: fa36 8cbd 1c71 7bbc 2b8e 75bd c7e5 1d3e
000003b0: 4449 9cbc dbe9 683c 54d6 923c 5f96 b73d
000003c0: fafc 8abc da6f 49bd 0039 633d 6103 22bc
000003d0: 71b0 c6bd be81 dabd f502 10bd 94ff 9dbd
000003e0: c61e 9b3d 3c6a 3ebd 3459 9a3a f02e a8bc
000003f0: 8eb7 bc3d 39b6 a8bc 7896 623d 93bd 44bd

lstm.bias_ih_l0 f4 [256]
0.13105722 0.111121796 -0.13547531 0.13475628 -0.061830334 0.10942919 -0.0913379 -0.038988214
-0.027265705 0.00980004 -0.11987282 -0.07056496 0.12493961 -0.11867188 0.0914722 0.081546396
-0.10609304 -0.10225247 0.12645476 -0.05551697 -0.025372854 0.13413481 0.044235628 -0.04660208
0.054442894 -0.027191833 -0.016277162 -0.030095398 0.036399897 -0.043965086 -0.03594461 0.10074638
0.12439455 0.021398425 -0.05972573 -0.06762279 -0.011161215 0.041923653 0.061022375 0.06583905
0.117454015 0.074650556 0.10976889 0.035094846 -0.098074146 -0.035345796 -0.047656074 -0.0032361478
0.041742448 -0.0012643225 -0.055808414 -0.093748175 -0.059766024 0.012071714 -0.022440605 0.035104584
-0.014392182 -0.08148401 -0.10600326 -0.00981691 -0.063577175 -0.01049391 0.13335034 -0.10471441
0.10983978 0.118496515 0.10543054 0.005839861 0.0013614978 0.03408297 0.0034503825 -0.060654648
-0.013545907 -0.09711728 -0.06499498 0.045616433 -0.112807184 0.0985416 0.07536195 0.031268667
0.030109348 -0.021580469 0.08069815 0.07115195 -0.0046959324 -0.0052805087 0.06294953 -0.07045528
0.07808598 -0.115849294 -0.03539895 0.07224098 0.08983205 0.0686539 0.04018997 0.11853
0.03003966 -0.14110997 0.06044683 -0.034632023 0.009050396 -0.046675414 -0.015416258 -0.11605981
-0.021761656 -0.038008966 -0.11497389 -0.08319621 0.1018492 -0.03744032 0.11288587 0.0547886
-0.023963582 0.09291986 0.05822024 -0.025837649 -0.084806584 -0.06812821 0.089042336 -0.09269122
0.06545406 0.022635771 -0.017067274 0.07892003 0.09982969 0.07986562 0.014199968 0.001012699
-0.028922489 -0.016668214 0.10240366 -0.09023397 0.019876033 -0.074294165 0.056686282 0.0041017253
0.068323866 0.08479063 -0.0067135487 0.012445231 0.016669169 -0.020469505 -0.005878072 -0.038928777
0.0054697394 0.033474285 -0.063223146 0.099234365 0.033580564 0.0036074973 -0.043101825 -0.050245892
0.07855445 0.10145009 -0.104735285 -0.08172797 0.04783603 -0.09341053 -0.036996536 0.035629235
0.005389768 -0.1015317 0.13393739 -0.09558706 -0.017599788 -0.05198878 0.0073555126 0.049133837
0.044026714 0.11196405 0.073340185 -0.14082545 -0.098781005 -0.102917984 0.12976243 -0.042715356
0.025012923 0.0132665355 -0.048309505 0.040061377 0.040461797 -0.04555714 0.08482128 -0.03593496
0.094924174 0.11602416 0.048063274 0.09431725 0.07865215 -0.063570775 0.10890035 -0.026567124
0.13625881 0.060172457 0.105929084 0.005592007 -0.026367158 0.13431913 -0.06197387 0.11305555
0.08152078 -0.12765805 -0.023341978 -0.032133777 0.076413035 0.08379476 -0.0001776375 0.07878604
-0.06136778 0.04746215 0.08893775 0.034120534 0.093918 0.05113812 -0.09953815 0.023925181
-0.02944237 0.11160481 0.00490544 -0.025490727 -0.083584726 -0.1039084 -0.09304233 0.10356739
0.022181755 -0.07392489 0.08441392 0.12181409 -0.11358088 -0.07627801 0.09451053 0.02981004
-0.007020383 0.13071162 0.07598049 -0.038344268 0.041851744 -0.09592555 0.035052985 0.06286133
-0.007872571 -0.057015292 -0.07460189 -0.10505038 0.0035518697 -0.0762495 -0.1333731 -0.032386057
0.060505815 0.01237418 0.08696055 -0.10413781 -0.03278691 -0.045725588 0.0005477821 -0.12516788
00000000: dd33 063e d393 e33d 0aba 0abe 8dfd 093e
00000010: ce41 7dbd 691c e03d 5d0f bbbd 1bb2 1fbd
00000020: 545c dfbc 5990 203c e27f f5bd 5d84 90bd
00000030: 57e0 ff3d 3e0a f3bd c755 bb3d cc01 a73d
00000040: 4f47 d9bd be69 d1bd 5b7d 013e c365 63bd
00000050: bbda cfbc a35a 093e 6b30 353d d3e1 3ebd
00000060: 83ff 5e3d 68c1 debc af57 85bc a08a f6bc
00000070: 0f18 153d bc14 34bd a83a 13bd 1e54 ce3d
00000080: 92c2 fe3d c04b af3c f8a2 74bd d17d 8abd
00000090: 87dd 36bc 23b8 2b3d 99f2 793d a0d6 863d
000000a0: bb8b f03d 64e2 983d 83ce e03d 9dbf 0f3d
000000b0: 19db c8bd c1c6 10bd 0433 43bd 8d15 54bb
000000c0: 21fa 2a3d a0b7 a5ba 5d97 64bd 0bff bfbd
000000d0: 38cd 74bd 70c8 453c 5cd5 b7bc d3c9 0f3d
000000e0: 30cd 6bbc 17e1 a6bd 3d18 d9bd 1bd7 20bc
000000f0: c034 82bd a6ee 2bbc fe8c 083e 8274 d6bd
00000100: aef3 e03d 4dae f23d f8eb d73d 4e5c bf3b
00000110: 4974 b23a 969a 0b3d d01f 623b 0271 78bd
00000120: a7ef 5dbc 6de5 c6bd 171c 85bd 4cd8 3a3d
00000130: 7407 e7bd 2ed0 c93d 5e57 9a3d 9313 003d
00000140: e1a7 f63c 86c9 b0bc 1245 a53d 1db8 913d
00000150: 56e0 99bb 1e08 adbb afeb 803d dc4a 90bd
00000160: 8beb 9f3d 6542 edbd 7dfe 10bd 14f3 933d
00000170: def9 b73d 6a9a 8c3d 3d9e 243d dbbf f23d
00000180: bc15 f63c 227f 10be 1897 773d 4fda 0dbd
00000190: 1d48 143c b82e 3fbd 7994 7cbc c4b0 edbd
000001a0: 8045 b2bc 4aaf 1bbd 6e77 ebbd c662 aabd
000001b0: 5096 d03d 055b 19bd b530 e73d 036a 603d
000001c0: 464f c4bc c44c be3d 5978 6e3d 7aa9 d3bc
000001d0: 13af adbd ce86 8bbd d45b b63d e5d4 bdbd
000001e0: c70c 863d a76e b93c abd0 8bbc d3a0 a13d
000001f0: 8273 cc3d 9690 a33d fca6 683c 8abc 843a
00000200: dbee ecbc c78b 88bc 03b9 d13d 96cc b8bd
00000210: 10d3 a23c 8a27 98bd e02f 683d c467 863b
00000220: 62ed 8b3d b6a6 ad3d 54fd dbbb 15e7 4b3c
00000230: c88d 883c aaaf a7bc d89c c0bb c873 1fbd
00000240: 803b b33b 551c 093d 237b 81bd 633b cb3d
00000250: c68b 093d c36b 6c3b 8a8b 30bd a3ce 4dbd
00000260: 28e1 a03d 11c5 cf3d 747f d6bd fe60 a7bd
00000270: b7ef 433d 054e bfbd ae89 17bd f6ef 113d
00000280: a79c b03b daef cfbd e226 093e 26c3 c3bd
00000290: 6e2d 90bc 30f2 54bd 8306 f13b 9040 493d
000002a0: 5b55 343d 684d e53d 6133 963d 8c34 10be
000002b0: b24d cabd aac6 d2bd 71e0 043e 4cf6 2ebd
000002c0: e7e7 cc3c e25b 593c 30e0 45bd 6617 243d
000002d0: 45bb 253d 209a 3abd c7b6 ad3d 8930 13bd
000002e0: 9b67 c23d 139e ed3d ffdd 443d 6729 c13d
000002f0: 6114 a13d 6531 82bd 2607 df3d 4ca3 d9bc
00000300: 6e87 0b3e 6577 763d 59f1 d83d 283d b73b
00000310: f0ff d7bc f48a 093e 50d8 7dbd ab89 e73d
00000320: 5ef4 a63d cbb8 02be ad37 bfbc b59e 03bd
00000330: 707e 9c3d 969c ab3d 3444 3ab9 935a a13d
00000340: c85c 7bbd ac67 423d ff24 b63d f9c1 0b3d
00000350: 1558 c03d 3576 513d a8da cbbd befe c33c
00000360: 2031 f1bc 1091 e43d d0bd a03b eed1 d0bc
00000370: 782e abbd edcd d4bd fa8c bebd 241b d43d
00000380: 83b6 b53c ef65 97bd 35e1 ac3d aa79 f93d
00000390: 189d e8bd a537 9cbd bd8e c13d 2f34 f43c
000003a0: 3e0b e6bb 44d9 053e a99b 9b3d e10e 1dbd
000003b0: bc6c 2b3d 9d74 c4bd b893 0f3d 71bd 803d
000003c0: f5fb 00bc de88 69bd e0c8 98bd a724 d7bd
000003d0: 7cc6 683b b328 9cbd f592 08be 3ea7 04bd
000003e0: f2d4 773d 13bd 4a3c 5f18 b23d 3446 d5bd
000003f0: 914b 06bd c14a 3bbd 0999 0f3a 022c 00be

lstm.bias_hh_l0 f4 [256]
-0.056160882 0.10820796 -0.11587851 0.15056798 -0.027388632 -0.038158014 -0.028200272 -0.072937
0.1086457 -0.044708498 0.024139108 -0.02553321 -0.050893098 0.026955115 0.11906306 0.025708692
0.008028027 -0.050595865 0.033625692 -0.07547765 0.069457464 0.060410935 -0.10002142 0.09139381
0.023208633 -0.06416476 0.06833029 -0.038902074 -0.11097384 0.087269194 -0.030448597 0.10589668
0.0631551 0.074464746 -0.0032154226 -0.104415335 0.10579239 0.062311184 0.11258057 0.1174689
-0.04013752 -0.04373263 0.061488274 -0.02765004 0.0068777446 -0.039434332 0.005529086 -0.06964394
0.0925596 -0.06398754 0.12828189 0.0087283105 -0.074468635 -0.07141545 -0.041525297 0.038207315
-0.057956327 -0.0648936 -0.0073602833 -0.0651008 0.00797484 -0.105489545 0.094069906 0.11784205
-0.06986822 0.026449397 0.025769327 0.009215167 -0.08466889 -0.04574703 -0.1084523 -0.08774143
-0.088872254 0.024852011 -0.0705566 -0.117251515 -0.011092006 -0.053190462 0.0065805204 0.06961023
-0.044361908 0.0011198112 0.010184572 -0.04166872 0.10752715 0.08396286 -0.016710006 0.024534538
-0.08450743 -0.105124645 -0.0908393 -0.043842595 -0.047252696 -0.035757475 -0.11336631 -0.029381502
0.084232576 -0.07435799 -0.05330068 -0.0037044769 0.12898086 0.098766774 -0.06973379 0.118575424
-0.09605711 0.065526 0.089267716 -0.078576624 -0.003455677 -0.107155204 -0.056509547 -0.11109227
0.13340199 0.10366744 0.06667282 -0.07858805 0.09153759 0.035191085 -0.09237529 -0.055749506
-0.015152702 -0.006550047 -0.13848403 0.06435594 -0.016418073 -0.08774158 -0.006622234 -0.025869124
-0.058210988 0.038694914 -0.00889653 0.018886466 0.058125217 0.021643907 -0.060232107 -0.100170255
-0.0850565 0.0116814915 -0.06475997 0.035703722 -0.097943574 -0.084742345 -0.019222138 -0.11112624
-0.10824414 0.040349398 0.088891126 -0.011598705 0.07851638 -0.02721725 0.08617663 -0.11872372
0.045150574 0.03386709 0.005595559 0.04994837 -0.06752961 -0.049816594 0.005981315 0.119743854
0.10149254 -0.10222779 -0.009291748 0.03170056 -0.1071797 -0.040862765 -0.023123821 0.082945965
0.12422082 0.09726842 0.054251302 0.019718457 0.0061203144 0.03614644 -0.0770901 -0.04774309
-0.10513831 -0.03578191 0.047356844 -0.111503705 -0.029759381 -0.10518401 0.017001169 -0.062179454
0.051697247 -0.016998066 0.0025302963 -0.07511104 -0.10612985 0.112991914 0.018741686 0.056835756
-0.021783924 0.024914015 0.08999392 0.09381687 0.11149307 -0.0069181793 -0.052900326 0.08071863
0.018987939 -0.09838479 0.009464039 -0.09531626 -0.036882132 0.031360492 -0.10309373 -0.09318363
-0.0052061477 0.06953816 0.061940294 0.03450177 0.07605552 0.028494328 0.047182623 0.10967836
-0.083489254 0.01679857 0.08911447 -0.110537544 -0.08892603 -0.081141286 0.09832159 0.059010893
-0.024616728 -0.046486344 -0.031401463 0.13372578 0.05398849 -0.0638085 -0.0106832925 0.026320402
0.117046446 -0.046059605 -0.049106408 0.00593788 0.11481651 -0.10034103 0.102333054 -0.116838604
-0.11074251 -0.11090645 0.11096273 0.10954452 -0.1049456 -0.036918476 -0.022401795 0.07676418
0.035275623 -0.01427485 -0.057660565 0.10526961 -0.060095947 -0.05091492 -0.059844673 -0.10306306
00000000: f408 66bd 239c dd3d b651 edbd 7e2e 1a3e
00000010: 205e e0bc 944b 1cbd 4204 e7bc fe5f 95bd
00000020: a381 de3d 4220 37bd 61bf c53c 062b d1bc
00000030: 4875 50bd f9d0 dc3c 55d7 f33d 099b d23c
00000040: fc87 033c 9c3d 4fbd 18bb 093d 0794 9abd
00000050: b73f 8e3d 7571 773d 08d8 ccbd ae2c bb3d
00000060: 0820 be3c d068 83bd c0f0 8b3d c857 1fbd
00000070: 4146 e3bd 31ba b23d 566f f9bc 5ce0 d83d
00000080: 7657 813d f980 983d d7b9 52bb b5d7 d5bd
00000090: aea9 d83d 033a 7f3d a490 e63d 8993 f03d
000000a0: 3d67 24bd fc20 33bd 21db 7b3d 5682 e2bc
000000b0: b45e e13b e585 21bd 562d b53b 7ba1 8ebd
000000c0: e38f bd3d e60b 83bd 545c 033e 3001 0f3c
000000d0: 0383 98bd 4342 92bd 6e16 2abd 467f 1c3d
000000e0: 9d63 6dbd f0e6 84bd 882e f1bb 9153 85bd
000000f0: e7a8 023c e70a d8bd b9a7 c03d 2c57 f13d
00000100: 1217 8fbd 68ac d83c 321a d33c 36fb 163c
00000110: e266 adbd 3d61 3bbd 3d1c debd c7b1 b3bd
00000120: a802 b6bd 7296 cb3c fb7f 90bd 9021 f0bd
00000130: 3fbb 35bc 3ede 59bd 68a1 d73b cf8f 8e3d
00000140: d5b4 35bd a1c6 923a 31dd 263c d2ac 2abd
00000150: 3237 dc3d b8f4 ab3d 6ce3 88bc a8fc c83c
00000160: 3b12 adbd 974b d7bd f409 babd 4b94 33bd
00000170: 0b8c 41bd 6e76 12bd 992c e8bd 7ab1 f0bc
00000180: 2182 ac3d 0049 98bd d051 5abd cfc6 72bb
00000190: 8f13 043e 3c46 ca3d 97d0 8ebd acd7 f23d
000001a0: 97b9 c4bd 7f32 863d fed1 b63d c8ec a0bd
000001b0: a478 62bb 3074 dbbd 8e76 67bd 5884 e3bd
000001c0: 889a 083e 984f d43d c28b 883d c6f2 a0bd
000001d0: 0f78 bb3d 8724 103d 422f bdbd 9859 64bd
000001e0: 0a43 78bc c7a1 d6bb c2ce 0dbe 0ccd 833d
000001f0: 327f 86bc dcb1 b3bd 53ff d8bb 7ceb d3bc
00000200: a56e 6ebd 8f7e 1e3d c0c2 11bc cab7 9a3c
00000210: b514 6e3d 904e b13c f1b5 76bd 1026 cdbd
00000220: 1a32 aebd ba63 3f3c e0a0 84bd 113e 123d
00000230: a496 c8bd 658d adbd bf77 9dbc 2796 e3bd
00000240: 1baf ddbd 6945 253d 8d0c b63d 7f08 3ebc
00000250: 32cd a03d b6f6 debc 5f7d b03d 6c25 f3bd
00000260: cfef 383d 38b8 0a3d f35a b73b a996 4c3d
00000270: f74c 8abd 7c0c 4cbd e8fe c33b 443c f53d
00000280: 52db cf3d ce5c d1bd 6a3c 18bc 72d8 013d
00000290: 0881 dbbd b75f 27bd 2b6e bdbc 93df a93d
000002a0: 7c67 fe3d aa34 c73d 9d36 5e3d 9a88 a13c
000002b0: eb8c c83b 4a0e 143d 6ae1 9dbd 428e 43bd
000002c0: c152 d7bd 0d90 12bd 40f9 413d 0e5c e4bd
000002d0: f2c9 f3bc b76a d7bd 0946 8b3c e2af 7ebd
000002e0: 7ec0 533d 873f 8bbc 54d3 253b d1d3 99bd
000002f0: 9b5a d9bd 4e68 e73d 2a88 993c 9ccc 683d
00000300: 3374 b2bc 7a18 cc3c bb4e b83d 0f23 c03d
00000310: 7b56 e43d e5b1 e2bb 03ae 58bd cf4f a53d
00000320: 988c 9b3c f77d c9bd 0e0f 1b3c 2c35 c3bd
00000330: b811 17bd dc73 003d ce22 d3bd 0fd7 bebd
00000340: 5598 aabb 066a 8e3d 1bb5 7d3d ba51 0d3d
00000350: ffc2 9b3d f06c e93c 9142 413d 0c9f e03d
00000360: 6afc aabd 289d 893c a681 b63d 8261 e2bd
00000370: da1e b6bd 672d a6bd d45c c93d 68b5 713d
00000380: 05a9 c9bc 7768 3ebd d29e 00bd 69ef 083e
00000390: 0923 5d3d 08ae 82bd fa08 2fbc e29d d73c
000003a0: 0cb6 ef3d ffa8 3cbd cd23 49bd 8c92 c23b
000003b0: eb24 eb3d 997f cdbd fe93 d13d 1449 efbd
000003c0: f8cc e2bd ec22 e3bd 6e40 e33d e158 e03d
000003d0: b8ed d6bd d437 17bd f883 b7bc 8a36 9d3d
000003e0: 2c7d 103d 0fe1 69bc 7c2d 6cbd 9897 d73d
000003f0: 2b27 76bd 2a8c 50bd b01f 75bd ba12 d3bd

lstm.weight_ih_l1 f4 [256, 64]
-0.048430584 0.10958689 0.091104336 0.08979485 -0.05591334 -0.09850864 4.2090687e-06 -0.12490137
-0.046752088 0.019593325 -0.036496006 -0.08058442 0.096648045 0.08298925 -0.037106827 -0.11864252
0.06310479 -0.047251377 -0.003915647 -0.06415514 -0.039971314 0.09499472 -0.08348143 0.07031594
-0.052677203 -0.12658207 -0.032785848 -0.010208691 0.051342025 0.09117399 0.10206113 0.014504602
0.060905315 0.11083338 -0.021915428 -0.06716679 -0.08578277 -0.14076453 0.1177229 0.11628404
0.07047089 -0.057354778 0.01618314 0.03693431 0.08306661 0.07508158 0.1357979 -0.08365269
-0.04320753 -0.051469866 -0.062481042 -0.04157433 0.14024979 0.099764176 -0.044683304 0.08504012
-0.10620639 -0.078413926 -0.024916563 0.091053 -0.055439252 -0.06819162 -0.03535029 0.114752285
0.023326112 0.062204745 -0.02510938 -0.009386422 0.023260308 0.021638716 0.11321393 -0.11284774
0.121410705 0.004821724 -0.06143044 -0.09972261 0.061024763 -0.111351416 0.07819919 -0.052210614
0.04077717 0.00583039 0.12438473 -0.04038682 -0.11566159 -0.026207522 -0.00532277 -0.004752076
0.09173274 0.029603112 -0.094037466 -0.09419296 0.003377317 0.06047009 0.08713699 -0.07525108
0.024421923 0.10039997 -0.032907963 -0.010046607 0.017700067 -0.0772881 -0.013819666 0.06525392
0.0019566459 -0.088124156 -0.08473199 -0.026430279 -0.0019315681 0.023093367 -0.014341632 0.10159626
0.10726867 -0.054063953 -0.0149373505 0.065876596 0.0056083295 0.11512792 -0.0657089 0.047933158
0.0924941 -0.033349957 0.0020320744 0.13013515 -0.12562671 -0.08454165 -0.041116245 -0.04930947
0.12178122 0.00876899 -0.044230536 -0.014686289 0.06423921 0.0711741 0.08884192 -0.038617067
0.09494073 0.036978982 -0.03870698 0.10173648 -0.017215045 0.097822934 0.10133773 0.017461218
-0.03663372 -0.07194526 0.10139369 -0.08357639 -0.11591404 0.026263373 0.098027356 -0.10179194
-0.04978625 0.066328 0.02789761 -0.11871006 0.039973028 0.055782687 -0.027710974 0.077270046
0.1158808 0.13849808 0.08466623 -0.044129524 -0.033435907 -0.07688232 0.01167335 -0.015633103
-0.11224421 0.07906465 0.08867151 -0.027521573 0.10141427 -0.09506282 -0.06945169 -0.02613605
-0.029480187 0.0997822 0.054606844 0.08096164 0.059536863 0.12662762 -0.08071346 0.029196369
0.09336413 -0.117189854 0.046488985 -0.104936644 0.09337952 -0.119129635 0.041787148 -0.03522068
-0.036127757 0.007937027 -0.052392263 -0.12049662 -0.009296482 -0.018599113 -0.12708795 0.031503268
0.09623833 -0.046053156 0.021514425 -0.025473682 0.07288709 0.021241095 -0.08093864 0.08628164
-0.08191995 0.012090263 -0.0391807 0.082526386 -0.011998124 -0.06753274 0.1095784 -0.08517906
0.0053148507 0.114033185 0.07972066 0.021349197 0.008564768 0.07909017 0.0973555 -0.023271125
0.07446004 0.05480359 0.04388037 -0.10548181 0.08603688 -0.01829947 0.02261454 0.08026439
0.0465446 -0.025337169 -0.0014953191 -0.06592128 0.09831561 0.08194236 -0.075965144 -0.07871011
0.0028095401 -0.034442298 0.12713607 0.017588444 -0.06866803 0.0032917296 -0.0081373975 -0.037406936
0.0796872 -0.10269305 0.08811219 -0.044931628 0.06821465 0.08852604 -0.123956874 0.109759524
00000000: 265f 46bd 176f e03d e994 ba3d 5de6 b73d
00000010: 6305 65bd e6be c9bd a03b 8d36 4acc ffbd
00000020: 1e7f 3fbd 2e82 a03c d67c 15bd 7209 a5bd
00000030: 69ef c53d 45f6 a93d 54fd 17bd d9fa f2bd
00000040: 163d 813d a98a 41bd d44e 80bb c563 83bd
00000050: f6b8 23bd 978c c23d 50f8 aabd ce01 903d
00000060: 0dc4 57bd bb9e 01be 744a 06bd 5a42 27bc
00000070: 044c 523d 6eb9 ba3d 6d05 d13d b6a4 6d3c
00000080: da77 793d 9cfc e23d fc87 b3bc be8e 89bd
00000090: e0ae afbd 9424 10be b418 f13d 5426 ee3d
000000a0: 0b53 903d d8ec 6abd 8192 843c 6e48 173d
000000b0: d41e aa3d 5fc4 993d 9b0e 0b3e 1a52 abbd
000000c0: 61fa 30bd 11d2 52bd 1fec 7fbd d849 2abd
000000d0: a49d 0f3e 2951 cc3d d705 37bd 8429 ae3d
000000e0: bc82 d9bd 7b97 a0bd d21d ccbc ff79 ba3d
000000f0: 4514 63bd 0ca8 8bbd 77cb 10bd 3f03 eb3d
00000100: 6716 bf3c 67ca 7e3d 30b2 cdbc 82c9 19bc
00000110: 678c be3c ad43 b13c b4dc e73d b71c e7bd
00000120: 2da6 f83d 8dff 9d3b 7c9e 7bbd 5e3b ccbd
00000130: 1af5 793d 360c e4bd e626 a03d ccda 55bd
00000140: f605 273d db0c bf3b 6cbd fe3d a66c 25bd
00000150: fcdf ecbd 28b1 d6bc a26a aebb 4eb7 9bbb
00000160: 60de bb3d 3a82 f23c b796 c0bd 3de8 c0bd
00000170: fa55 5d3b 7caf 773d e174 b23d 3d1d 9abd
00000180: 7c10 c83c 809e cd3d 80ca 06bd 869a 24bc
00000190: bbff 903c 3949 9ebd e16b 62bc d9a3 853d
000001a0: 123b 003b 707a b4bd f787 adbd 5084 d8bc
000001b0: ac2c fdba 4d2e bd3c 2af9 6abc b311 d03d
000001c0: adaf db3d 2a72 5dbd cabb 74bc 4fea 863d
000001d0: 14c6 b73b 30c8 eb3d 6392 86bd 8f55 443d
000001e0: 8c6d bd3d f799 08bd 8d2c 053b 2642 053e
000001f0: 4aa4 00be 2c24 adbd 8269 28bd baf8 49bd
00000200: 6f68 f93d cfab 0f3c 142b 35bd c39e 70bc
00000210: d98f 833d bac3 913d c1f2 b53d ee2c 1ebd
00000220: 4970 c23d 4677 173d 368b 1ebd 375b d03d
00000230: 9106 8dbc 6457 c83d 288a cf3d d40a 8f3c
00000240: 3d0d 16bd 0958 93bd 7fa7 cf3d 192a abbd
00000250: 5764 edbd 4926 d73c 91c2 c83d 4b78 d0bd
00000260: abec 4bbd f9d6 873d 8789 e43c 431e f3bd
00000270: c2ba 233d 637c 643d 2002 e3bc c23f 9e3d
00000280: ea52 ed3d 71d2 0d3e 7d65 ad3d 29c1 34bd
00000290: 17f4 08bd 7a74 9dbd 9441 3f3c fe10 80bc
000002a0: 4be0 e5bd a6ec a13d 6999 b53d ec74 e1bc
000002b0: 49b2 cf3d 4cb0 c2bd b03c 8ebd 451b d6bc
000002c0: 6f80 f1bc 9c5a cc3d 6dab 5f3d 37cf a53d
000002d0: eddc 733d acaa 013e 194d a5bd 392d ef3c
000002e0: b135 bf3d 3c01 f0bd 3c6b 3e3d 06e9 d6bd
000002f0: c33d bf3d 3dfa f3bd 0029 2b3d 8f43 10bd
00000300: b3fa 13bd 4e0a 023c 4599 56bd efc6 f6bd
00000310: 4650 18bc 2b5d 98bc 5823 02be 9209 013d
00000320: 9a18 c53d 3ca2 3cbd 053f b03c 2fae d0bc
00000330: d445 953d ce01 ae3c 28c3 a5bd 6eb4 b03d
00000340: a6c5 a7bd 3d16 463c f17b 20bd 9803 a93d
00000350: c893 44bc 9b4e 8abd a46a e03d 5c72 aebd
00000360: 3328 ae3b 3b8a e93d 9644 a33d 83e4 ae3c
00000370: 3e53 0c3c 07fa a13d 5262 c73d 16a3 bebc
00000380: 817e 983d bb79 603d e7bb 333d d906 d8bd
00000390: 1b34 b03d c5e8 95bc 2142 b93c a861 a43d
000003a0: 8da5 3e3d e58f cfbc 95fe c3ba bc01 87bd
000003b0: b259 c93d 65d1 a73d 9d93 9bbd c432 a1bd
000003c0: 4320 383b 5e13 0dbd f52f 023e a415 903c
000003d0: d3a1 8cbd 0fba 573b b852 05bc 0438 19bd
000003e0: 0b33 a33d bc50 d2bd 2a74 b43d 3a0a 38bd
000003f0: 1fb4 8b3d 244d b53d 1add fdbd 9ac9 e03d

lstm.weight_hh_l1 f4 [256, 64]
-0.03773816 0.085293785 0.023835827 -0.057648048 0.09712933 0.015902814 0.036048952 0.026368989
0.127075 -0.117881946 -0.0907536 -0.09910266 0.01424255 -0.05519916 -0.09403328 0.12738518
-0.086859606 0.07167666 0.0915766 0.043449257 -0.0012299304 0.012077486 0.007367082 0.0022784742
-0.031420846 -0.029662585 0.11609036 0.03495109 0.008883855 -0.0249864 0.12577216 -0.11035747
-0.105903044 0.09598494 -0.00333595 0.036071897 0.07383523 0.042522732 0.034724258 -0.05904978
-0.02558493 0.067964904 -0.054252032 0.08760534 -0.10164356 0.0020495495 0.0041300957 -0.0970373
0.011887065 -0.0130407205 -0.058862716 -0.01505032 -0.050327804 -0.027778331 0.0842589 -0.04292883
0.062591076 0.018288631 0.07216752 -0.111751124 0.06807063 -0.09910751 -0.11512197 0.058066547
-0.09380095 -0.058562446 -0.035233267 0.046710037 -0.12893736 -0.06830765 -0.06086324 0.0758362
-0.04722561 0.051696148 -0.0042085643 0.08036872 -0.008369351 -0.050922945 0.06956464 -0.036834497
0.067868225 0.076656096 -0.10602742 0.06679421 -0.050117735 0.014407942 0.10895043 0.08913936
-0.0872076 -0.071232624 0.03788608 0.026330147 -0.0337067 -0.092224 0.102056526 -0.11837775
0.08622184 -0.068054676 -0.026560433 0.07880876 0.11661983 -0.13097309 0.124401756 -0.07122211
-0.010253321 0.05882497 0.107202 -0.06237112 -0.0264107 0.11555053 0.11490961 -0.030428682
0.10017303 0.0015810855 -0.068528764 0.02436335 0.060925014 0.039827865 0.031735186 0.026325732
-0.055123594 -0.1212895 0.12227201 -0.07810201 -0.07483644 -0.021530189 0.0137563795 0.07977399
-0.015987022 -0.02313205 -0.08048879 -0.0063048885 -0.10940465 -0.08598125 -0.06158914 -0.06382433
-0.047192678 -0.09773927 0.008004314 0.09468884 0.087576784 -0.09162669 0.00920796 0.028976586
-0.040005434 -0.044465292 0.049282476 -0.07736543 0.040040243 -0.1090979 -0.07963972 -0.10286701
0.10437083 -0.069687836 0.10310457 0.06915562 -0.10528345 0.11259615 0.042465053 -0.099438116
-0.08202419 -0.10211646 -0.077975415 -0.01556561 0.10851806 0.06306097 -0.026021391 0.01116646
-0.08100068 -0.10368263 0.08388496 -0.055289764 -0.075581245 0.010109308 -0.037915576 0.03107962
0.08404888 -0.08380022 -0.027521584 0.07772416 -0.020432387 0.07344386 0.00649927 -0.118049026
-0.045585483 -0.0073659783 0.07133395 -0.05398791 0.103061505 -0.1330134 0.07695911 0.08360336
0.11467794 -0.010546605 -0.0381812 0.005769716 -0.021175388 0.05907538 -0.08140457 0.05654265
0.07272024 0.10204499 -0.03193489 -0.0036145842 0.04044081 -0.12470247 0.07925973 -0.13411465
-0.042665284 0.029094003 -0.06754648 -0.018729668 0.09205143 -0.002196188 0.05462168 -0.13352312
-0.097256236 0.07151242 0.07859646 0.09398571 0.1315239 -0.07626678 -0.12370768 0.074784875
-0.111156054 -0.026996145 -0.110721916 -0.12350269 -0.08267579 -0.0435465 -0.060248617 0.12417135
-0.011602976 -0.031665333 0.009887318 -0.089174874 0.0974802 0.056747474 0.03508855 -0.025848124
-0.07754612 -0.09130016 0.0070427954 -0.055478748 0.09876319 0.022071842 0.06891155 0.011746466
0.073463604 0.0062536956 0.0018954645 -0.021821495 0.012059403 0.07767609 -0.10127947 0.101688065
00000000: 5493 1abd 82ae ae3d 5a43 c33c 5c20 6cbd
00000010: beeb c63d 9e46 823c 11a8 133d c703 d83c
00000020: f31f 023e 176c f1bd 06dd b9bd 56f6 cabd
00000030: 9659 693c 8418 62bd 8594 c0bd 4371 023e
00000040: 73e3 b1bd 36cb 923d 838c bb3d d9f7 313d
00000050: 9e35 a1ba a6e0 453c 9067 f13b 7452 153b
00000060: 25b3 00bd f3fe f2bc c8c0 ed3d e028 0f3d
00000070: 978d 113c 47b0 ccbc 6bca 003e 1903 e2bd
00000080: b2e3 d8bd c193 c43d f49f 5abb 20c0 133d
00000090: ed36 973d 512c 2e3d 063b 0e3d 2fde 71bd
000000a0: 7d97 d1bc 2f31 8b3d 6137 5ebd 6e6a b33d
000000b0: 802a d0bd bc51 063b c155 873b 7ebb c6bd
000000c0: f7c1 423c bfa8 55bc 081a 71bd 9e95 76bc
000000d0: 8724 4ebd 628f e3bc ee8f ac3d 24d6 2fbd
000000e0: c02f 803d 0ad2 953c 91cc 933d c6dd e4bd
000000f0: 9d68 8b3d e1f8 cabd 11c5 ebbd 30d7 6d3d
00000100: b61a c0bd 2ddf 6fbd c250 10bd 0653 3f3d
00000110: 2808 04be e2e4 8bbd bc4b 79bd 0250 9b3d
00000120: a46f 41bd 57bf 533d ffe7 89bb 5b98 a43d
00000130: 9a1f 09bc 9494 50bd e877 8e3d c5df 16bd
00000140: 7ffe 8a3d dffd 9c3d e724 d9bd 67cb 883d
00000150: 4148 4dbd 4a0f 6c3c 6721 df3d b28e b63d
00000160: e699 b2bd 69e2 91bd 6f2e 1b3d 52b2 d73c
00000170: 0910 0abd f0df bcbd 0303 d13d 0970 f2bd
00000180: 1395 b03d 4060 8bbd 4495 d9bc 7d66 a13d
00000190: 61d6 ee3d cf1d 06be 59c6 fe3d e6dc 91bd
000001a0: 8cfd 27bc 74f2 703d b98c db3d dc78 7fbd
000001b0: 415b d8bc c2a5 ec3d bb55 eb3d 9245 f9bc
000001c0: 8427 cd3d 6d3c cf3a cf58 8cbd a695 c73c
000001d0: 828c 793d 8b22 233d c1fc 013d 10a9 d73c
000001e0: 47c9 61bd a166 f8bd bf69 fa3d f2f3 9fbd
000001f0: d943 99bd 1460 b0bc 7062 613c 8c60 a33d
00000200: 37f7 82bc 6d7f bdbc 4fd7 a4bd 3d99 cebb
00000210: 8c0f e0bd f016 b0bd e544 7cbd 55b6 82bd
00000220: 1c4d 41bd 872b c8bd 8724 033c 39ec c13d
00000230: 755b b33d c6a6 bbbd fcdc 163c 4e60 ed3c
00000240: bddc 23bd 3d21 36bd 6cdc 493d c471 9ebd
00000250: 3d01 243d b86e dfbd 261a a3bd f0ab d2bd
00000260: 60c0 d53d 7fb8 8ebd 7d28 d33d 76a1 8d3d
00000270: d99e d7bd cf98 e63d d6ef 2d3d 36a6 cbbd
00000280: 4cfc a7bd 6f22 d1bd 93b1 9fbd e606 7fbc
00000290: b73e de3d 1c26 813d d02a d5bc 87f3 363c
000002a0: afe3 a5bd 8f57 d4bd e1cb ab3d 8577 62bd
000002b0: 57ca 9abd 83a1 253c 5d4d 1bbd b09a fe3c
000002c0: d221 ac3d 739f abbd f274 e1bc d82d 9f3d
000002d0: d261 a7bc bc69 963d d4f7 d43b b0c3 f1bd
000002e0: d8b7 3abd 4e5e f1bb 8917 923d 6d22 5dbd
000002f0: e911 d33d aa34 08be bd9c 9d3d 3d38 ab3d
00000300: 45dc ea3d abcb 2cbc e463 1cbd e30f bd3b
00000310: 0278 adbc 07f9 713d 70b7 a6bd 4499 673d
00000320: 59ee 943d f7fc d03d 29ce 02bd a9e2 6cbb
00000330: 43a5 253d 0264 ffbd ed52 a23d 5a55 09be
00000340: cbc1 2ebd 8c56 ee3c cf55 8abd f66e 99bc
00000350: 7685 bc3d eced 0fbb fcba 5f3d 49ba 08be
00000360: 472e c7bd 1b75 923d 2ef7 a03d 947b c03d
00000370: 34ae 063e c231 9cbd 745a fdbd d028 993d
00000380: c9a5 e3bd 0527 ddbc 2cc2 e2bd faee fcbd
00000390: ed51 a9bd d15d 32bd 41c7 76bd 8c4d fe3d
000003a0: 691a 3ebc 82b3 01bd 6bfe 213c 51a1 b6bd
000003b0: b3a3 c73d 0a70 683d 03b9 0f3d 72bf d3bc
000003c0: 80d0 9ebd 94fb babd 40c7 e63b af3d 63bd
000003d0: 5b44 ca3d 02d0 b43c 8021 8d3d 4074 403c
000003e0: 1674 963d cdeb cc3b 3c71 f83a fec2 b2bc
000003f0: cd94 453c a414 9f3d 9c6b cfbd d541 d03d

lstm.bias_ih_l1 f4 [256]
0.054273445 -0.11093999 -0.08121582 -0.07035304 0.015058691 0.051090926 0.022226913 -0.0726775
0.066743106 -0.039122548 0.022591146 0.09161379 -0.0092980815 -0.027062813 0.09150027 0.11921871
-0.072159104 0.020689048 -0.09472633 0.114012435 -0.090446636 0.021380082 0.04921351 -0.023842026
0.013180211 0.059322882 0.022582823 -0.0371332 -0.01765787 0.005238406 0.1096581 -0.038795177
-0.07939412 -0.034504842 -0.010860086 0.010517354 -0.030191202 0.015205491 0.031094015 0.050086003
-0.085616864 0.09179494 -0.11913545 0.11005418 0.05054022 0.12412395 0.05942328 0.0033772155
0.055060986 -0.122669846 0.1042584 -0.12244872 0.051779557 0.040620286 0.009130696 -0.104218155
0.11172436 -0.002838223 -0.04109556 0.006013249 0.04257763 -0.093486756 0.04969767 0.0393593
-0.011503505 0.046501245 0.08657593 -0.048374534 -0.07630343 -0.117710404 0.06132966 0.026581116
0.08458818 0.03183275 0.033013925 -0.052927528 0.05289677 -0.02688785 -0.10306792 0.042889483
-0.074764825 -0.06459057 -0.047101267 0.03496874 0.06725427 0.07083967 0.030685052 0.07157438
-0.10768323 -0.11114851 0.12572308 -0.10790733 0.1137568 0.03331116 0.104431815 -0.0054147644
-0.10859284 0.041863877 0.100027084 -0.05591021 0.04055372 -0.08397229 -0.00792322 -0.1027428
-0.05595058 0.083163016 -0.00055738696 0.010557863 0.09519473 -0.12073628 -0.06546872 0.080551766
0.10956831 -0.053293444 0.053061973 0.10830869 -0.00992722 -0.080656946 -0.058947485 -0.007376677
0.12601668 0.0064370935 -0.13438137 0.10771263 -0.088841096 -0.00109231 0.011969832 -0.0876282
0.019924115 -0.003354967 -0.06930297 0.10295041 0.04711219 -0.015706873 0.017350461 0.083472304
-0.086606435 0.027087564 -0.04191894 0.09033153 -0.034347877 0.10008028 -0.028800502 0.016010577
-0.051927235 0.086857334 -0.06742345 0.13269384 -0.0005207595 -0.010886175 -0.059238162 -0.0013854788
0.040549424 0.09635577 -0.044361576 -0.07282782 -0.057837088 0.13235182 -0.05449876 0.008669517
-0.012439576 0.061988432 -0.08217669 -0.034684308 0.020869352 0.014559714 -0.09265807 -0.11349784
-0.09422583 -0.018448744 -0.07361063 0.1166744 0.02864236 0.043845743 -0.13075322 -0.026817605
-0.0010848719 0.13107584 -0.019481674 -0.027195456 -0.042797823 -0.062581085 0.026040917 -0.07375142
-0.07522096 -0.06997758 0.039146524 -0.06314535 0.0900143 0.0077035865 -0.023469176 -0.005881716
0.10569386 -0.051131 0.07991414 0.0049966127 -0.010526446 0.09026909 -0.08409291 0.019662112
0.11997269 -0.054597598 0.04986496 0.059254732 0.058752403 -0.008311059 -0.06140671 0.05760593
0.029868746 -0.018619267 0.102437936 -0.08271817 0.023179604 -0.029464763 -0.07428871 0.09761953
7.072734e-05 -0.07614637 0.06588997 0.1003493 -0.042195633 -0.03239867 0.018940425 0.050109204
0.12754945 0.13257971 -0.1253234 -0.036029156 0.08297723 0.09741666 -0.12848836 0.09391353
-0.029420245 0.012105742 0.019042548 0.031818762 -0.026526583 -0.103826314 0.114619724 0.0015139419
-0.09480323 0.018042201 0.06757218 0.036465395 0.12483242 -0.08179943 0.08926654 -0.05115429
-0.100842625 -0.111250445 0.050688874 -0.056613296 0.035808593 -0.016549498 -0.035602696 0.101640746
00000000: d54d 5e3d 8134 e3bd 7b54 a6bd 4115 90bd
00000010: bab8 763c b844 513d 3715 b63c f1d7 94bd
00000020: 9cb0 883d f73e 20bd 1111 b93c 03a0 bb3d
00000030: fb56 18bc d5b2 ddbc 7e64 bb3d f028 f43d
00000040: 27c8 93bd 147c a93c e1ff c1bd 5a7f e93d
00000050: 163c b9bd 4825 af3c 1b94 493d 5a50 c3bc
00000060: d0f1 573c 8dfc 723d 9dff b83c fb18 18bd
00000070: 3da7 90bc efa6 ab3b 6d94 e03d b1e7 1ebd
00000080: 6299 a2bd f354 0dbd 81ee 31bc fb50 2c3c
00000090: 8a53 f7bc 7420 793c e0b8 fe3c fb26 4d3d
000000a0: e557 afbd fcfe bb3d 49fd f3bd 1664 e13d
000000b0: 4303 4f3d b334 fe3d d365 733d 4654 5d3b
000000c0: a187 613d 543a fbbd 6e85 d53d 65c6 fabd
000000d0: cd16 543d 7561 263d ea98 153c 5470 d5bd
000000e0: becf e43d 7b01 3abb d153 28bd ca0a c53b
000000f0: e265 2e3d fc75 bfbd c98f 4b3d 3837 213d
00000100: 3279 3cbc 1778 3e3d b94e b13d 6024 46bd
00000110: f944 9cbd 2712 f1bd cf34 7b3d a4c0 d93c
00000120: 913c ad3d 0f63 023d 9c39 073d 89ca 58bd
00000130: 49aa 583d e943 dcbc 4615 d3bd e2ac 2f3d
00000140: 4d1e 99bd 1048 84bd 42ed 40bd 623b 0f3d
00000150: 9bbc 893d 6414 913d 385f fb3c 9795 923d
00000160: 0689 dcbd d4a1 e3bd 8dbd 003e 85fe dcbd
00000170: 53f9 e83d 4871 083d 59e0 d53d 566e b1bb
00000180: ec65 debd 7579 2b3d 00db cc3d 1b02 65bd
00000190: a81b 263d aaf9 abbd 65d0 01bc d16a d2bd
000001a0: 6f2c 65bd 5f51 aa3d 9b1d 12ba e3fa 2c3c
000001b0: 74f5 c23d 9544 f7bd 7714 86bd 53f8 a43d
000001c0: 5a65 e03d 3a4a 5abd 8357 593d f2d0 dd3d
000001d0: c7a5 22bc 782f a5bd eb72 71bd 0db8 f1bb
000001e0: 840a 013e 41ee d23b 459b 09be 7098 dc3d
000001f0: 52f2 b5bd d72b 8fba 1d1d 443c 6a76 b3bd
00000200: e637 a33c 02df 5bbb b7ee 8dbd aad7 d23d
00000210: b6f8 403d b3ab 80bc 8e22 8e3c 87f3 aa3d
00000220: b75e b1bd bde6 dd3c 32b3 2bbd bdff b83d
00000230: 5cb0 0cbd e4f6 cc3d 08ef ebbc 9d28 833c
00000240: a7b1 54bd 42e2 b13d 4e15 8abd e5e0 073e
00000250: 9483 08ba ed5b 32bc b7a3 72bd f498 b5ba
00000260: 2717 263d 2d56 c53d 7cb4 35bd c126 95bd
00000270: 95e6 6cbd 3c87 073e 173a 5fbd 970a 0e3c
00000280: 5dcf 4bbc 95e7 7d3d 414c a8bd 2211 0ebd
00000290: 34f6 aa3c de8b 6e3c 84c3 bdbd 8e71 e8bd
000002a0: 79f9 c0bd d221 97bc 2cc1 96bd fdf2 ee3d
000002b0: 62a3 ea3c 9897 333d 2ce4 05be 98b0 dbbc
000002c0: 4332 8eba bf38 063e 0898 9fbc 01c9 debc
000002d0: c54c 2fbd 832a 80bd c353 d53c fc0a 97bd
000002e0: 720d 9abd 6850 8fbd 1b58 203d 5952 81bd
000002f0: 6b59 b83d 5e6e fc3b 6e42 c0bc 69bb c0bb
00000300: 0676 d83d bd6e 51bd 06aa a33d a0ba a33b
00000310: 1d77 2cbc 00df b83d e738 acbd 7012 a13c
00000320: 3eb4 f53d bba1 5fbd 333f 4c3d 17b5 723d
00000330: 5ca6 703d 1c2b 08bc 9a85 7bbd 32f4 6b3d
00000340: 4daf f43c 6f87 98bc fbca d13d 2568 a9bd
00000350: 27e3 bd3c 1660 f1bc ae24 98bd c0ec c73d
00000360: 7453 9438 a1f2 9bbd 52f1 863d ef83 cd3d
00000370: 54d5 2cbd 78b4 04bd f328 9b3c 4f3f 4d3d
00000380: 539c 023e fac2 073e c754 00be 4f93 13bd
00000390: f7ef a93d 6382 c73d 7492 03be bd55 c03d
000003a0: ba02 f1bc 2957 463c 1eff 9b3c 6454 023d
000003b0: 474e d9bc e4a2 d4bd bfbd ea3d 766f c63a
000003c0: 3228 c2bd 3dcd 933c 4863 8a3d bd5c 153d
000003d0: 24a8 ff3d 7686 a7bd 60d1 b63d 2987 51bd
000003e0: 9486 cebd 46d7 e3bd 239f 4f3d 58e3 67bd
000003f0: 08ac 123d d092 87bc 22d4 11bd 0629 d03d
