model/lstm_model_bknb_sr.pth (torch, 209874 bytes, 9 tensors)

lstm.weight_ih_l0 f4 [256, 5]
00000000: 4046 d03b 9cce 473d a268 d13d 0246 d13d
00000010: a05d 8c3d b86b b1bc 3879 2d3d f077 553c
00000020: 18c8 5e3d 8cd0 c6bd b414 313d 80f8 623b
00000030: 92f7 a9bd 243a a4bd 8cfe 9ebd c0bd 123b
00000040: e81c 6c3d b80a 093d eeae d53d 8867 303d
00000050: 5298 8ebd f641 bb3d b483 36bd b427 d23d
00000060: 046b e23d f049 bcbd f0fc 51bc 58fa 8dbd
00000070: a4de a43d 2860 8dbc fc69 c5bd 88b1 e6bd
00000080: a0f7 d23c 584f 9bbc d880 e9bc 6c8e 9c3d
00000090: 800c 5abb 60d8 a43b b4e6 3fbd f844 30bd
000000a0: 5a05 fabd 2482 883d 60d2 74bd d0e9 79bc
000000b0: 80c8 aeba 8284 fd3d 64d1 d6bd b285 c43d
000000c0: 98c7 f4bc 926c 93bd ea75 cdbd c87c 1abd
000000d0: b088 a03c f819 c83c 6066 2fbc 9454 b23d
000000e0: 525f bd3d 7cd7 e5bd 4888 94bc 804e 0bbc
000000f0: d613 f43d e45e 163d 0c23 3abd d438 2e3d
00000100: a8b1 94bd ec11 fbbd fa58 ec3d f460 4ebd
00000110: c449 2ebd e8da d9bc 16c6 b1bd 4480 e33d
00000120: 003f e7ba c0bb e6bc 50a7 753d d013 dcbc
00000130: 6852 6b3d ea99 dfbd 64b8 ec3d b256 b13d
00000140: da08 c43d f4fd abbd 4835 cabd cc09 3a3d
00000150: a061 b9bb 080d 503d 801f 9fbc f086 32bc
00000160: 0477 b5bd a4cf 5fbd b2e9 b9bd 58cd 893c
00000170: 4c30 493d e4eb 083d 4430 4e3d 54ee 13bd
00000180: dab0 b33d 6077 3ebd 840a e93d 1022 16bd
00000190: 7890 273d 7c56 b3bd a488 b9bd 20a6 7cbd
000001a0: 108d a0bd a062 ea3b d0af abbd 107c 4abc
000001b0: 8aa5 b33d 406e 893d 7ca6 acbd aa69 a93d
000001c0: 14f8 cfbd 125e 83bd dcf1 23bd 0833 dabd
000001d0: a2c7 9e3d c0fc d23b 2222 833d 504e 95bd
000001e0: 707f c5bc cc51 123d b672 e73d 00ca 713a
000001f0: 4e36 f63d 24af 65bd 804f 1d3b ca96 e33d
00000200: 78e7 c53c 8475 2abd c0d6 93bc 14ad 0dbd
00000210: 9ece b33d c4bd 7a3d f4a0 b6bd 8417 62bd
00000220: 160e cf3d 2238 c23d 7c53 4cbd ec57 f5bd
00000230: ea03 ddbd f8ac 95bc 741c 17bd c869 64bd
00000240: 0ce2 17bd 8cb0 95bd 4e6f b93d 0ab2 cdbd
00000250: 6e1a 9c3d a2e9 ebbd 70b9 72bd 785a 8cbc
00000260: 5e5f d33d 980c f1bc e0bb 80bc e84f b2bd
00000270: 48c1 00bd f845 8a3d 60a9 7b3d a0ce c53b
00000280: ba21 fb3d 6ac9 b7bd c028 66bc c85f 973c
00000290: c877 b93d 203f 83bd 3073 733d b0f0 af3c
000002a0: 988d e03c e68e f23d 88e7 a23c e03c de3b
000002b0: 903d 1b3d 82e6 c23d a0b7 e73b 3caf 843d
000002c0: b83b 653d 1028 45bc 4016 ebbc 1a10 80bd
000002d0: e8e2 1bbd a061 b8bd 7cec 38bd e68e e93d
000002e0: 4a93 843d c00d a2bc 9ca6 6b3d bcf0 73bd
000002f0: de66 acbd a4ee 76bd 68f6 fa3c 2845 a2bc
00000300: 2094 40bc 90b7 983d 807a f7bd dce4 0e3d
00000310: 6437 9cbd 9045 71bd 9415 49bd 801d 8c3a
00000320: 4a4f b5bd 7c54 73bd 6aa0 c2bd fc50 44bd
00000330: 5c49 513d 9205 e5bd 18ad 09bd e4ac 6d3d
00000340: 82c2 863d e056 adbd cad4 a4bd 18d6 12bd
00000350: 6e93 8d3d 76fa c23d c0a9 46bd f479 75bd
00000360: 609c 0bbc c8de 42bd 6815 ce3d 3ca0 6a3d
00000370: 082d f33c dcca e43d cc9f 5d3d f0e2 f93d
00000380: b421 f23d b210 b0bd 24ea 74bd 284c b03d
00000390: 7463 f53d 6c0d 27bd 6818 ea3d 8c9d 47bd
000003a0: 321e 913d 90b0 16bc 9ae6 cbbd fc75 d5bd
000003b0: b6b8 e7bd 90f0 d33d c0db 05bd 90b1 703d
000003c0: 185f c83c a005 f43b 10a3 20bd 989a e2bc
000003d0: 7827 c4bd d810 efbd 2c79 243d 2e37 8cbd
000003e0: d869 e23c d037 3fbc 680c 25bd fcfc dc3d
000003f0: d810 503d 2434 19bd 3448 26bd a8a4 d2bc
0.0063560307 0.048781022 0.10225035 0.10218431 0.06853795 -0.02165781 0.04235193 0.013029084
0.054390043 -0.09707746 0.043232635 0.003463298 -0.082991734 -0.08018902 -0.07763395 0.0022390932
0.057644755 0.033457488 0.10433756 0.043067485 -0.069626465 0.091434404 -0.044559196 0.10261479
0.11055568 -0.0919379 -0.012816653 -0.06932515 0.08050278 -0.017257765 -0.096393555 -0.1126433
0.025752842 -0.018958732 -0.02850382 0.07644352 -0.003327161 0.0050306767 -0.046850875 -0.043034524
-0.12208052 0.06665447 -0.05977094 -0.015253499 -0.00133349 0.123787895 -0.10489157 0.09595813
-0.02988033 -0.071984425 -0.10032256 -0.037716657 0.019596428 0.024426445 -0.01070556 0.08707538
0.092466965 -0.11222741 -0.01813139 -0.008502603 0.11917846 0.03671159 -0.04544358 0.042534664
-0.07260448 -0.12259278 0.115404084 -0.05038543 -0.042550817 -0.02659364 -0.0868036 0.11108449
-0.0017642677 -0.028165698 0.059974015 -0.026864916 0.057451636 -0.10918029 0.11558607 0.08659114
0.09572001 -0.08398047 -0.09873444 0.0454195 -0.0056573898 0.050793678 -0.0194242 -0.010896429
-0.08860591 -0.05464138 -0.09077777 0.016821548 0.049118325 0.033428088 0.050339 -0.03611596
0.08773966 -0.046500564 0.11378959 -0.03665358 0.04090926 -0.0875673 -0.09059265 -0.061681867
-0.078394055 0.0071528703 -0.08383143 -0.01235868 0.087718084 0.06710482 -0.08430192 0.08272107
-0.10154739 -0.06414427 -0.040025577 -0.10654265 0.07752921 0.0064388216 0.06402995 -0.072903275
-0.024108618 0.03572254 0.11301176 0.0009223521 0.120220765 -0.05607523 0.0024003685 0.11112745
0.024158224 -0.041615978 -0.018046737 -0.03458889 0.087796435 0.06121613 -0.08917418 -0.055198207
0.101101086 0.09483363 -0.049884304 -0.119796604 -0.10791762 -0.018270954 -0.03689237 -0.055764943
-0.03708081 -0.07309064 0.09054433 -0.10043724 0.076222286 -0.11519171 -0.05925888 -0.017132983
0.10320924 -0.02942495 -0.015714586 -0.08706647 -0.031434327 0.06751627 0.061440825 0.0060365945
0.12262292 -0.089739636 -0.0140478015 0.01847829 0.090560496 -0.064085245 0.059436023 0.021477073
0.027411267 0.11843662 0.019885793 0.006782159 0.037900507 0.09516622 0.0070714504 0.06478736
0.055965155 -0.012033477 -0.028697133 -0.06253071 -0.03805819 -0.090029955 -0.045147404 0.11404209
0.06473406 -0.019781947 0.057531938 -0.059555754 -0.08418058 -0.06028618 0.030635074 -0.019808367
-0.011754066 0.07456887 -0.12083912 0.034886226 -0.076277524 -0.05890423 -0.049092844 0.0010689944
-0.08853014 -0.059406742 -0.09503253 -0.047928795 0.05109535 -0.11182703 -0.03361234 0.05802621
0.06580068 -0.08463836 -0.08048399 -0.035848707 0.069128856 0.09520428 -0.04850173 -0.059930757
-0.008521169 -0.047575742 0.10062677 0.057281718 0.029684559 0.11171505 0.054107472 0.12201488
0.118228346 -0.085969344 -0.059793606 0.08608276 0.1198186 -0.040784284 0.114304364 -0.048734233
0.070858374 -0.009197369 -0.09956093 -0.10422894 -0.11314528 0.10348618 -0.032680273 0.058763087
0.024459407 0.0074469596 -0.03921801 -0.027661607 -0.095778406 -0.116731346 0.04015462 -0.06846462
0.02763836 -0.011671022 -0.040295035 0.107904404 0.050797313 -0.03740324 -0.040596202 -0.02571328

lstm.weight_hh_l0 f4 [256, 64]
00000000: 407d a33d d8ac 05bd 30da 3b3d d62b aabd
00000010: 50df af3c 6cbd 31bd 8e1e df3d 74fd 893d
00000020: e0cb c0bb 383a b1bd 6826 ff3d 9c86 ab3d
00000030: 40c1 f13c 7874 833c c02b 023b 408d 6ebd
00000040: c091 623c 1234 c83d 8cef 1c3d 24e4 d13d
00000050: 0010 62ba 320f 97bd 5074 48bd d848 2d3d
00000060: e403 e9bd 7c17 053d 64da c43d bc51 2e3d
00000070: 5adf 8ebd f01d 813d 10ec 99bd fc6d 8d3d
00000080: 5acb 8a3d e8b5 d23c 80f1 cb3b a415 b1bd
00000090: 2e34 933d 00c8 c33c 90e6 a43c 808c c5bb
000000a0: f673 89bd 48b1 f93d c853 f53d 405f 1ebd
000000b0: 582d 49bd c80a e6bd 609a d53d f2be 843d
000000c0: cee4 aabd 405e a63c 6a95 c03d e2b2 cfbd
000000d0: 000d 183b e829 2a3d f84c 8ebd a24f ff3d
000000e0: 7eb2 eabd 38f5 2a3d 8a09 a1bd 3c80 e13d
000000f0: acaa e43d 3edf 9fbd ba88 a13d 86cb 8f3d
00000100: 081a eabd c81e 723d 7a2f f4bd ba48 82bd
00000110: a88a b5bd 603b dfbd 289e 54bd 803e e53b
00000120: da51 aa3d 583b b8bc 54f3 73bd a09d 493d
00000130: f0e6 993d 0c38 2f3d 006e 71bd d8e0 9abc
00000140: cc3d c4bd 90c6 13bd 1059 edbc 88fb cc3d
00000150: 902d d43d e813 103d 3e31 813d 502f ff3c
00000160: e8c5 3b3d 564f e0bd 3c7d 863d 2066 823c
00000170: 402c 233c c0bc ce3d 0c43 3a3d 5a3e ca3d
00000180: 1209 e33d f484 783d 94dd 973d dc6b f8bd
00000190: 886f cdbd 1269 cdbd 9861 d43c fc79 65bd
000001a0: 98e6 cf3d 145d bd3d 2295 eabd 4e4c ea3d
000001b0: 1407 d7bd 88e8 c3bd 3cfd 5f3d dc50 133d
000001c0: 52fd 8c3d 4065 52bc 301c 0c3d 8c61 aa3d
000001d0: d8ed 79bd 9213 b63d 0a18 9c3d a027 5ebd
000001e0: b601 8f3d cce9 1c3d 682b c9bd c673 823d
000001f0: 0093 d6bd a4ba be3d 22e6 95bd 08c4 be3c
00000200: 58bb dc3d f01f d1bc d09e ab3d ac96 fe3d
00000210: fe3b f9bd c08d ffbc 8891 b43c 008e d8b9
00000220: 7cf8 3b3d ecfa 493d 4493 d13d 5829 b23d
00000230: 126c dbbd 647c dcbd 6085 c13b cca0 eabd
00000240: 4017 1dbd e8c3 fc3d b228 f7bd a69e a23d
00000250: aeed c93d c41c 3dbd fafd a13d f6d1 84bd
00000260: 341f b03d 589f acbd 7059 a33c 0ca9 e63d
00000270: c4e6 833d 5472 a2bd 2c1a 853d 18bd 56bd
00000280: c0f4 543c 302c 36bc 80ea 8fbc c0d9 343c
00000290: 362a 9e3d 40ae 88bb 34bc c1bd 7483 123d
000002a0: d04f 933c 7000 5ebd 9a1f 87bd dc51 b3bd
000002b0: 5852 b13c 8651 f03d 3062 cd3c 6026 dcbb
000002c0: 5076 bb3c 804d 57bc 00eb 843d 1446 5d3d
000002d0: 0a94 eb3d 623f a93d f6c4 8b3d 40ae 293b
000002e0: 8807 4c3d 3ccd e0bd be7d eabd 4093 253c
000002f0: f89e aa3c d204 d53d e0dd cfbd e0d8 bbbb
00000300: f05e 3b3d 9ca1 51bd 2ae7 a93d 68ec e7bd
00000310: 5a9f 99bd e060 633c 1a54 a7bd c4f3 f03d
00000320: 0896 a2bc 9022 3fbc 407f 293d 00dc 4d3b
00000330: 56f1 cc3d 16ac 9d3d 088e 2d3d f081 81bc
00000340: 40a9 813b b8ca d7bd 6e13 93bd ac6b d8bd
00000350: dc7d 533d f89c 233d acec ebbd 2032 db3d
00000360: 7058 67bd 3835 d2bc c0ec be3d b0d8 17bd
00000370: 88c3 ecbc 88fd 82bc 00b0 8b39 be51 d0bd
00000380: f626 df3d 0040 daba 4c41 da3d 808e a03b
00000390: b091 2dbc f03d 58bc e00a f73d 92ea 86bd
000003a0: f4d2 7fbd e8b3 493d b297 91bd 5c28 14bd
000003b0: 94f1 9fbd dade ff3d f807 513d 6a5e ecbd
000003c0: 3ced 17bd 30ae 8dbd 6c71 b03d dae9 8fbd
000003d0: 681a 22bd f2d6 fd3d 3672 87bd f80c c3bd
000003e0: 0042 8a3b 48cb e53c e436 f1bd f06d 1e3d
000003f0: 302a 19bc 4c5e 01bd 8cc3 16bd 1a56 fabd
0.07982874 -0.03263554 0.045862377 -0.08309142 0.021468788 -0.043393537 0.108945 0.067377955
-0.005883679 -0.086536825 0.12458497 0.08375284 0.029511094 0.016046748 0.0019862503 -0.058240175
0.013828695 0.097755566 0.038314387 0.102485925 -0.00086236 -0.07375945 -0.04893905 0.042305797
-0.11377695 0.0324931 0.09611967 0.042558417 -0.06976195 0.06304538 -0.075157285 0.069057435
0.067770675 0.025721505 0.0062238574 -0.08646706 0.07187687 0.023899078 0.020129472 -0.006028712
-0.06711571 0.12192017 0.11978871 -0.038665056 -0.04911551 -0.11232525 0.10429835 0.064817324
-0.08344422 0.020308614 0.094034985 -0.10141541 0.0023201108 0.04154387 -0.069482744 0.12466361
-0.11459826 0.041737765 -0.078631476 0.11010787 0.111653656 -0.07806252 0.07887407 0.07021241
-0.11430746 0.059111387 -0.11923118 -0.06361528 -0.08864337 -0.10899997 -0.051908642 0.006995976
0.08316393 -0.022489235 -0.059558228 0.04922259 0.07514751 0.04277806 -0.058942795 -0.018906042
-0.09582099 -0.036078036 -0.028973132 0.10008913 0.10360253 0.035175234 0.0630822 0.03115049
0.045843035 -0.10952632 0.06566855 0.015917838 0.0099592805 0.10094595 0.045474097 0.09875174
0.110857144 0.06067367 0.074153095 -0.121299475 -0.100310385 -0.10029806 0.025925443 -0.056024536
0.10151404 0.09246269 -0.11454226 0.11440335 -0.10499397 -0.09565836 0.054684862 0.035965785
0.068842545 -0.012841523 0.03420657 0.08319387 -0.06101784 0.088904515 0.076217726 -0.054237008
0.06982748 0.038308904 -0.09822732 0.06369738 -0.10477257 0.093129426 -0.07319285 0.023286834
0.107779205 -0.025527924 0.083799005 0.12431082 -0.12169646 -0.031195521 0.022042051 -0.0004130453
0.04589127 0.049311563 0.10233167 0.08699292 -0.10713972 -0.10765913 0.005905792 -0.11456451
-0.03835225 0.12342054 -0.12068309 0.07940416 0.09859787 -0.04617001 0.0790977 -0.06485359
0.085997015 -0.0842883 0.019940108 0.11262712 0.064404994 -0.079319626 0.064991325 -0.052426428
0.012997806 -0.011118934 -0.017567873 0.011038244 0.07722895 -0.004171163 -0.09459725 0.035769895
0.017982394 -0.054199636 -0.065978244 -0.08755848 0.02164571 0.11734299 0.025071234 -0.006718442
0.022883564 -0.013141036 0.06490135 0.05402191 0.115028456 0.082640424 0.06824677 0.0025891215
0.04981187 -0.10976645 -0.11449765 0.010105908 0.020827755 0.1040131 -0.10149741 -0.0057326406
0.045744836 -0.051179513 0.08296044 -0.11324388 -0.07501097 0.013878077 -0.08170338 0.117652446
-0.019846931 -0.011665955 0.04138112 0.0031411648 0.10006969 0.076988384 0.04237178 -0.01580903
0.0039569438 -0.105367124 -0.0718144 -0.10567412 0.0516337 0.03994462 -0.11519751 0.1070292
-0.056480825 -0.025660142 0.093225 -0.037071884 -0.02890183 -0.015990034 0.00026643276 -0.10171841
0.10896103 -0.0016651154 0.10656986 0.0048998 -0.010593817 -0.013198361 0.12062621 -0.065877095
-0.06245704 0.049243838 -0.07109012 -0.036171302 -0.07809749 0.124936774 0.05103299 -0.115414456
-0.03709148 -0.06917989 0.086153835 -0.070270255 -0.039575964 0.12394513 -0.06613581 -0.09523958
0.0042192936 0.028051034 -0.11778048 0.038679063 -0.009348437 -0.03158407 -0.03680758 -0.12223454

lstm.bias_ih_l0 f4 [256]
00000000: b05c bc3c 489a cb3c 8248 aabd 206e cbbb
00000010: 8207 e8bd e432 143d 4248 b2bd f065 813d
00000020: 7cd8 503d 2677 b3bd 00bd 49ba 7c46 77bd
00000030: b614 d5bd f81c c5bd 3c49 bb3d d0be 423d
00000040: 3476 45bd ce50 a93d 5842 af3d 5cea 1ebd
00000050: 7cc8 313d 18f8 813c c856 f4bc 64ed 94bd
00000060: 1cd2 26bd accb 9b3d 62ad 84bd 5221 ebbd
00000070: 7845 7fbd 90bf 893d 009d aabc da82 b3bd
00000080: ea8a a53d 7a73 f63d 6026 d33b f424 c43d
00000090: f829 e1bd 8021 2a3b 248c c13d a0a9 1cbc
000000a0: c4cb f83d 54e9 86bd 3c04 50bd 00fd 243a
000000b0: a027 d73d 18fc e93d 405a a53b b4d8 123d
000000c0: 4826 80bc 60dc c63c d423 0d3d e006 e2bd
000000d0: 4029 70bb 36ae 88bd 9c72 c2bd ca29 c2bd
000000e0: 44d9 1ebd b684 a73d b443 7ebd b8cb 6bbd
000000f0: 6cae 36bd bc4b 14bd 3856 d6bd 6261 93bd
00000100: 504d 773c baf3 8a3d b059 163c 1024 01bc
00000110: bee2 fd3d 16ca eebd f08d d3bc f60f b5bd
00000120: b4b5 623d 3424 58bd 50ac 773c d247 8abd
00000130: 1ae0 ccbd 38e3 a23c a072 df3c 6221 af3d
00000140: 907d 193d 80bd 5b3d 6c40 8fbd 40db 7bbc
00000150: 2480 4d3d 3090 673c b2e2 edbd c267 e33d
00000160: 809f f1bd 76e3 e53d 8081 c9bd a069 0ebd
00000170: 2233 9cbd 68a0 c5bd a8a4 6e3d 0666 c5bd
00000180: 8861 d43c b2cb fd3d 2801 f6bc fca5 f83d
00000190: e260 ba3d 3c61 e83d 7aca b0bd 3002 823c
000001a0: d8d1 11bd 708d d3bd b06a 263c e013 4abd
000001b0: 0611 813d 4204 c93d 4c05 fc3d 7c3b f5bd
000001c0: be22 cebd 0831 b73c 50c2 b23d b495 bb3d
000001d0: e42f afbd 4257 edbd b09f ee3d c032 973b
000001e0: 289d f6bd 4032 f33d 38de b33d 8021 8a3a
000001f0: e01f eabd d86b 06bd bc77 d23d c0f1 edbb
00000200: a8fe a53c 98e8 273d 3af8 d93d e0af bb3b
00000210: d2d3 a33d 26b3 a1bd 18b9 34bd c60d 973d
00000220: 1ad7 c63d c057 5c3c a054 8b3d a041 c53b
00000230: d814 c9bd 5ae8 b7bd e885 d83d a01a ab3b
00000240: c8de 3dbd 9409 553d d4c2 0ebd 1805 8cbd
00000250: 0cef 8d3d 286d 88bd c888 e4bd be7b 81bd
00000260: 54f3 753d f2c3 ffbd 20f4 f4bd caa1 eebd
00000270: d844 f93d d0b5 193c 8485 81bd e0eb f1bd
00000280: dedc 85bd 32a6 c93d 8c6e 3c3d 12ba a63d
00000290: 48de c83c e8f4 8a3d c000 e5bb cca6 1fbd
000002a0: e089 92bc 9277 e7bd cac2 963d a6c8 f23d
000002b0: 80e6 413c 6a0b ab3d 9023 51bc 4091 6cbc
000002c0: 4630 cbbd 6c4c 0fbd 4c66 4abd a096 973d
000002d0: 20c5 0ebd fcd0 90bd 20bf 903c 2c84 0f3d
000002e0: 4852 81bd 4215 ca3d 7830 743d 0013 71bb
000002f0: 32be f63d 34ab f8bd 904d a2bd c068 aebb
00000300: 4ce3 2cbd 36a3 8c3d b2de cb3d 4a37 d93d
00000310: d4da 693d ce25 8dbd 5c14 2dbd 7497 c0bd
00000320: 28fb 8bbc 0054 283b 8c0e 81bd 00f0 ee39
00000330: 08c5 9f3c 7416 38bd 688c 98bc 2ccc 63bd
00000340: 2088 55bc 58b4 fdbd e0f7 c53d e402 aebd
00000350: 8c4f 4c3d 1abd b7bd 142c ae3d 8038 ce3a
00000360: 90a2 c5bd 18fd 67bd 4e60 883d 1242 ea3d
00000370: 1a74 91bd 3203 cd3d 9408 4fbd 64e8 d23d
00000380: 0c55 703d 0aef cc3d 2ca1 48bd 70f5 75bc
00000390: de10 b43d 903e 72bd 1e24 9f3d 1c07 103d
000003a0: a07a ffbb 00b5 56ba 004f 693b aee9 fcbd
000003b0: 0875 eabd 527c a4bd f835 ff3c 96fd c93d
000003c0: 809b 8abd 3a36 c73d a8e9 e5bd f886 473d
000003d0: 001d 42bb b0dc 53bc 84b5 783d 6055 60bd
000003e0: fc4f 1cbd 2288 9e3d 8064 95bb 1670 bebd
000003f0: 1034 fbbc b061 a7bc 1c0e a6bd 0877 013d
0.022993416 0.02485384 -0.08314611 -0.0062081963 -0.11329557 0.036181346 -0.08705188 0.06318271
0.050987706 -0.0876296 -0.00076957047 -0.060369954 -0.10404341 -0.09624666 0.09144828 0.047545254
-0.04820843 0.082673654 0.08557576 -0.03879772 0.043404087 0.01586537 -0.029826537 -0.07271841
-0.04072772 0.07607207 -0.06478383 -0.11480965 -0.06232211 0.06725991 -0.020826817 -0.08765192
0.080831364 0.12033744 0.0064437836 0.09577361 -0.10994333 0.002595991 0.09450558 -0.009561926
0.1214824 -0.065874726 -0.05078529 0.00062938035 0.10505605 0.11425036 0.005046159 0.035851195
-0.015643254 0.024275005 0.034457996 -0.110364676 -0.003664568 -0.06673853 -0.09494516 -0.09480627
-0.03878142 0.081796095 -0.062076285 -0.05756733 -0.044599935 -0.03620504 -0.10465664 -0.07196309
0.015094116 0.067847684 0.009176657 -0.007882133 0.12396763 -0.116596386 -0.025824517 -0.08840935
0.055349067 -0.0527689 0.015116766 -0.0675198 -0.100036815 0.019883737 0.027276337 0.08551289
0.03747326 0.05364752 -0.06994709 -0.0153720975 0.050171033 0.014133498 -0.11615504 0.111037746
-0.11798 0.11225025 -0.09839153 -0.0347687 -0.0762694 -0.09649736 0.058262497 -0.096386
0.025925413 0.123923674 -0.030029848 0.12141034 0.0910051 0.11346671 -0.08632369 0.015870184
-0.035600513 -0.103297114 0.010157272 -0.04933536 0.06302075 0.09815265 0.12305698 -0.11974236
-0.1006522 0.022362247 0.087284684 0.09159413 -0.08554056 -0.11588909 0.11651552 0.004614204
-0.12041694 0.11874819 0.08782619 0.0010538548 -0.11431861 -0.03281769 0.10276744 -0.007261485
0.020263031 0.040993303 0.106430486 0.005727753 0.07999386 -0.07895498 -0.04412183 0.07375674
0.09708996 0.013448656 0.0680325 0.006019786 -0.09818429 -0.089798644 0.105724156 0.00522168
-0.04635504 0.052011088 -0.03485377 -0.06836909 0.0693036 -0.06661445 -0.111589015 -0.0632243
0.06004651 -0.124885455 -0.11960626 -0.116519526 0.12171334 0.009381726 -0.06324294 -0.11812568
-0.06536268 0.09846152 0.046003863 0.08140959 0.024520054 0.067849934 -0.006988615 -0.03897743
-0.01788801 -0.11302103 0.07361372 0.11854677 0.011834741 0.083517864 -0.012764826 -0.014438927
-0.09921317 -0.03498499 -0.049413964 0.07401776 -0.03485596 -0.070711106 0.01766926 0.03503816
-0.06314522 0.09867336 0.059616536 -0.0036785007 0.120479956 -0.121420294 -0.0792495 -0.0053225458
-0.042208955 0.068670675 0.09954585 0.10606249 0.057093456 -0.06891976 -0.042255744 -0.094038874
-0.017087534 0.0025684834 -0.06301603 0.0004557371 0.019503132 -0.044943288 -0.018621638 -0.055614635
-0.013032943 -0.123879135 0.09666419 -0.08496645 0.04988055 -0.08971615 0.08504501 0.0015733391
-0.09650147 -0.056637853 0.06658994 0.11438383 -0.07102223 0.10010375 -0.05054529 0.10298231
0.058674857 0.100065306 -0.04898183 -0.01501213 0.0879228 -0.059141695 0.07770561 0.03516303
-0.0077966005 -0.0008190423 0.0035600066 -0.12349258 -0.11448103 -0.08031525 0.031153664 0.09862821
-0.067679405 0.0972714 -0.11226207 0.0487127 -0.0029619336 -0.012931034 0.06071998 -0.05476892
-0.038162217 0.07740809 -0.0045590997 -0.092987224 -0.030664474 -0.020432323 -0.0810816 0.031607658

lstm.bias_hh_l0 f4 [256]
00000000: 64cb a13d 38a7 85bd 0c2b 38bd 14c3 a73d
00000010: 1cc2 753d 6049 d7bd 546b 4cbd a8c3 4bbd
00000020: fc95 4abd 3a7c 9d3d d841 25bd dae2 983d
00000030: 9c03 9dbd 504d fe3d a0a9 b6bb 4c2c 02bd
00000040: f889 25bd fc8e b33d 0ad8 f2bd 2047 c8bb
00000050: 6ea6 dcbd 10e3 dabc 2016 09bd 0c7d 32bd
00000060: 4834 ee3d 703c acbd c2a3 ae3d 00a3 96bb
00000070: 3c48 b6bd ec5c d93d b200 cb3d 8c35 783d
00000080: 684e f3bc e0b4 463d 70ef 31bc e625 80bd
00000090: f024 493d 2eb7 c7bd f446 babd 7412 5f3d
000000a0: ac9b 23bd d28d e9bd 40c7 dc3c 04b2 03bd
000000b0: d68c c73d 007d 53bb 48a2 21bd 6020 0d3d
000000c0: d0bc 3abd b6e6 e5bd d082 333d ce48 983d
000000d0: 5ab3 a33d 1619 a4bd 58ff f7bc 62c7 85bd
000000e0: cef9 e6bd f003 3e3d a272 b63d 001a 173a
000000f0: 3463 f9bd 26b0 cb3d a0d7 91bc 0206 eb3d
00000100: 4897 ad3d 18c5 cd3d 5450 cbbd 0c79 603d
00000110: e06f 2ebc eed3 80bd 3e30 b4bd a6f1 a1bd
00000120: a079 a5bb 206d c03b 5254 e53d 3a04 bf3d
00000130: 08e9 a93d e025 0ebd 66c1 d3bd dc3d b83d
00000140: 9005 453d 4099 15bd 3ae5 f8bd 807a 283c
00000150: 54a1 17bd dc88 43bd 8a93 e0bd 063d d2bd
00000160: c055 27bd c02f f43c 4cdb 3dbd e039 8c3b
00000170: 9ee9 8abd 4403 853d 40ff b33b 24e5 0c3d
00000180: 060f a43d c8eb 69bd f41d 5b3d f4d2 e4bd
00000190: f881 f5bc 806a 2b3c 1006 eabc 2a48 c6bd
000001a0: 282b adbc 4646 b33d cc7a 243d 760a aabd
000001b0: fc7a 9bbd 7c6e db3d 222d 8fbd 2669 be3d
000001c0: 94e6 0abd 14db 813d e063 8bbb e077 fcbb
000001d0: e265 92bd ba33 ec3d ac41 03bd 7e61 d1bd
000001e0: 3674 f1bd 48b0 8bbc 46f9 fcbd 8678 fc3d
000001f0: 0033 07ba 1460 98bd 5244 fe3d b0ed 1bbd
00000200: bcf7 dc3d 6830 2c3d 28fa bdbd fad5 8bbd
00000210: 40c8 0ebc ec7e f7bd e067 fa3b c0e4 563d
00000220: f26f a8bd e457 703d 9455 76bd c08b 253c
00000230: de95 f1bd e6d2 a53d 189d 8c3d 28ac 32bd
00000240: c2b6 a23d 7eaf bb3d 1482 c8bd 1c67 013d
00000250: 8c7a 763d befc dbbd 40a6 96bc f2c1 893d
00000260: 364f c2bd 88a1 04bd 3041 f93d 8ca1 cc3d
00000270: 6008 433c f2ff d9bd a67c 8d3d 30ac 123c
00000280: 44f0 d4bd 5202 aebd 80c3 5dbd bed9 aebd
00000290: 20ab c43c 447b e23d 2875 dd3d bc42 693d
000002a0: aefd f63d b693 f6bd c499 04bd c0bb 203b
000002b0: a2c3 b63d 5aa3 e9bd 4674 ccbd d00a bb3d
000002c0: a458 2ebd 8c82 c73d 2647 8a3d f4a2 18bd
000002d0: fe30 a23d 5096 7abc 18b5 ffbd b8a8 6c3d
000002e0: 24d3 c53d e038 2cbc 0090 853b f812 ccbc
000002f0: a2a3 bebd ac85 5f3d 5803 b3bc 627d ef3d
00000300: dae2 ff3d 9846 1e3d 2048 1a3c 3099 26bc
00000310: c2c5 fdbd c84d 7c3d f45f 78bd de94 883d
00000320: 10eb 4ebd f07d a13c e0dd 2b3c 787e bbbd
00000330: 028b ad3d 48f8 f73c 349b 973d 9e85 943d
00000340: 247c 13bd 42a8 edbd 4c04 2cbd 609a 503c
00000350: 9043 d93c 6c4d a4bd 308c 3e3d dea1 963d
00000360: 366b a13d a0ed 113d 5429 fa3d 30c7 f9bd
00000370: 72df aabd 400f aabd c8b1 cbbc 145b 053d
00000380: f65e f2bd d412 883d 50d6 a03c 50d9 3e3d
00000390: 78a0 cfbc ec30 21bd f89c ddbc bc57 92bd
000003a0: 0c90 e33d 80eb a13b 4681 a9bd 1286 aa3d
000003b0: f281 f5bd 4008 12bc 60f2 93bb d4d3 5f3d
000003c0: 0efa b53d a0d7 14bd 8c5f 61bd c892 24bd
000003d0: 6c0d 473d c8c8 c0bc 44e5 a6bd 40bc ed3c
000003e0: d004 0c3c b003 183d 0612 df3d c077 e9bd
000003f0: 8095 94bb 8024 38bb 302f 643c 80fb 1bbd
0.07900122 -0.06526035 -0.044962928 0.08191505 0.05999957 -0.10512042 -0.049907044 -0.04974714
-0.049459442 0.0768971 -0.040345997 0.074651435 -0.07666704 0.1241709 -0.00557442 -0.031780526
-0.04041478 0.087675065 -0.118576124 -0.0061119944 -0.107739314 -0.0267196 -0.033468366 -0.043576285
0.116310656 -0.08409965 0.08527328 -0.004597068 -0.08900496 0.106134266 0.09912242 0.06059794
-0.029700473 0.04851234 -0.010860309 -0.062572286 0.049107492 -0.09751736 -0.090955645 0.054460958
-0.039943382 -0.11404003 0.026950479 -0.03215219 0.09743659 -0.003227055 -0.039461404 0.034454703
-0.045590222 -0.11225645 0.043825924 0.074357614 0.07993193 -0.08012597 -0.030273125 -0.0653217
-0.11278115 0.046390474 0.08908583 0.0005764067 -0.121771246 0.09945707 -0.017803013 0.11475755
0.0847612 0.10047358 -0.09927431 0.05480294 -0.01064679 -0.062904224 -0.08798264 -0.07907419
-0.005049899 0.0058723837 0.111977234 0.09326978 0.082964 -0.03470409 -0.10339622 0.08996174
0.048101008 -0.036523104 -0.121530965 0.0102831125 -0.03701909 -0.04773794 -0.10965641 -0.102655455
-0.040853262 0.029807925 -0.046351716 0.00427936 -0.0678284 0.064947635 0.0054930747 0.034398213
0.08010678 -0.057109624 0.053495362 -0.111730486 -0.0299692 0.010462403 -0.028567344 -0.09681733
-0.021138743 0.08753638 0.04015617 -0.083027765 -0.07591817 0.107144326 -0.0699103 0.09297399
-0.033911303 0.06340614 -0.0042538494 -0.00770472 -0.07148339 0.115333036 -0.03204505 -0.10223673
-0.117897436 -0.01705183 -0.12352233 0.123276755 -0.0005157441 -0.074402004 0.12415375 -0.038068473
0.10789439 0.04203835 -0.09276229 -0.06827922 -0.0087147355 -0.12084755 0.0076417774 0.052464247
-0.08224477 0.05867757 -0.060140207 0.01010412 -0.11796163 0.08096866 0.06865901 -0.043621212
0.079450145 0.09164332 -0.097904354 0.031592473 0.060175464 -0.10741566 -0.018389821 0.06726445
-0.094877645 -0.03238061 0.12170637 0.0999175 0.011903852 -0.10644521 0.069085404 0.0089521855
-0.103973895 -0.08496536 -0.05414152 -0.08537625 0.02400738 0.11058667 0.108133614 0.05694841
0.12060104 -0.120398924 -0.032373205 0.002452597 0.08924033 -0.1140811 -0.09983115 0.09132922
-0.042565003 0.09741697 0.06751852 -0.03726478 0.07919501 -0.015294626 -0.12485713 0.05777809
0.096594125 -0.010511607 0.004076004 -0.024911389 -0.09308554 0.05457084 -0.02185218 0.11693837
0.124944404 0.038641542 0.00941661 -0.010168359 -0.12391235 0.061597615 -0.060638383 0.06669019
-0.05051714 0.019713372 0.010489911 -0.091549814 0.08473779 0.030269757 0.074026495 0.07252048
-0.03600706 -0.11604358 -0.041996285 0.012732118 0.026521474 -0.080225796 0.046520412 0.073550925
0.07881777 0.035627007 0.12214914 -0.12196195 -0.083434 -0.0830369 -0.024865046 0.032557562
-0.118345186 0.06644216 0.019633442 0.046593964 -0.025345072 -0.039353296 -0.027052388 -0.0714564
0.11111459 0.004941404 -0.0827661 0.08326353 -0.11987676 -0.0089131 -0.0045149773 0.054645374
0.08885585 -0.03633845 -0.05502276 -0.040179044 0.048596784 -0.02353324 -0.08149198 0.029020429
0.008546069 0.03711289 0.108921096 -0.113997936 -0.0045344234 -0.0028097928 0.013927266 -0.038081646

lstm.weight_ih_l1 f4 [256, 64]
00000000: 0094 803b 502b f4bd 9c71 413d 2c3d fd3d
00000010: 44c6 f2bd 5c88 073d 522e e7bd 327a a2bd
00000020: 68a2 b3bc b075 efbd aeae 8b3d 18ad af3c
00000030: 5600 d23d 805c 553b 3ed3 debd f0b4 763c
00000040: 4047 f13c f00e 753c 30b2 6c3d 802c 35bd
00000050: c856 b33d a445 4ebd 74b1 b6bd 1c6a 09bd
00000060: e462 843d d049 83bc 54df 5b3d 583c c0bd
00000070: 0a79 e5bd 4841 eebc d091 c4bc 0aec f8bd
00000080: dcd8 7c3d 9eef adbd c03f ddbd 7017 75bd
00000090: 4865 e7bd 7ce2 463d dcf1 f8bd 32b8 bebd
000000a0: 1894 d13c 30ff 66bd 6023 94bb 103e b4bd
000000b0: 563f eabd 6cb9 24bd 4a01 ed3d e024 043c
000000c0: f082 a4bd 0046 e23d a032 31bc c811 c0bc
000000d0: 1483 6a3d a00d 563c 2eb4 dcbd ae32 d83d
000000e0: ac4b 07bd d0ec 80bd f08c cdbd 50cc 2f3d
000000f0: 3c01 09bd e4ae 2dbd 8057 9fbb 90af 0cbc
00000100: 0020 0fbc 905a f33c 6c46 203d c88e f8bc
00000110: 98fb 0f3d a8ea ea3c b82c 3c3d 0039 1ebc
00000120: 4a2e a2bd 88e7 b1bd 8096 f43c 24ee 02bd
00000130: 7a2b 803d c8bc ce3c 542a b13d 8866 f13c
00000140: 8074 bebc 8cc4 323d 5e3c b5bd c0f1 023b
00000150: 800f 0f3b ec4e 943d 421a ed3d 1022 41bc
00000160: 94a2 cbbd f442 863d 6a00 bd3d 98e5 a83d
00000170: cada cabd b0e2 543d ae37 cabd 86db d9bd
00000180: 8ece d6bd 80e5 efbb 081b f2bd c60d aabd
00000190: 3eee dc3d 1a71 8d3d 8048 963d 38fd e5bc
000001a0: cc2e 1a3d 22b4 a7bd 1495 e03d 20e8 ca3d
000001b0: 8627 f5bd 04f2 34bd c025 e1bb 24b0 1d3d
000001c0: b8a9 c4bc 984d 31bd 80f2 b2bc b235 933d
000001d0: b08d 453d e883 37bd a6f5 8b3d 9a31 ccbd
000001e0: 442c 7e3d 509e 80bc 0448 d83d 1a06 f7bd
000001f0: 0054 f93b 9606 80bd a8c6 d33c 124a a2bd
00000200: 62a9 9ebd 380a a9bd e811 60bd b021 c93d
00000210: 800f 88bd 80dd ea3b 30a2 08bd 90af d63c
00000220: b4bb 0c3d 3640 ef3d 9c92 413d ce86 b1bd
00000230: c053 75bc 40e9 823c 1c7d 5ebd a2bd f0bd
00000240: b89d e43c 4c30 0c3d e0ae 9abb a455 0a3d
00000250: 0839 9ebc e0d4 bbbc 32ea cdbd 3a51 80bd
00000260: 22bf 9b3d 6047 ecbc d0f2 1cbc d818 d13d
00000270: d0b9 4f3c 8861 debd 5e03 eebd 8c06 e8bd
00000280: 86b1 8cbd 00a8 a13b a43d e9bd dc26 be3d
00000290: c06d 82bc 606b e3bd 5ee8 c03d 2814 d93c
000002a0: 329f 90bd d469 d8bd 486f a9bd 1e59 8d3d
000002b0: 4015 01bc 20c3 5c3d 487b b5bc 60ed b33d
000002c0: 44ac 0bbd 008a b33a 408c 9cbd 147f c3bd
000002d0: 304c 5ebd 8814 933c 08db 043d 60a1 743c
000002e0: 20b3 d83b 6082 443d 82a7 843d 884c a7bc
000002f0: 6833 8f3c f008 13bc 3090 debc 94e3 7cbd
00000300: 5042 b9bc e808 4ebd 50d4 d53c c42f 79bd
00000310: 78d4 983c f489 103d b02f 02bc aeb9 b03d
00000320: 78b8 61bd 46eb 85bd 08cd 19bd 94c3 643d
00000330: f000 a2bc 801c 20bd 68f4 dbbd 1082 c43c
00000340: 9c62 aa3d 58ba c8bd 48bc a83d 0211 d53d
00000350: 7c39 03bd b8aa d8bd 387f b4bc 564c d6bd
00000360: ce95 ff3d d461 4ebd e619 c53d 5ee7 c6bd
00000370: 3827 c2bc 0aa2 82bd 606c cabb e050 a23c
00000380: e02a e1bd c83f 563d 2c6b 333d e602 c6bd
00000390: 10e3 87bd 9639 da3d f0e8 debc 34b0 80bd
000003a0: 0889 d4bd 209d ed3b 80a1 9e3c ac8a e5bd
000003b0: fc34 cfbd 98cc ffbd 4403 8ebd a018 773c
000003c0: 9a83 823d 42e9 ffbd be0f eabd 2a07 a73d
000003d0: d8cc a3bc 1a64 8d3d 5c32 c2bd bef0 fabd
000003e0: 0814 21bd 9c29 c73d 8234 8fbd 6854 dc3c
000003f0: 4034 113d 80ff ce3a a48c 09bd d86e dbbc
0.003923893 -0.11922324 0.047227487 0.12365183 -0.118542224 0.033089027 -0.11288132 -0.07933463
-0.021928027 -0.11692369 0.06820427 0.021444842 0.1025397 0.0032556355 -0.10880135 0.015057787
0.02945292 0.014957175 0.05778712 -0.04423189 0.087567866 -0.050359383 -0.08920565 -0.03354846
0.064641744 -0.016026407 0.05367978 -0.0938651 -0.11204727 -0.029083863 -0.02399531 -0.12154396
0.06173025 -0.08492969 -0.10803175 -0.059836805 -0.11298615 0.048555836 -0.12155506 -0.09312476
0.025583312 -0.05639571 -0.0045208186 -0.088009 -0.114378616 -0.040215895 0.115725115 0.008065432
-0.08032787 0.11048508 -0.010815293 -0.023445979 0.057253912 0.013064772 -0.10776554 0.105565414
-0.03303115 -0.062951684 -0.10036647 0.042919457 -0.033448443 -0.042403117 -0.0048627257 -0.008586779
-0.008735657 0.02970627 0.03912966 -0.03034152 0.035152048 0.028676346 0.045941085 -0.009657145
-0.07918985 -0.08686739 0.02985692 -0.03196539 0.062582925 0.025236502 0.086506516 0.029467836
-0.02324891 0.043644473 -0.08849405 0.001998052 0.0021829307 0.07241616 0.11577274 -0.011787906
-0.09943119 0.06555739 0.092285946 0.082469165 -0.09905012 0.051974 -0.09873901 -0.10637574
-0.10488616 -0.0073210597 -0.11821562 -0.08303408 0.107876286 0.06906338 0.07338047 -0.028074846
0.037642285 -0.081886545 0.109659344 0.099075556 -0.11970429 -0.044176117 -0.006870955 0.03849806
-0.02400671 -0.04328689 -0.021844149 0.07187976 0.048230827 -0.04480353 0.06833963 -0.09970398
0.062053934 -0.01570049 0.10560611 -0.12061711 0.0076088905 -0.06251256 0.025851563 -0.07924284
-0.07747151 -0.08253902 -0.054704577 0.098208785 -0.066435814 0.007167518 -0.0333578 0.026206762
0.034358695 0.11682169 0.04725896 -0.0866829 -0.014973581 0.015980363 -0.054318532 -0.117549196
0.027907237 0.034225747 -0.0047205538 0.03377308 -0.019314304 -0.022928655 -0.10054435 -0.06265493
0.07604815 -0.028842628 -0.009579375 0.10209817 0.0126785785 -0.10858446 -0.11621736 -0.11329374
-0.068697974 0.0049333572 -0.1138871 0.092847556 -0.015921474 -0.111044645 0.094193205 0.026498869
-0.07061614 -0.1056706 -0.08273178 0.069017634 -0.007878602 0.053897023 -0.022153512 0.0878551
-0.034099832 0.0013697743 -0.07643938 -0.095457226 -0.054271877 0.017954126 0.032435447 0.014931053
0.0066131502 0.047975898 0.06477262 -0.020422235 0.017480567 -0.008974299 -0.027168363 -0.061740473
-0.022614628 -0.050301462 0.026102215 -0.06083657 0.018656 0.035287812 -0.00794594 0.086291656
-0.055107564 -0.065390155 -0.03754905 0.05585058 -0.019775838 -0.03908968 -0.10739976 0.0239878
0.083195895 -0.09801167 0.08239037 0.104036346 -0.032037243 -0.10579437 -0.022033319 -0.10463779
0.12479745 -0.050386265 0.0962408 -0.097120985 -0.023700342 -0.06378563 -0.00617747 0.019813955
-0.10994506 0.05230692 0.04380338 -0.096685216 -0.066351056 0.10655515 -0.027210683 -0.06283608
-0.10377699 0.007251397 0.019364119 -0.1120809 -0.10117528 -0.12490195 -0.069342166 0.015081555
0.06372757 -0.12495662 -0.11428784 0.08155663 -0.019995138 0.069038585 -0.094822615 -0.12252949
-0.039325744 0.09724733 -0.06992437 0.026895717 0.03545022 0.0015792698 -0.03358139 -0.026786253

lstm.weight_hh_l1 f4 [256, 64]
00000000: b4c5 103d c2a2 bdbd f8d3 f8bc e826 b63d
00000010: 36f7 98bd ce23 94bd 6cbd 9c3d daa2 813d
00000020: 000b f63d c803 463d e07a 423c 7a8e 96bd
00000030: 9033 d83d a21c ffbd 54db 173d 26b4 d9bd
00000040: a00a 1dbc 567a b2bd 100c 093c 5093 683d
00000050: 389c cebd a05a ebbc a019 94bc f462 53bd
00000060: 6009 913b c6fa ce3d c8c8 803c 6848 063d
00000070: 98fe 7f3d 4ec5 a9bd 2a6d dabd 72e7 9ebd
00000080: bcc0 dabd d899 b33d 8a40 c4bd 4865 a1bc
00000090: 14df 6ebd 5032 64bc 4848 8f3c 003a d3b9
000000a0: 803b b7ba 805c 62bd 80ba bebb f8a9 e8bd
000000b0: 1677 c43d 9abb d1bd 38b6 5a3d 72b1 d03d
000000c0: 00d9 a33d 00f4 1f3d be23 af3d 1015 85bd
000000d0: 40cb 1abc da50 8b3d feb2 a73d f88a c93d
000000e0: f44a 7d3d c4cd 2abd d6a0 ffbd c494 293d
000000f0: d0e3 7fbd 4067 1f3d 5eb2 febd 0894 57bd
00000100: e468 b4bd 4e1a d5bd 30d1 e6bc 28b9 87bd
00000110: c6b5 d53d 7cfc 1e3d 801b 05bd 64f9 a8bd
00000120: f2c8 f23d 00d3 5cbc 1c96 d73d 20c5 e33b
00000130: 40fd ba3d 5843 b7bd 802b 04bb c2c8 82bd
00000140: 503c 463d 5206 bcbd 4083 403d c002 433d
00000150: f02e 5fbc 58cd bb3d 34e0 74bd 048f c43d
00000160: 40db c5bd c0e1 bdbc 1c4a 36bd 8cd7 0b3d
00000170: 8a02 95bd 283f d6bd f0cb 3dbc 3a76 c63d
00000180: 3430 cd3d 00c8 f439 d075 75bd 1032 f8bc
00000190: 90d7 babc 20c8 c63d 5811 86bd 56b7 d13d
000001a0: 789f 243d 5266 9abd e800 e23d 727e a83d
000001b0: 0cb6 abbd 40a8 b7bb 38cf 31bd 5499 103d
000001c0: e2ce d93d 2465 bfbd 2031 a5bb 708c 9ebd
000001d0: d864 a8bd 584e b33d 9a48 c9bd b8ec 5fbd
000001e0: 3cdb 913d b0a6 ea3c d056 b7bd 985a eb3c
000001f0: d09c a3bd dc60 a4bd ba4e c83d 66d7 8d3d
00000200: e0ea 77bc 58a0 813d cac2 e1bd 607a 263c
00000210: 1258 cd3d 5ced 653d 50de 70bc 08f9 453d
00000220: 605c 9a3b 6c7a d23d a446 b43d 92e9 f4bd
00000230: fc18 67bd 8037 c23c 04d3 59bd 2cf9 ca3d
00000240: 16d1 933d d0a8 cf3d 38be 3c3d 2ea3 dabd
00000250: 82fd c7bd 1466 ccbd cc68 263d 845f 8cbd
00000260: a02d 74bc f075 11bd 5021 b03c 4ef0 bc3d
00000270: 1489 61bd 9c1d fbbd c811 c5bc 80ff 1a3b
00000280: 8e67 bfbd 30b3 61bd de9c c93d 98e4 23bd
00000290: 6030 35bc d0f0 323d 8698 c93d 806a 283c
000002a0: aa0c fc3d 3c12 e9bd 760c 9cbd 4c86 48bd
000002b0: e848 023d b40c be3d 284d 83bd 88af 893d
000002c0: 8e17 853d f4ce 333d 4043 31bc 5c87 1d3d
000002d0: 48b7 d13c 2055 88bb ac9c f9bd a04f f8bb
000002e0: dc9a 493d 90a6 cd3d c067 0abc 0c3a d43d
000002f0: 5e51 e5bd b809 7a3d f8a2 853c 4011 c3bd
00000300: b830 a6bd 7838 6a3d 32ef e43d dcc3 263d
00000310: 2022 8fbb 062f d4bd b6ad 8e3d 0e06 ddbd
00000320: 58a6 b1bc 668d 8f3d 48f4 3f3d 4898 2dbd
00000330: 78ce 49bd 0ca7 503d b29a ca3d 28da 133d
00000340: 48cd 51bd 98a3 3a3d ac58 303d 180d 073d
00000350: 60b1 673d 9496 0ebd 0ce6 07bd 5049 97bd
00000360: 007a c339 80bf cebc 504f ab3c e6df 9bbd
00000370: ec24 da3d a004 a6bb 4235 a03d 1cfc 7e3d
00000380: 0cab cc3d 505d 7bbc 5800 53bd 1c60 333d
00000390: 38d6 713d f86d e33d d818 e5bc e206 e83d
000003a0: 1097 f63c 2043 9d3d 7cc9 e93d c0a4 69bb
000003b0: 8824 fa3d e0b5 ffbd 82f0 d8bd b8c2 8bbc
000003c0: 0aba dcbd e0f8 b2bd 5042 55bd 1a72 c2bd
000003d0: 6a23 a43d fa6e c6bd f06a 38bd 44c9 4d3d
000003e0: a082 86bd 00f6 7e3a 98e2 a63c d688 e83d
000003f0: 70e6 14bd 8035 d13c b485 193d 0839 c7bc
0.035344794 -0.09259559 -0.030374512 0.088941395 -0.07469027 -0.07233392 0.07653317 0.063298896
0.12013817 0.04834345 0.011870116 -0.07351394 0.1055671 -0.12456633 0.037074402 -0.10630064
-0.009585053 -0.0871474 0.008364692 0.056781113 -0.1008839 -0.028729737 -0.018078625 -0.05160804
0.0044261664 0.10106425 0.01572074 0.032783896 0.06249866 -0.08289586 -0.10665353 -0.077589884
-0.106812924 0.08769578 -0.09582622 -0.019701615 -0.058318213 -0.013928011 0.017490521 -0.0004028827
-0.0013979524 -0.055263996 -0.0058205724 -0.11360544 0.09593026 -0.1024086 0.053396434 0.10190095
0.08000374 0.039051056 0.08551739 -0.06498158 -0.009447873 0.068025306 0.08188437 0.09840959
0.06183906 -0.04170014 -0.12481849 0.04140164 -0.06247312 0.038916826 -0.124363646 -0.052631408
-0.08809069 -0.10405408 -0.02817592 -0.066271126 0.10435061 0.038815007 -0.03249693 -0.082506925
0.118547335 -0.013478041 0.10526678 0.0069509894 0.09130335 -0.08948392 -0.002016753 -0.06385948
0.048397362 -0.09180893 0.04700017 0.047610044 -0.013622031 0.091700256 -0.05978413 0.095975906
-0.09660959 -0.023178935 -0.04450427 0.03414111 -0.07275875 -0.10461265 -0.011584267 0.09690519
0.1001896 0.00046688318 -0.059926808 -0.03029731 -0.022807866 0.097061396 -0.06546277 0.10240047
0.040191144 -0.07539047 0.11035329 0.082272425 -0.08384332 -0.0056047738 -0.04341051 0.035302475
0.10635163 -0.09345463 -0.0050412565 -0.0774163 -0.082223594 0.08755177 -0.09828301 -0.054669112
0.07121894 0.028643936 -0.08952105 0.028729722 -0.07988894 -0.08026287 0.09780641 0.069258496
-0.015131682 0.06329411 -0.11023481 0.010161012 0.10026564 0.056134567 -0.014701441 0.048333198
0.004710719 0.10277256 0.08802536 -0.119586125 -0.05642031 0.023708105 -0.053179756 0.09910807
0.07217614 0.1013962 0.046079844 -0.10675655 -0.0976515 -0.09980407 0.040627286 -0.06854156
-0.014903456 -0.035512865 0.02150026 0.09225522 -0.05506237 -0.12261507 -0.02405633 0.0023650825
-0.09345923 -0.055102527 0.09844373 -0.040012926 -0.011058897 0.043686688 0.09843545 0.010279298
0.12307103 -0.11380431 -0.07619564 -0.0489562 0.03180781 0.09279767 -0.06411201 0.06722933
0.06498633 0.043898538 -0.010819256 0.038459167 0.02560009 -0.0041605383 -0.12188086 -0.0075778514
0.04921995 0.10041535 -0.0084475875 0.10362634 -0.1119716 0.061044425 0.016313061 -0.095247746
-0.08114761 0.05718276 0.111784354 0.04071413 -0.0043680817 -0.103605315 0.069667265 -0.107921705
-0.021685764 0.070093915 0.046863824 -0.042381555 -0.04926917 0.05094056 0.09892787 0.036096722
-0.051221162 0.04556617 0.043053314 0.03297147 0.056565642 -0.03481157 -0.033178374 -0.0738703
0.00037284195 -0.025237799 0.020911843 -0.076110646 0.106515735 -0.0050664693 0.07822658 0.06225215
0.09993562 -0.015342072 -0.051514 0.04379283 0.059042186 0.11104959 -0.027965948 0.11329438
0.03010133 0.07678819 0.11415383 -0.0035651177 0.12213999 -0.12485862 -0.10592748 -0.017060623
-0.10777672 -0.087388754 -0.052065194 -0.094944194 0.08014567 -0.09689136 -0.04502386 0.05024077
-0.065678835 0.0009725988 0.02037172 0.113542244 -0.036352575 0.025538206 0.037481025 -0.024319187

lstm.bias_ih_l1 f4 [256]
00000000: 50c8 393c d428 5f3d 0c6a d7bd a0f6 7fbd
00000010: 4409 4c3d 1471 b73d c432 eb3d 3c5e 373d
00000020: 84a1 79bd 60b0 163d a0f6 9ebb d089 c63d
00000030: 7c11 043d a491 f0bd c878 993c 22d2 babd
00000040: 68ff 863d 9020 dcbc 0c69 ea3d 6e1e ab3d
00000050: 647a 7dbd 40f3 283b 58eb 3e3d 9062 30bc
00000060: f2e8 a0bd 00fa f139 0087 6fbb a089 af3c
00000070: 789a 18bd d4ea 57bd b09c 243d c076 0dbc
00000080: 50c9 edbd b2f0 d13d 86c3 a03d 20d5 bfbb
00000090: 6448 4f3d a441 36bd e03c f4bb d041 8abc
000000a0: e26c ed3d 1868 3e3d 5446 953d 2208 e7bd
000000b0: aa1e 9abd e403 58bd 4a1b a53d dc04 70bd
000000c0: 8485 1f3d 0a85 81bd 487e 8abc 8000 483d
000000d0: 6009 bc3c 7ad9 a23d f012 21bc c667 803d
000000e0: 10ff debc de10 d73d c0b4 2dbb 84ae 9abd
000000f0: c874 b0bc 6c5e 26bd 50f0 72bc 3e8c 953d
00000100: c68a c53d e078 cf3c a667 80bd 1079 57bd
00000110: 047e 13bd d02d b8bd d0d2 9d3d 90d2 623c
00000120: 642b ee3d 403d 7abb eed4 93bd b43c f73d
00000130: 408f f8bb cae0 ccbd f2d2 bfbd d8de b4bc
00000140: 9e7b 963d bed1 86bd 8cfe 0ebd 402f 713c
00000150: 1c13 f83d c0fa 73bd f057 febc 8063 66bb
00000160: c05d 2dbd fecc f5bd c47c 85bd d2d4 db3d
00000170: 00a2 3fbd a432 7fbd 94a1 58bd c076 3abc
00000180: 381f dbbd e03c 973c 5ec9 913d 8047 b9bc
00000190: 3c25 883d 4016 f33c d0db 46bd 886b b5bc
000001a0: b63f b33d 6012 bdbd 3e94 d63d b44e a53d
000001b0: 5a1f c93d 4eb7 edbd 9acc b3bd 00ad 94bd
000001c0: 0061 763d 7add aa3d 24e8 f13d 108a c23c
000001d0: 0051 b93a 80ab 583b 54e9 a13d 58ea 02bd
000001e0: 0052 db39 fac5 c3bd 882a c2bd 405d 343c
000001f0: d2ae a3bd ece1 b9bd 9673 e4bd 6070 cabb
00000200: 2412 ddbd 3cd9 03bd 2012 6dbc 1628 aa3d
00000210: 48c0 843d 6e76 bcbd 58a0 e2bd 4ab9 b0bd
00000220: 5882 dbbc c80f 733d 6836 1a3d ae3b f7bd
00000230: a42b aa3d 6096 7b3c 981c bc3c 0085 b63b
00000240: 04f2 00bd e2b0 c33d 666a 9dbd c065 2d3b
00000250: 9887 97bd 6493 283d 6639 bf3d c0fc 523d
00000260: 7004 e9bd ccf6 ae3d 3018 eabd 0e23 99bd
00000270: 48cd e33d 4a4e bd3d 70a5 3fbc 04ef f0bd
00000280: eced c43d 8008 f1bc 18af e2bc 4676 c63d
00000290: 2cc5 3d3d 2a00 b03d a499 3ebd a0b1 833b
000002a0: 68cf e33c 78be 833d 2649 fd3d 0058 f0bb
000002b0: 5021 41bc 6e47 f73d d4c1 043d 4ec3 c73d
000002c0: d606 eb3d 3a77 82bd b09d 2ebc 8cac f43d
000002d0: 1e0a 883d b8d4 ccbd 1474 d7bd a873 adbc
000002e0: 50d0 cfbc 202d 6dbc 0085 e33d a8f5 94bd
000002f0: c434 ddbd aca0 c0bd 96ea 8e3d 40ba 213c
00000300: 0e8b e0bd 7088 eebc 727b 843d 6c73 1dbd
00000310: 6c57 713d 34da ea3d a00d ffbc f857 adbd
00000320: 50f2 cc3d b66d 83bd e05e bebd 683e fcbc
00000330: 62b7 fd3d e0a2 ba3d 2443 e0bd 58b3 a5bc
00000340: 00a0 fbbd 4066 233c 144a 623d 8ac9 e8bd
00000350: d82c 183d 88ba 873d 5879 edbc aac8 9c3d
00000360: 0e12 d0bd 3ce1 e33d c871 b6bd 8842 abbd
00000370: 2c7d d83d 806a 99bd 0eed f4bd e4d1 a7bd
00000380: 3476 453d a0bc 83bc 8cb6 533d 2034 94bb
00000390: ccdf c4bd 50c6 a5bc 46ca e33d f821 b23c
000003a0: d020 5abc c0d1 5f3d d054 68bc 2c9b 97bd
000003b0: 8043 9d3c 268b fdbd 428f e73d f227 9b3d
000003c0: 6815 943c 78d1 2bbd d02c 99bc e4e1 af3d
000003d0: fcbe d2bd 3001 54bc 1c8b 7ebd 2e63 aebd
000003e0: 90d4 003c b829 5c3d 5083 9a3c dcbd f23d
000003f0: c833 71bd 0a99 e73d 401c 493b e68e b1bd
0.011339262 0.054482296 -0.10518274 -0.06249106 0.049813524 0.08957115 0.11484292 0.044767603
-0.06094505 0.036789298 -0.0048511773 0.096942544 0.032243237 -0.11746529 0.01873435 -0.09122111
0.065916836 -0.026870996 0.11445817 0.083554134 -0.0618843 0.0025779754 0.04661116 -0.010765687
-0.07856931 0.00046153367 -0.0036548972 0.02142793 -0.037256688 -0.052714184 0.04018849 -0.008634269
-0.11610663 0.10250987 0.07849793 -0.005854264 0.050606146 -0.044496194 -0.007453546 -0.016877085
0.115930334 0.04648599 0.07288805 -0.11280848 -0.0752538 -0.052738085 0.080618456 -0.058598384
0.03894569 -0.06324203 -0.016905919 0.0488286 0.02295369 0.079516366 -0.009831175 0.06269793
-0.027221233 0.10501264 -0.002650544 -0.075528175 -0.02154006 -0.04061739 -0.014827803 0.0730214
0.096456096 0.025326192 -0.06269769 -0.05260569 -0.03600885 -0.08993113 0.07706225 0.013844147
0.1162937 -0.003818348 -0.072183475 0.12072125 -0.007585436 -0.100038126 -0.093664065 -0.022078916
0.07347797 -0.06582974 -0.034910724 0.014720738 0.1211302 -0.059565306 -0.031047791 -0.0035154521
-0.042325735 -0.1200199 -0.06517938 0.10733952 -0.046785355 -0.062304154 -0.052888468 -0.011380851
-0.10699314 0.018461645 0.07118486 -0.022617102 0.06647727 0.029673696 -0.048549473 -0.022146001
0.08752386 -0.092320204 0.10477494 0.08071652 0.09820433 -0.11607228 -0.08779259 -0.0725956
0.0601511 0.083430246 0.118118554 0.023747474 0.001413852 0.0033061206 0.07905832 -0.03196177
0.0004183203 -0.095592454 -0.094807684 0.011008561 -0.07992329 -0.09076294 -0.11154859 -0.006177947
-0.10794476 -0.032189593 -0.014469653 0.08308427 0.06481987 -0.09202276 -0.110657394 -0.08629091
-0.026795551 0.059341222 0.037649542 -0.1207193 0.08309105 0.015355676 0.022962853 0.005570054
-0.031480804 0.09555222 -0.076863095 0.0026458353 -0.07398909 0.041156188 0.0933712 0.051510572
-0.113777995 0.085431665 -0.11430395 -0.07477389 0.11123139 0.09243448 -0.011697158 -0.117643386
0.096156925 -0.029422998 -0.027671382 0.096905276 0.046330616 0.08593781 -0.046533242 0.0040189773
0.02780886 0.064328134 0.123674676 -0.007334709 -0.0117877275 0.12074171 0.03241141 0.09754048
0.11475913 -0.06370397 -0.010657713 0.11946973 0.06642555 -0.100015104 -0.10520187 -0.021173313
-0.025367886 -0.014476091 0.11109352 -0.07273418 -0.1080108 -0.09405646 0.069783375 0.009871066
-0.109640226 -0.029117793 0.06468858 -0.038440153 0.058921263 0.114674 -0.031134427 -0.08464044
0.10007155 -0.0641741 -0.0929544 -0.030791476 0.12388493 0.09113097 -0.10950306 -0.02022712
-0.12286377 0.009973109 0.055246428 -0.113665655 0.03715214 0.06627375 -0.028988525 0.07655461
-0.10159694 0.111269444 -0.08908421 -0.08362299 0.1057075 -0.074910164 -0.11959277 -0.0819433
0.04820843 -0.016081154 0.051687762 -0.0045228153 -0.09612998 -0.020236164 0.11122565 0.021744713
-0.013313487 0.054643393 -0.014180377 -0.074026436 0.019197226 -0.12380056 0.11306621 0.07575978
0.018076614 -0.04194781 -0.018698126 0.08588007 -0.10290334 -0.012939736 -0.062144384 -0.08515011
0.007863179 0.053750724 0.018861443 0.11852619 -0.058887273 0.11308487 0.0030687004 -0.08669834
